mnist_nets/conv2.pt (torch, 668619 bytes, 8 tensors)

layers.1.weight f4 [16, 1, 4, 4]
00000000: cd81 21b8 d61d 6eb7 69b5 22b9 d74f 42b8
00000010: b511 32b7 7014 c3b8 63e8 cdb8 f90b 9cb9
00000020: 9b81 54b9 817a 34b9 5da0 0239 bea6 59b7
00000030: 53f5 53b9 d4b3 b83b 982b ae3f 26cb 60b9
00000040: 09fc a1b8 2517 e2b8 e3cf 6c37 5636 d3b8
00000050: 1faa f3b8 fe71 4839 0ec6 6639 b02a 06b9
00000060: 111a 06b7 469d 2a40 05b2 7939 0d45 19b9
00000070: b5e9 ffb7 39f4 b639 6bff 7b38 928e 1ab9
00000080: a32a 5537 ebbc deb5 df04 5036 119d b736
00000090: 5874 06b7 3cca 3137 7ee8 9c36 1ab7 0837
000000a0: 84a4 b237 0265 8fb6 a6d9 4bb6 44ed 1737
000000b0: 39e8 e3b6 3cde 07b7 055b 0fb7 4f9a 7a37
000000c0: cfb3 dc37 7385 63b8 53a7 7bb9 74fe 02b9
000000d0: 3d40 e037 4110 eeb8 40e6 84b9 6d0f b337
000000e0: 7e12 9eb6 e9ba 41b9 153e 7c38 2de2 3840
000000f0: c84b 2db7 0d70 e5b8 7919 2bb9 b0da 1339
00000100: 6bb8 28b9 4e80 5737 e0ea 1f40 68ef a2b8
00000110: 880b b5b8 74cb 7138 35d5 91b7 7d5c 76b9
00000120: fe5a a6b6 3b06 87b7 6f04 72b8 835c 91b8
00000130: 7bcc 17b8 7297 f737 f422 91b7 3418 2cb8
00000140: 6787 18b9 a01a 9839 639c 0638 268d 1539
00000150: 2766 863f 0efc 31b9 9948 5c37 ccf9 4739
00000160: 8a32 2339 a6aa e838 6d45 c138 24ba 4539
00000170: 4f44 5438 905e 9138 dfde ed38 0b7a 2239
00000180: 4a59 95b8 3054 65b9 8f0f 88b9 946c 83b9
00000190: e812 2335 99bd f23c cb00 a3b8 5bcb deb9
000001a0: 040c 063a 312a b73f 21d1 77b9 eb40 94b9
000001b0: 607e a539 0a22 d339 b05c e5b9 f88e 7cb9
000001c0: 5266 e3b9 e002 7c36 ad38 63b8 0b65 9bb9
000001d0: 4e61 8d37 8c51 2c40 2fd9 b539 fc33 b8b8
000001e0: d4e0 a235 9daa 033a 85db 97b7 d96f f135
000001f0: e739 e1b8 39b2 61b8 d402 93b8 7075 fcb6
00000200: 6148 16b6 2c35 52b7 d0d9 cbb7 1607 9a35
00000210: b33c 6937 d836 f1b5 1dd8 1eb7 b69d 7fb5
00000220: 4b43 85b7 0fda 6037 eb21 1fb6 0d38 7136
00000230: df56 47b6 ef47 2037 77cd 2b35 52e8 2037
00000240: edc3 1637 5e08 24b7 d8f8 8036 76a8 6cb7
00000250: 83de 6cb6 a62e 3536 9a49 9837 2d94 ce36
00000260: 4908 c136 158a b2b6 b3ef e736 d883 69b5
00000270: 620d 9835 240d 84b5 e12c 8137 0f51 1eb7
00000280: 308e 8036 6358 e136 3b11 d0b6 3fe7 f336
00000290: 406e 3ab7 f43f 92b6 835c 5e36 6408 26b7
000002a0: f7bf 11b6 fd16 7fb6 4814 aeb6 f5be 4a37
000002b0: d7a3 bc36 35c5 b635 f1b8 1037 84dc 6636
000002c0: c4bd 41b8 5563 81b8 da42 0cb8 b63d 03b8
000002d0: be98 e4b8 fc22 98b8 1dca d738 c122 2538
000002e0: 2142 dd38 d7dd ab38 9af5 0c38 0b0b 7937
000002f0: bb77 4940 8d16 8639 1457 e4b8 664a d2b7
00000300: 10e8 0fb8 5fbc 65b8 ddcb 85b9 116b edb7
00000310: 9172 a2b8 ca03 69bb 5e3f 40b9 4cfe 8b39
00000320: e70e 50b9 a232 9eb8 b320 ca3f b056 7539
00000330: c0dc d9b8 c227 3538 18bf 9638 433a 15ba
00000340: 1392 55b9 1bbd 2cb9 0049 93b7 479b 8b36
00000350: 23f5 8338 6a20 6638 4afe 6db8 4f80 f237
00000360: 7e05 3c40 917d c539 d874 77b8 0d94 91b5
00000370: 4dca 5b39 be74 3137 2468 93b8 0bb1 1d38
00000380: 2441 0d37 ee0b 07b7 064e e6b7 ae8b be34
00000390: 29c8 11b7 344b 5fb7 663e d435 9d57 6237
000003a0: 0ef6 3bb6 cd53 b3b6 6fb8 3cb7 01fd f136
000003b0: 5799 d636 e76e 4637 5ca3 1336 6637 8735
000003c0: 5a1b beb7 76b5 8bb6 e5f5 4fb6 bdb5 46b8
000003d0: e469 8bb8 29cc c7b8 2cef 3038 8822 5e38
000003e0: 588c 4eb8 ec12 aa38 354d 9839 425e ba36
000003f0: d57c 38b9 25a4 8139 3042 bc3f be2f e739
-3.8506278e-05 -1.4192852e-05 -0.00015517104 -4.632756e-05 -1.06137495e-05 -9.3021314e-05 -9.818447e-05 -0.0002976356
-0.00020266177 -0.00017211774 0.00012457506 -1.2973031e-05 -0.00020213918 0.0056366716 1.3607054 -0.00021437983
-7.7240235e-05 -0.00010780831 1.4115099e-05 -0.00010071385 -0.000116188305 0.00019115952 0.0002200829 -0.00012795138
-7.9930915e-06 2.6658492 0.00023812808 -0.0001461694 -3.0507197e-05 0.00034895705 6.008094e-05 -0.00014739696
1.27057165e-05 -1.6595271e-06 3.099725e-06 5.47211e-06 -8.014111e-06 1.05971085e-05 4.676228e-06 8.148863e-06
2.1295862e-05 -4.273491e-06 -3.0376045e-06 9.055544e-06 -6.7921615e-06 -8.09837e-06 -8.544656e-06 1.4937089e-05
2.6309774e-05 -5.42453e-05 -0.00023999558 -0.00012492557 2.6732794e-05 -0.00011351752 -0.00025348552 2.1345646e-05
-4.7109197e-06 -0.00018475544 6.01393e-05 2.8888047 -1.0329248e-05 -0.00010940442 -0.0001631732 0.0001410048
-0.0001609043 1.2844872e-05 2.4987106 -7.769355e-05 -8.6329004e-05 5.7648358e-05 -1.738463e-05 -0.00023494843
-4.9577784e-06 -1.6096155e-05 -5.7701425e-05 -6.9313704e-05 -3.6191643e-05 2.9515217e-05 -1.7301623e-05 -4.1030537e-05
-0.00014546291 0.00029011536 3.2093736e-05 0.00014262329 1.0499924 -0.00016973933 1.3129925e-05 0.00019071175
0.00015563719 0.00011094408 9.215889e-05 0.00018856727 5.0608356e-05 6.9317524e-05 0.000113425536 0.00015494988
-7.121505e-05 -0.00021870504 -0.00025951533 -0.00025067164 6.0749744e-07 0.029631423 -7.7725934e-05 -0.0004249465
0.0005113485 1.4309751 -0.00023633662 -0.00028277127 0.0003156541 0.00040270417 -0.0004374734 -0.00024085853
-0.00043373049 3.75526e-06 -5.41738e-05 -0.00029639187 1.685382e-05 2.6924772 0.00034684825 -8.7834866e-05
1.2135374e-06 0.0005022677 -1.8102824e-05 1.7988451e-06 -0.00010739621 -5.3810163e-05 -7.010033e-05 -7.5238568e-06
-2.2393872e-06 -1.2529355e-05 -2.4300913e-05 1.1475956e-06 1.3902015e-05 -1.7971861e-06 -9.467852e-06 -9.52244e-07
-1.5886171e-05 1.3402211e-05 -2.371259e-06 3.5944424e-06 -2.9703876e-06 9.5534915e-06 6.4001455e-07 9.590834e-06
8.986314e-06 -9.77711e-06 3.8436665e-06 -1.4105919e-05 -3.529626e-06 2.6998255e-06 1.8154085e-05 6.1565283e-06
5.7528127e-06 -5.3208882e-06 6.912241e-06 -8.699112e-07 1.1328777e-06 -9.838591e-07 1.5398897e-05 -9.436407e-06
3.83125e-06 6.715812e-06 -6.200889e-06 7.268885e-06 -1.11121335e-05 -4.358584e-06 3.3134427e-06 -9.896325e-06
-2.1718422e-06 -3.8011342e-06 -5.187965e-06 1.2084599e-05 5.62191e-06 1.3617451e-06 8.626129e-06 3.4401028e-06
-4.619152e-05 -6.1697014e-05 -3.344086e-05 -3.1290307e-05 -0.00010900338 -7.254441e-05 0.000102896454 3.9371433e-05
0.00010550419 8.195236e-05 3.3607335e-05 1.4844128e-05 3.1479328 0.00025575273 -0.00010888107 -2.5068595e-05
-3.4309982e-05 -5.477329e-05 -0.00025519627 -2.8302458e-05 -7.7461016e-05 -0.0035555237 -0.00018334153 0.00026701612
-0.00019841977 -7.543458e-05 1.5791229 0.00023397314 -0.00010388484 4.319079e-05 7.188151e-05 -0.00056925806
-0.0002036768 -0.00016473646 -1.7557759e-05 4.1605995e-06 6.292227e-05 5.486646e-05 -5.674203e-05 2.8908396e-05
2.9378352 0.00037668322 -5.899821e-05 -1.084643e-06 0.0002096083 1.0577203e-05 -7.028904e-05 3.75966e-05
8.419422e-06 -8.049405e-06 -2.745447e-05 3.5491888e-07 -8.689277e-06 -1.3309345e-05 1.5813391e-06 1.3491049e-05
-2.8008394e-06 -5.3443714e-06 -1.1248615e-05 7.211813e-06 6.395548e-06 1.1827541e-05 2.1999795e-06 1.0074407e-06
-2.2662502e-05 -4.1636476e-06 -3.0988533e-06 -4.7376136e-05 -6.64776e-05 -9.527087e-05 4.2184416e-05 5.2961084e-05
-4.9244933e-05 8.109756e-05 0.00029049223 5.554205e-06 -0.00017594111 0.00024727095 1.4707699 0.00044095324

layers.1.bias f4 [16]
00000000: b0ee 40c0 b4e7 81be 8e82 aa3f 7ae9 8cbe
00000010: cfb3 73be 4985 cdbd f8e0 4dc0 a050 83be
00000020: 3e86 57bd c8d7 7cbb f9bc 53be 3f65 99be
00000030: fbe4 5ec0 4f36 8fbe 6311 02bc 4386 0fbe
-3.0145683 -0.25372088 1.3321092 -0.27521878 -0.2379906 -0.10035188 -3.216856 -0.2564745
-0.052618258 -0.0038580764 -0.20677556 -0.29960057 -3.4827259 -0.27971122 -0.007938716 -0.1401606

layers.3.weight f4 [32, 16, 4, 4]
00000000: dabd 2fbe 8fce 9cbe aeb3 e53e 4b2f 9e37
00000010: cd88 30be d42a ffbe d5b6 d03d 036b de38
00000020: 5f01 87ba 16b0 cdbe 962c 37b8 736d c93c
00000030: 8c43 e0b9 c6f4 73be 533a 9ebd 3b4c 5bb9
00000040: c2aa 933d 5ca5 1f3c 2480 8338 b0e4 eebd
00000050: a9ea 9fba 9273 843d db5c 533a 412c 59be
00000060: 5a98 9fbd 1071 793d fb2d 243d f4ce 1dbe
00000070: b879 66bc 6502 453d 8cb2 933c 30d8 74bc
00000080: 7167 adb9 1f5c aeb9 a619 afb9 f4c2 a5b9
00000090: c4b7 65bd 48f1 6abd f8cc 41bd 20aa 09bc
000000a0: 9985 85bd d6a5 aabd fe9a 3ebd 2712 f1bb
000000b0: 06a4 a6b9 546d a7b9 5b20 a7b9 2f13 a4b9
000000c0: 2451 643c 8428 c938 e403 49be af0d 1039
000000d0: b619 093e 2181 203c 3f44 81be 04b6 22bd
000000e0: 77af cb3d 40ed 293e dd01 30be 8725 b5ba
000000f0: 3746 803c 73ab 213d 8788 92bb 7ece c83a
00000100: 2aae 423c 3acb fc3b de17 44bb 8d53 08bd
00000110: 2b95 df3c a5b5 ce3c 8c9f f5bd 8cd9 d7bc
00000120: acfc 2c3c 536c 0f3e ba8f a0bc 9da1 b3be
00000130: de00 e238 a1ed 303e c347 4ebc d098 0ebe
00000140: 6a17 813c 8bba 313d e916 75b9 423a 84bd
00000150: f74b ceb9 668c 5839 2083 d238 e259 37b9
00000160: 6b00 00ba 237c 153a 90ff 6a3b a548 0939
00000170: d6b6 f1b8 4f97 7cb9 9239 573a dc0e 4d39
00000180: 611e 09be ae88 38bd 8f21 65b9 1410 1b3f
00000190: 0d85 96b9 3940 c8be 031d b0bc 074b 0537
000001a0: 0915 113e f198 9fbe be3b cfbe 31c0 213f
000001b0: cc8d b23c e1be f5bd c1fb ccbd 08ea 133d
000001c0: 5b19 273d 5ea8 883c c455 14ba 5efd cebd
000001d0: 8630 c73b 9655 053d 3d10 a838 cb70 92be
000001e0: 6b31 b2bc 009e 433d 5712 df3c fa20 8bbe
000001f0: ed3a f2bb c5da a63c 5586 e43c 2c92 debc
00000200: 6012 75b6 d9ad 83b6 6480 43b6 d35f 3137
00000210: 338a a2b4 b2d3 5537 4582 44b7 ae85 96b5
00000220: fe3c 07b7 fdc8 beb6 74c1 ffb6 b08c e0b6
00000230: baa3 ea36 e9b5 48b7 ef41 0834 044e 5437
00000240: 61f5 e236 ae4b 54b7 e200 ccb6 5077 2737
00000250: 796b b535 b157 60b6 491e 0936 7a2b fc36
00000260: 5c4e 65b7 157a 3637 c8b7 adb6 4936 8bb7
00000270: 2eb1 4a32 034f 9836 d15e e4b7 cae1 5d37
00000280: 311f 1036 1856 7a36 c07d 0737 f7ed 9d36
00000290: d329 64b7 12bf 17b7 1bdf 0eb7 6182 0ab6
000002a0: bf3c f1b6 8e6e 0236 e52c 9335 2039 4236
000002b0: e6c6 0bb7 8770 e034 0d92 0037 40b5 2437
000002c0: a480 ceba afb0 983d 174a e13d 74a1 49be
000002d0: 4b60 6cbc 83de 923d e882 1d3e 6d24 a2bd
000002e0: 8256 3bbc 863e 4a39 8f8b 233e 932c 8039
000002f0: 2609 31bc f9df c2ba 614d c43d 5db4 4a3d
00000300: 922c 16be ef23 c9bd 7262 063f 28c7 0fb8
00000310: 1a22 f7bd 8ef9 eebe 2c82 4a3e 3a6d 0439
00000320: d642 b2bc 386f 20bf 4369 043e 359f 453e
00000330: 09b8 96b9 c654 90be 0ebc 0f3a 9b9a 24b9
00000340: bd7a 283b b313 653d c2ab 113d f3bb 3abe
00000350: 9338 9dbb 7feb 613d 3359 0c3e f6b5 d8bd
00000360: 7c3b 35bc 2131 313c 946b 4a3e ccf8 6dbd
00000370: 7740 90bb 6898 b639 3821 1c3e a994 7d3a
00000380: 8b54 0fb7 8032 af35 ba76 dc37 f81f 6eb6
00000390: 2dc0 7fb6 50ea 0b37 83a6 0fb7 1292 3937
000003a0: 1407 8d35 a8f7 0db7 bcb1 b335 b98d 6e37
000003b0: 8cc1 b4b7 1d9a 32b7 382d a0b6 3264 cf36
000003c0: bd41 8839 84dd 883d c1db d7b9 6910 85be
000003d0: f494 463a a85a 133e 43fa 86ba ed1b f6be
000003e0: 583a 57b9 d360 4d3d c9b6 6339 8936 2ebd
000003f0: 078a f9b9 ec33 e43c c175 123a 0fba 88b9
-0.17162266 -0.30626342 0.44863647 1.885709e-05 -0.17239685 -0.49837363 0.101911224 0.000106057174
-0.0010300091 -0.40173405 -4.3672124e-05 0.024588322 -0.00042774936 -0.23823842 -0.07725968 -0.00020913866
0.07210304 0.009744015 6.270435e-05 -0.116647124 -0.0012200671 0.06467356 0.0008062848 -0.21208288
-0.07792731 0.06089884 0.040082913 -0.15410978 -0.014067106 0.048097987 0.018029474 -0.014944121
-0.000330742 -0.00033256502 -0.0003339771 -0.00031616504 -0.056083456 -0.05735901 -0.047314614 -0.008402377
-0.06519622 -0.08332412 -0.04653453 -0.0073569003 -0.00031784194 -0.00031934178 -0.0003187683 -0.0003129481
0.013935361 9.5919735e-05 -0.1963039 0.00013738008 0.13388714 0.009796412 -0.2524738 -0.039724365
0.09945577 0.1659441 -0.17188211 -0.0013820388 0.015658481 0.039470147 -0.0044718417 0.0015320329
0.011882344 0.007714656 -0.0029921453 -0.033282805 0.027292809 0.0252331 -0.11993322 -0.026348852
0.010558289 0.14006166 -0.019599784 -0.3508424 0.00010776681 0.17278148 -0.0125903515 -0.13925481
0.015758235 0.043390792 -0.00023373555 -0.06456424 -0.0003934798 0.00020651668 0.00010038004 -0.00017485724
-0.0004882875 0.0005702397 0.0035857894 0.000130924 -0.00011525831 -0.0002408896 0.0008210178 0.00019555859
-0.13390495 -0.045052223 -0.00021851643 0.6057141 -0.0002870936 -0.39111498 -0.021498209 7.944886e-06
0.1416818 -0.31171373 -0.40475267 0.63183886 0.02179613 -0.11999298 -0.10008956 0.03611186
0.040795665 0.016681846 -0.0005658532 -0.1010692 0.0060787825 0.032552324 8.013889e-05 -0.2860168
-0.02175208 0.047758102 0.027230425 -0.27173597 -0.0073922784 0.02036799 0.027896086 -0.02716931
-3.651854e-06 -3.9243428e-06 -2.9131998e-06 1.0572333e-05 -3.0275405e-07 1.27450785e-05 -1.1712841e-05 -1.1214777e-06
-8.060828e-06 -5.6858394e-06 -7.622113e-06 -6.6920984e-06 6.9928037e-06 -1.1963283e-05 1.2689974e-07 1.2654349e-05
6.7638907e-06 -1.2653805e-05 -6.0797765e-06 9.981755e-06 1.351683e-06 -3.3429644e-06 2.043222e-06 7.5152466e-06
-1.3667708e-05 1.087647e-05 -5.1771967e-06 -1.659537e-05 1.17982335e-08 4.539151e-06 -2.722387e-05 1.3225197e-05
2.1475828e-06 3.7303016e-06 8.0759055e-06 4.7066674e-06 -1.3599597e-05 -9.044788e-06 -8.515805e-06 -2.0639493e-06
-7.1894315e-06 1.943586e-06 1.096542e-06 2.8941504e-06 -8.331355e-06 4.1805126e-07 7.6634e-06 9.817362e-06
-0.0015754891 0.07455575 0.1100046 -0.19690496 -0.014427255 0.07171347 0.15381968 -0.07917104
-0.011434199 0.00019287513 0.15971206 0.00024447273 -0.010805404 -0.0014867774 0.09585071 0.049488414
-0.1466544 -0.09821307 0.52493966 -3.4279336e-05 -0.12067051 -0.4667477 0.19776219 0.00012629191
-0.021760385 -0.62669706 0.12930779 0.19299014 -0.00028747346 -0.28189677 0.00054830394 -0.00015697854
0.0025707923 0.05592699 0.03556419 -0.1823576 -0.004798004 0.055156227 0.13705902 -0.10581581
-0.011061545 0.010814936 0.197676 -0.0580986 -0.004402216 0.00034827297 0.15247047 0.0009673336
-8.543148e-06 1.3053213e-06 2.628133e-05 -3.5483372e-06 -3.8109822e-06 8.339601e-06 -8.562233e-06 1.1060869e-05
1.0507379e-06 -8.461917e-06 1.3388267e-06 1.4218903e-05 -2.15478e-05 -1.0645509e-05 -4.7736357e-06 6.180745e-06
0.0002598892 0.06682876 -0.00041171725 -0.25989082 0.00075752963 0.14390051 -0.0010297972 -0.4806818
-0.00020525733 0.050141167 0.000217165 -0.042532478 -0.0004759582 0.02785679 0.00055870047 -0.00026078566

layers.3.bias f4 [32]
00000000: 5784 eabe e110 e4bd 5096 dcbd ecfe 04bc
00000010: 720a a5bd a5b9 dabc 56d4 91be 963e 19bd
00000020: 7ab2 21bd 8105 a7be 3be1 05be 071f a6bd
00000030: 8ff1 c2bd aa18 79bc 86e2 71bd 67c6 20bc
00000040: f4c1 2bbd 37ae c0be aae2 29be bf1d bcbe
00000050: ad78 35bd 31ae c7bd 1676 bbbe 0f21 02bf
00000060: b822 21be 2a5c 8cbd d17d cbbd 7a10 38be
00000070: 9cb8 26bd 863d 8dbc b11d 6abe 0026 73be
-0.45804092 -0.11136032 -0.10770857 -0.008117419 -0.08058633 -0.02669985 -0.28482312 -0.037413202
-0.03947685 -0.32621387 -0.130742 -0.08111387 -0.0951873 -0.015203634 -0.05905392 -0.009812928
-0.041933015 -0.37632915 -0.16590372 -0.36741444 -0.04430454 -0.09750021 -0.3661353 -0.50831693
-0.157359 -0.068535164 -0.09936107 -0.17975035 -0.0407034 -0.01724125 -0.22862889 -0.23744965

layers.6.weight f4 [100, 1568]
00000000: d491 4336 0e7e b5b6 f38c 0f3a 86b1 8cb8
00000010: 215b b939 9b04 0437 55d3 ea36 fefe aeb6
00000020: 6f82 90b9 9789 53b9 c7cb 9c3a 19b2 58b9
00000030: d9df 223a a428 f0b9 19cf 9035 9b28 b6b8
00000040: 4a41 3fb9 e241 1aba 9e7c d53c 40b6 013b
00000050: 83d1 38b8 aacc e835 7f6a bdb8 a55c 3539
00000060: 5dc9 a7ba 459a 1b3d 3e8f 123a 6b79 b1b9
00000070: 3262 b236 fe87 823a dd6b 243c 7c89 17ba
00000080: 0663 d63c 5877 0e39 b618 173a c440 6736
00000090: 1c16 73b5 4002 d639 ed13 433d 056c 3aba
000000a0: e9f3 663b 02be 75b8 6ad3 0437 a5c5 0336
000000b0: d5b4 0137 fa72 9f39 7b5c 54b8 b086 4838
000000c0: c3a1 19b4 2c51 d536 0d80 6f37 7253 9139
000000d0: f7fa 0eb9 c770 7f39 ea1b a237 3eac b0b5
000000e0: 583e 55b9 218d adb8 2b39 9538 c796 e2bb
000000f0: 4a99 2339 9c66 d6bd 75fd 4aba aede bfb6
00000100: 4c61 4439 2a51 e7b9 de6a f5b9 e80a 513c
00000110: 6c87 1eb9 7c89 37ba 78c5 1bb7 9064 66ba
00000120: 3f8b 013c 8221 21b8 0426 bfbc 0e89 0c3a
00000130: 5abf 483a 9615 deb6 41b0 bd39 0452 92b9
00000140: da68 583a 479a 6abd 6fe9 02bd f014 1138
00000150: 1683 f4b7 db1b 81b9 2831 2d3a 064d 9a3a
00000160: 2887 7d3a 3771 72b9 8acf 1eb8 4e59 8436
00000170: 9889 09b9 b2b3 23b9 9a8c 0cb7 e277 0939
00000180: 81e6 b038 c44f 3cb8 543c 40b9 9683 22b9
00000190: 24cc a5b9 6781 31ba f4d3 1eb9 fbff 4db9
000001a0: bd43 deb8 679b 2fb9 3568 9e38 49a5 a5b8
000001b0: f918 d3be 6518 8f3a 5ead 573b c8b0 ae38
000001c0: 6823 d1b8 c8bc 9fb8 ec53 023c df2d ad3d
000001d0: 28ea e7bd 725f 64b9 f208 1738 823e 4cb8
000001e0: 3214 d2b8 b6c3 57be 2e59 7638 3e99 303a
000001f0: e2e2 cbb9 b2eb 8bb8 32ba 15b9 40b7 52bd
00000200: 2f9e dbbd 7079 3b3c b8f1 7f3d aecc 93b8
00000210: 3aa5 0db9 feca 2fb9 6bb1 83b9 120f 4e3c
00000220: 933b 783d 949f 29b9 f093 8339 b1c1 24b9
00000230: 3c17 63b9 d0b1 20b9 1c24 7d39 2cdf b4b9
00000240: 21cd b73a f6b3 46b8 a8d2 28b9 c115 a9b6
00000250: 44c6 1137 743a ae36 7fcc 9db7 b8e7 e9b7
00000260: cc98 1cb8 339f 1cb9 74a0 5437 6420 3839
00000270: 452c 7339 8713 7039 9e70 9dba 25bd ee36
00000280: aea2 d6b9 2124 bab8 3d9c 9ab9 323d cab9
00000290: 5f94 62b9 9ee2 e1b9 59ca 9bbc 42c2 bbb9
000002a0: d344 4eb8 4883 bd39 8b98 0739 c003 ce3b
000002b0: 9323 7f3c c6e4 df3c 3ef8 dfb9 c2eb 48b7
000002c0: 9b0b 8039 36cd 143a c228 71b9 6636 e43a
000002d0: 19f6 13b8 31dd a7b8 3ade 1438 1d9a 65ba
000002e0: 6d32 7fb9 e658 f039 0cab b0b9 2e39 f238
000002f0: e9d3 95b8 cbe0 0237 cf8a 07ba 0913 1c39
00000300: a457 1538 ac68 dab8 6678 9ab7 7403 9237
00000310: b629 b0b6 90c9 9337 266f 5c36 2eea ffb5
00000320: b66f 1637 d951 a531 2750 64b7 44f6 2db6
00000330: c8c2 9236 e43b 4836 11d4 6036 7563 cc36
00000340: 9547 4eb6 4de2 82b6 ca90 dbb5 e091 8036
00000350: 8640 1e37 b190 7ab6 b930 b3b6 f3e6 0eb5
00000360: 4211 c5b6 27ec 4c37 f372 7637 dee2 23b6
00000370: c1f3 28b7 5c4f 4836 b240 3137 ac8a a336
00000380: 3e89 7137 4247 b6b5 7385 c6b6 6f89 ef32
00000390: 9afa 7f36 cd23 bc36 4ec5 87b6 c0bf 6436
000003a0: 8541 f136 54b4 a4b6 bd0b 96b6 bef0 9435
000003b0: f543 55b7 5505 61b6 ad29 44b7 da45 9a36
000003c0: f6c2 3db7 e8f2 84b4 6cfd 03b7 eda2 a8b7
000003d0: f0f9 fc35 de5b d3b5 39ba 0138 e24e 11b7
000003e0: f6c2 0d38 61dc 04b6 a32e f437 869b b9b5
000003f0: 0de0 2235 7462 9538 9eb9 913a 924e 343b
2.9142147e-06 -5.408895e-06 0.000547602 -6.7087865e-05 0.00035353846 7.868885e-06 6.9983457e-06 -5.215289e-06
-0.00027563 -0.00020173784 0.0011962586 -0.00020665712 0.00062131655 -0.00045806647 1.0789109e-06 -8.686e-05
-0.00018239502 -0.0005884451 0.026060399 0.0019792467 -4.406414e-05 1.7344912e-06 -9.032059e-05 0.00017296018
-0.00128011 0.03798892 0.0005590803 -0.00033850534 5.316245e-06 0.0009958742 0.010035482 -0.00057806796
0.026170265 0.00013586634 0.0005763875 3.445938e-06 -9.055673e-07 0.00040818937 0.047626425 -0.0007111433
0.0035240597 -5.858951e-05 7.917037e-06 1.9635565e-06 7.731102e-06 0.00030412507 -5.0630868e-05 4.7809153e-05
-1.4308084e-07 6.3573443e-06 1.4275324e-05 0.00027718727 -0.00013635667 0.00024360708 1.9324903e-05 -1.3163151e-06
-0.00020336488 -8.27557e-05 7.115522e-05 -0.0069149467 0.00015601996 -0.1046879 -0.00077434565 -5.718167e-06
0.00018728263 -0.00044120225 -0.00046809664 0.012758948 -0.00015118503 -0.0007001383 -9.284697e-06 -0.00087887887
0.007906734 -3.8416598e-05 -0.023333557 0.0005360999 0.0007657908 -6.6186285e-06 0.0003618021 -0.00027908396
0.000825537 -0.057276037 -0.0319609 3.4590194e-05 -2.9148108e-05 -0.0002462555 0.0006606751 0.0011772222
0.0009671324 -0.00023121094 -3.786342e-05 3.944303e-06 -0.00013116596 -0.00015611833 -8.377387e-06 0.00013109998
8.435269e-05 -4.489698e-05 -0.00018333021 -0.00015498544 -0.0003162335 -0.00067712966 -0.00015147013 -0.00019645684
-0.00010598402 -0.00016747192 7.553437e-05 -7.8986e-05 -0.4122999 0.0010917304 0.0032909731 8.3298946e-05
-9.9724915e-05 -7.616874e-05 0.007954579 0.08456015 -0.11323959 -0.0002177933 3.6009536e-05 -4.8695605e-05
-0.00010017342 -0.21070752 5.8734026e-05 0.0006736702 -0.00038888218 -6.671938e-05 -0.0001427911 -0.051444292
-0.107235305 0.011442527 0.06248638 -7.047631e-05 -0.0001350836 -0.00016764921 -0.00025118454 0.012576835
0.06060369 -0.00016176543 0.0002509649 -0.00015712414 -0.00021657062 -0.0001532503 0.00024141412 -0.0003449855
0.0014022925 -4.737448e-05 -0.00016100204 -5.039125e-06 8.688836e-06 5.192409e-06 -1.8811084e-05 -2.7883667e-05
-3.73356e-05 -0.00014936626 1.2673543e-05 0.00017559674 0.00023190778 0.00022895458 -0.0012011712 7.114972e-06
-0.00040938467 -8.875901e-05 -0.00029489576 -0.00038574036 -0.00021608312 -0.00043084187 -0.019017385 -0.00035812153
-4.9178325e-05 0.000361467 0.0001293143 0.006287068 0.015572446 0.027330767 -0.0004271883 -1.1975821e-05
0.0002442271 0.0005676331 -0.00022998734 0.0017411232 -3.5276727e-05 -8.004381e-05 3.5492914e-05 -0.00087586214
-0.0002433748 0.00045842602 -0.00033696776 0.0001155011 -7.144345e-05 7.8009425e-06 -0.00051705254 0.0001488441
3.560599e-05 -0.00010414547 -1.8414295e-05 1.7406164e-05 -5.2500645e-06 1.7617625e-05 3.2847252e-06 -1.9067136e-06
8.966706e-06 4.811437e-09 -1.3608521e-05 -2.5922354e-06 4.3738146e-06 2.9837183e-06 3.350204e-06 6.091252e-06
-3.0738058e-06 -3.900647e-06 -1.6358911e-06 3.8316794e-06 9.432557e-06 -3.7337124e-06 -5.3402878e-06 -5.32352e-07
-5.8730666e-06 1.2214331e-05 1.4689506e-05 -2.4420947e-06 -1.0070334e-05 2.9848516e-06 1.0565085e-05 4.873922e-06
1.4396674e-05 -1.3580795e-06 -5.9163954e-06 2.788576e-08 3.814383e-06 5.6070044e-06 -4.046283e-06 3.408626e-06
7.189987e-06 -4.908574e-06 -4.471715e-06 1.1096924e-06 -1.2711612e-05 -3.3530716e-06 -1.1692214e-05 4.5976894e-06
-1.1310671e-05 -2.4763654e-07 -7.867213e-06 -2.0103029e-05 1.8848204e-06 -1.5747462e-06 3.092943e-05 -8.66104e-06
3.379859e-05 -1.979781e-06 2.9108784e-05 -1.3828837e-06 6.067574e-07 7.123212e-05 0.001111794 0.0027512652

layers.6.bias f4 [100]
00000000: a6c8 b33d 9f66 c13d b973 b8bc 69e1 a5bc
00000010: 111c 1e3e e899 a53d ffc1 7cbd 4f82 56bd
00000020: bba6 b13d 405e 8bbd dfec 973c 221e 73bc
00000030: eb41 873e 13a3 503e 85c4 fcbc e3a1 4a3d
00000040: eb47 0e3e 3587 683e 4e4f 38bd 5227 40bd
00000050: c292 cf3d 34f1 9a3c 605b 03bd 6987 ccbc
00000060: c31d 4b3d a8cd 8a3e c6d2 e1bd 516c 93bc
00000070: 047a 0b3e 095c 543d a8c9 35be 1507 9cbb
00000080: efbe 8abd 4028 573b 90dd b33d 8475 dbbc
00000090: 1e20 233e fc62 e3bc 4227 c33d 5bf7 a33c
000000a0: 623c 4b3d 38d4 fdbc ed7d 0a3d 387f 1f3e
000000b0: f176 80bc a6e9 5e3e e3aa 56bc 63f4 c9bc
000000c0: 2dfc dbbc 46f4 aebc ac34 b53d 2dcd cd3e
000000d0: 41c1 2b3e 0a18 0c3e 2f45 25be a031 453e
000000e0: 41f5 8f3e 4c70 223e a7c0 243b 67df 96bc
000000f0: 514e 4d3e 50c8 fc3b cda2 103e 7021 f43c
00000100: 355e ebbc 4256 f33c 4be5 94bc 8ddb 88bc
00000110: 2efe 143e d742 723e 74c5 f7bc e8b2 57bc
00000120: 32ab c5bd bbca 6a3d 5606 983d 3dd6 5fbc
00000130: 0834 3c3e baff 9a3c 47b4 edbc a9a0 cd3d
00000140: 65ad 273d 4777 efbd 9d57 d6bc 7984 b2bc
00000150: 7098 003e 6ffe 48be dd18 b83d 00c3 be3e
00000160: 94f5 e8bd 220f 593e d817 813e d3d1 4a3d
00000170: 08ff 003e 3c1e 4b3e 6b71 053e 684d 683d
00000180: eabd 543e e6fb cfbc 8eb6 4cbe 5b57 8b3c
0.08778505 0.094434015 -0.022516118 -0.020249086 0.15440394 0.08085996 -0.061708447 -0.052370366
0.086743794 -0.06805086 0.018545566 -0.014838727 0.2641748 0.20374708 -0.030855427 0.049470793
0.13894622 0.22707827 -0.044997506 -0.0469125 0.10135414 0.018913843 -0.032069564 -0.024966912
0.04958893 0.27110028 -0.1102653 -0.017995985 0.13620764 0.051845584 -0.17752707 -0.0047615864
-0.06774699 0.0032830387 0.08782494 -0.026789434 0.1593022 -0.02775716 0.09528972 0.02001541
0.049618132 -0.030984983 0.0338115 0.15575874 -0.015681716 0.21768817 -0.013102266 -0.024652665
-0.026853645 -0.021356713 0.08847937 0.401956 0.1677294 0.13681045 -0.16139673 0.19257212
0.281168 0.1586315 0.0025139244 -0.018417073 0.20049407 0.007714309 0.14124604 0.0298011
-0.028731445 0.029704217 -0.018175742 -0.016706252 0.14550087 0.2365831 -0.03024552 -0.013165213
-0.096517935 0.057322245 0.074230835 -0.013661918 0.18379223 0.018920768 -0.029016627 0.10040409
0.040936846 -0.11692672 -0.026164824 -0.021791684 0.1255815 -0.19628309 0.08989117 0.37258148
-0.11374965 0.21197179 0.25213504 0.04951651 0.12597287 0.19835752 0.13031547 0.056714445
0.20775571 -0.02538867 -0.19991514 0.017009428

layers.8.weight f4 [10, 100]
00000000: 7b4d d439 c51c 903e dfa1 09b7 980e 2db7
00000010: 5318 95be 1227 ecbd 77f9 e1bb 0c0d 0337
00000020: 7956 84be 56e5 933d 0ea2 3b37 369b afb7
00000030: 6670 2d3e 6634 e3bd a496 12be 1fc0 763e
00000040: 8146 2abc 01b1 a7be b130 0b3e 4571 5ab6
00000050: 192e e5be 5fa2 6d38 74b8 2937 0a2b fdb5
00000060: 9eae 2ebd ebd6 423e 2ea8 0f3d 80e7 3737
00000070: bad0 09bf 259b 41bf db75 c6be 60d4 8f3c
00000080: f76a 623a b64a 53bf b3a6 87be c825 86b6
00000090: 1cad 5cbd 81cf b1b5 a0c5 6a3d d95b 0739
000000a0: 6344 8fbd c7a0 e5b5 d337 1d3e 140d 0239
000000b0: c52e a4be 82cd 443e 8c35 8d3b 19f6 c635
000000c0: 6580 77b7 9e17 6eb7 0121 c5be 69ae a03c
000000d0: c42b 6abd 91fc 083e 7b8d 0537 1d7a 30b8
000000e0: 145f 803e 9804 6ebd 218f 2d3e 5ad4 a2b4
000000f0: c2d2 01bf 2b55 013d db5e cdbe fb65 1dbe
00000100: 5319 b1b6 bf56 cb3e 2fee 98b4 26c6 8b36
00000110: 5029 54be 51eb d43e a09b 84be ee7c b83d
00000120: 185b 3e3e e440 0fbf 44fb 503e 0e3f cdb6
00000130: 643d 6f3e b7f5 e738 f06a 22be e98b 4638
00000140: a071 283e e370 2fbd 9bcf 9235 72f0 b935
00000150: 812f c6bc d7d0 1d3e 0bb8 90b9 9ed1 083e
00000160: c2eb 3a3e 6574 343e 51d0 97be 4d01 1d3c
00000170: 0fd8 a0be 1ad7 473d d6a0 e73c 9d40 e13c
00000180: 5563 523e 70d0 a8b6 43ac fdbe b898 a33d
00000190: 3184 8bbe 78d6 ffbc 5e08 34b7 4041 30b7
000001a0: 2480 8dbc 4698 973d ab9c 153e c58b 7736
000001b0: 9e16 8cbe 4f60 153e 3820 acb7 50a5 dcb5
000001c0: 571f 16bf 6fe4 d2be bf92 4abd 58eb 043f
000001d0: 5cec 06bf 2728 c43d d82b e4bd b321 6eb7
000001e0: 0e5c c73c 539d 99b5 4e7a 73b6 96d8 bb35
000001f0: 42a1 d6be 1cc2 f2be 4bc1 fd3d 4981 7c36
00000200: 22df 5b3a 4e5d 2fbe 17c1 2ebd de4c 72b8
00000210: 0b80 103f 42a1 203e ee2c e8bd d8f2 fbb6
00000220: 9089 4ebf eee7 f7b3 bc69 6fbd 129b a2b7
00000230: d1ef 6c3e a7d8 26b6 1cde 15be 01ec cbbc
00000240: bbef 843e 73db 6839 ad04 8d3b 670a b136
00000250: 47ac c7b6 b4a1 5ab7 1273 4c3d a9ae 96bd
00000260: 7325 d6bc 3f54 3139 f97c 11b2 1a32 08bf
00000270: 563e abbc 6f44 abbd 2380 10ba 3c89 0d37
00000280: cbf2 ddbe e8b9 a5bc 0be5 a0bd e261 31be
00000290: 5a4d 3436 fcab 783e 9bc8 28b7 98da 8bb6
000002a0: a275 913d 0bd9 c23d 8cdc d93d d02f c03d
000002b0: 2799 ff3d 5f49 a4b8 d6c5 023e c1d5 1eb6
000002c0: 852f 0fbf d420 06b8 4e70 923e 1a74 a5bb
000002d0: 944a 1dbe 2176 d03d d40c 4637 a1ca 4636
000002e0: 8bd3 bf39 b29d 1b3e 6d89 be3d 12b3 a5be
000002f0: fa7d 2c3e c096 22bf cf19 b0bc 796e 013e
00000300: 42de 8ebc e65f 853d 9575 04bc 8302 fa3e
00000310: e087 3cbe f6f3 9737 f7a3 583b e40f 013e
00000320: 1e9b 1cb6 0570 903e 80cf 6eb6 455a 83b6
00000330: dbc8 1ebe 93bf c1be e9d2 cb3d 7fba e7b6
00000340: b223 d93e e32b 1b3e 65de 0438 94a7 6235
00000350: c844 a93d 9de9 a83d 8bac 963d 7a22 c8be
00000360: 0556 513e c9da bc3e 9eda 01bf bee6 3bb7
00000370: 5985 283e 173e 1d38 0784 2d37 4364 3fb6
00000380: c579 45be 9398 543d 3df5 023e cc96 9536
00000390: b3a1 1fbf 9ab4 01bf 5999 283e b2fd f83c
000003a0: 38fc f8b9 da19 203d 7f9c a73b e46b dfb6
000003b0: 7608 3dbe 4555 25b6 19b9 abbe 4747 b237
000003c0: 859c d8bc fbe7 99b7 a4a6 853e ab21 c33e
000003d0: 01bd 363e d606 24be 4c47 41bf c4e1 e636
000003e0: 4fac a8b5 4959 e5b7 bd15 373e 7584 a53e
000003f0: a1f9 4b3d 1b5c 2f3e 822f 7fb6 121e c4be
0.00040493518 0.2814695 -8.203525e-06 -1.0315001e-05 -0.2912012 -0.115308896 -0.0068961936 7.811246e-06
-0.25847223 0.07221477 1.11838e-05 -2.0933901e-05 0.16937408 -0.110939786 -0.14315277 0.24096726
-0.010392786 -0.3275223 0.13592793 -3.2550463e-06 -0.44761732 5.6656423e-05 1.0116131e-05 -1.8862495e-06
-0.042646997 0.19027297 0.035072498 1.096155e-05 -0.53834116 -0.75627357 -0.38761792 0.017557323
0.0008637155 -0.82535875 -0.2649437 -3.9979095e-06 -0.053876027 -1.3247919e-06 0.057317376 0.00012908819
-0.069954656 -1.7108622e-06 0.15353326 0.00012402638 -0.32066932 0.1921902 0.004309362 1.4823773e-06
-1.4752241e-05 -1.4191404e-05 -0.38501742 0.019614415 -0.057170644 0.13377596 7.960359e-06 -4.2075397e-05
0.2507254 -0.05810985 0.1694913 -3.0329358e-07 -0.50712216 0.031575363 -0.4011143 -0.15370934
-5.277959e-06 0.3971462 -2.8485508e-07 4.1655903e-06 -0.20718884 0.41585782 -0.25899982 0.090082034
0.18589437 -0.5595839 0.2040835 -6.1168166e-06 0.23363262 0.00011060706 -0.15861106 4.733718e-05
0.16449594 -0.042832267 1.0938269e-06 1.3853553e-06 -0.024192574 0.15411697 -0.00027602943 0.13361213
0.18253997 0.17622526 -0.2965112 0.00958283 -0.3141484 0.04878912 0.028274935 0.02749663
0.20545705 -5.0310555e-06 -0.49545488 0.07988113 -0.27249292 -0.031230196 -1.0730784e-05 -1.050561e-05
-0.017273016 0.07402091 0.14610545 3.6887225e-06 -0.27361006 0.1458752 -2.0519e-05 -1.643939e-06
-0.5864157 -0.41189906 -0.049456354 0.51921606 -0.52704406 0.09577971 -0.11141175 -1.4193752e-05
0.024335887 -1.1445176e-06 -3.6281012e-06 1.399562e-06 -0.41919905 -0.4741372 0.12390383 3.762618e-06
0.00083874364 -0.17125437 -0.042664614 -5.7768884e-05 0.5644538 0.15686515 -0.11336695 -7.5086537e-06
-0.80678654 -1.15440216e-07 -0.058450446 -1.9384115e-05 0.23138358 -2.4862036e-06 -0.14635509 -0.024892809
0.2596415 0.00022206995 0.004303536 5.276222e-06 -5.950718e-06 -1.3031462e-05 0.049914427 -0.073575325
-0.026140904 0.0001691142 -8.468526e-09 -0.5320145 -0.020903748 -0.08362662 -0.0005512258 8.436207e-06
-0.433493 -0.020230249 -0.078561865 -0.17322496 2.6867115e-06 0.24284357 -1.0060287e-05 -4.1679705e-06
0.07102515 0.09514054 0.10637769 0.093841195 0.12480383 -7.833796e-05 0.12770781 -2.3668256e-06
-0.55931884 -3.1978663e-05 0.28601307 -0.005049241 -0.1536048 0.10178781 1.1804706e-05 2.9622245e-06
0.0003658797 0.15196875 0.09303556 -0.32363182 0.16844931 -0.63511276 -0.021496681 0.12639798
-0.017439965 0.06512432 -0.008084674 0.4883004 -0.18411207 1.8114206e-05 0.0033056715 0.12603718
-2.3336102e-06 0.28210464 -3.5585545e-06 -3.914613e-06 -0.15506308 -0.37841472 0.09952337 -6.9060475e-06
0.42410046 0.1515346 3.1678373e-05 8.443542e-07 0.08265072 0.08247683 0.07357129 -0.39088804
0.2044297 0.3688567 -0.5072421 -1.1199792e-05 0.16457118 3.7489543e-05 1.0342344e-05 -2.8519578e-06
-0.19284733 0.05190332 0.12788863 4.458101e-06 -0.6235611 -0.506662 0.16464747 0.030394409
-0.00047490164 0.039087154 0.0051150913 -6.658478e-06 -0.18460259 -2.463655e-06 -0.33539656 2.1252445e-05
-0.026441822 -1.8347046e-05 0.261037 0.38111624 0.17845537 -0.16018233 -0.75499415 6.8808167e-06
-1.2567124e-06 -2.7340504e-05 0.17879386 0.3232762 0.04979861 0.17124979 -3.8025614e-06 -0.38304192

layers.8.bias f4 [10]
00000000: 819d 133b 94e7 2abe 6c0b 513c 99cd 90bd
00000010: ecd7 873c d89b 12bd 92f3 a7bd 29bc 373c
00000020: 93fb b93e 9514 6ebc
0.00225243 -0.16689903 0.012759071 -0.07070465 0.016582452 -0.035793155 -0.08200754 0.0112142945
0.36324748 -0.014531274
