mnist_nets/fc1.pt (torch, 160831 bytes, 4 tensors)

layers.2.weight f4 [50, 784]
0.00036905566 0.00035933993 0.00037266186 0.00036284525 0.00036134673 0.0003688705 0.00036356572 0.00036405306
0.00036592406 0.00036282017 0.0003675337 0.00036581242 0.00035807243 0.00037475093 0.00035940437 0.000357747
0.00035959753 0.00036649752 0.0003659348 0.00036240031 0.0003598704 0.0003546831 0.00035927276 0.0003623266
0.00035870235 0.00036297084 0.00037032375 0.00036805985 0.00036272238 0.0003628548 0.00036192097 0.00036444876
0.00036426802 0.00036299124 0.0003610703 0.0003598776 0.00034996896 0.00036299348 0.00036001034 0.00035399816
0.00038030927 0.0003804791 0.00036900464 0.00044578558 0.0004852231 0.000382184 0.00035272355 0.00032760433
0.00033668606 0.00028508165 0.0003508896 0.00035336227 0.00034867245 0.0003569428 0.00035444892 0.00035719317
0.00036210308 0.00036466224 0.00036209554 0.00036432638 0.00036331694 0.00036540887 0.00035504813 0.0003321529
0.0003130195 0.0002617249 0.00017900493 0.00025906198 0.0005198579 0.00079938676 0.0006819354 0.00072632654
0.0006556554 0.00043999616 0.00036143378 0.00028881038 0.00035998592 0.00026434966 0.0002970923 0.00034928127
0.0003569378 0.0003620159 0.00036007885 0.00036088488 0.00036167196 0.00035522404 0.00035296121 0.00035807624
0.00035559034 0.00033840133 0.00034072762 0.0002773985 0.00025563454 -4.321208e-05 0.00014565312 2.5396153e-05
6.392178e-05 0.013502639 0.12013267 0.18624152 0.034202952 0.0041454374 0.00037822698 -0.00016016353
-7.357993e-05 0.00015899882 0.00032545772 0.0002873831 0.00034210054 0.000324436 0.0003406769 0.00036559708
0.0003644383 0.00036143456 0.00034573302 0.0003749031 0.0003937146 0.00025418334 0.0001547837 8.4997446e-05
-0.0010846161 -0.011197252 -0.020374961 0.00071043224 -8.6231026e-05 0.055513587 0.25273925 0.43465117
0.4048227 0.29385987 0.12769133 0.03280295 0.00044467443 -0.0005746512 0.00030005557 0.00045608587
0.0006922282 0.0004431648 0.00035777985 0.0003581033 0.00036179196 0.0003519405 0.00035993283 0.00036935852
0.00031295914 6.267633e-05 -0.00042382156 -0.0048769293 -0.04169773 -0.034321796 -0.09550593 -0.081771925
-0.0026533348 0.053042307 0.120891586 0.14892086 0.322163 0.22928983 0.18351093 0.12423584
0.026016276 0.00021496252 0.00027218423 -0.022852242 0.0005398832 0.0003804957 0.00035340962 0.0003626088
0.00036591222 0.00035820223 0.00036474815 0.00031310925 0.00029740905 0.00021792935 -0.02700443 -0.096388206
-0.08459246 -0.13859773 -0.06082111 -0.006907462 -0.0040653464 -0.004585261 0.03687869 0.013951019
0.18781507 0.35564965 0.33462873 0.19039054 0.16176513 0.07490011 0.00046153428 -0.10330538
-0.0077951867 3.461993e-05 0.00033833753 0.00032935277 0.00036244382 0.0003653866 0.00035966578 0.00023271384
5.3359217e-05 6.755985e-05 -0.017967591 -0.003982047 -0.12964317 -0.016618043 0.032715444 0.08344992
0.06810428 -0.019568855 -0.06140981 -0.00026128924 0.11570575 0.3077429 0.4565517 0.44828176
0.24963978 0.17735977 0.09667721 -0.070256285 -0.00084739306 -0.0002609656 0.00036491032 0.00037277836
0.00035082214 0.00036799407 0.00037296957 0.0002814909 -8.827594e-05 -0.0013557287 9.471508e-06 0.001961487
-0.04783023 -0.008104857 -0.01921355 -0.010124761 -0.18211646 -0.17408185 -0.13717666 -0.1014774
0.0031040565 0.06920351 0.34523603 0.36745438 0.33829942 0.22856306 0.1393153 0.00058939325
-0.044948548 0.00023939821 0.000377583 0.00036312122 0.00036114172 0.00038643484 0.00037304772 0.00032673826
00000000: d07d c139 ca65 bc39 d461 c339 443c be39
00000010: 2373 bd39 f664 c139 f79c be39 60de be39
00000020: 7fd9 bf39 e638 be39 8ab1 c039 83ca bf39
00000030: abbb bb39 387a c439 706e bc39 fd8f bb39
00000040: 5d88 bc39 7726 c039 f0da bf39 8c00 be39
00000050: fdac bc39 c3f4 b939 c65c bc39 a7f6 bd39
00000060: 3710 bc39 1f4d be39 0328 c239 28f8 c039
00000070: c62b be39 8c3d be39 36c0 bd39 7c13 bf39
00000080: 3afb be39 dc4f be39 094e bd39 f4ad bc39
00000090: 0a7c b739 2950 be39 c5bf bc39 d498 b939
000000a0: 3f64 c739 0a7b c739 f776 c139 54b8 e939
000000b0: 8b65 fe39 de5f c839 c1ed b839 4fc2 ab39
000000c0: 3d85 b039 0377 9539 9bf7 b739 7b43 b939
000000d0: 06ce b639 0d24 bb39 54d5 b939 a845 bb39
000000e0: a7d8 bd39 2330 bf39 a4d7 bd39 0f03 bf39
000000f0: 937b be39 5994 bf39 c125 ba39 cf24 ae39
00000100: c41c a439 1f38 8939 45b3 3b39 b6d2 8739
00000110: 1347 083a f08d 513a e9c3 323a f366 3e3a
00000120: 4ae0 2b3a 49af e639 d27e bd39 796b 9739
00000130: 7ebc bc39 6998 8a39 0ec3 9b39 bd1f b739
00000140: 6123 bb39 f4cc bd39 f7c8 bc39 2635 bd39
00000150: ca9e bd39 5d3d ba39 a70d b939 2ebc bb39
00000160: 876e ba39 756b b139 b0a3 b239 cc6f 9139
00000170: b006 8639 9e3e 35b8 76ba 1839 d309 d537
00000180: bf0d 8638 2c3a 5d3c 1e08 f63d 19b6 3e3e
00000190: 6518 0c3d 73d6 873b c44c c639 92f1 27b9
000001a0: ed4e 9ab8 ecb8 2639 32a2 aa39 e8ab 9639
000001b0: f55b b339 1019 aa39 e19c b239 9cad bf39
000001c0: 1512 bf39 ed7e bd39 8043 b539 a48e c439
000001d0: 7b6b ce39 e943 8539 6f4d 2239 a840 b238
000001e0: ad29 8eba ae74 37bc 64e9 a6bc 4d3c 3a3a
000001f0: eed6 b4b8 3762 633d 0a67 813e 998a de3e
00000200: ec44 cf3e cd74 963e 84c1 023e 635c 063d
00000210: 3123 e939 30a4 16ba c750 9d39 cf1e ef39
00000220: a676 353a 9358 e839 6694 bb39 d0bf bb39
00000230: e5ae bd39 a884 b839 5eb5 bc39 76a6 c139
00000240: aa14 a439 1971 8338 5e34 deb9 a6ce 9fbb
00000250: 3dcb 2abd 0395 0cbd 9d98 c3bd 0a78 a7bd
00000260: 92e3 2dbb e442 593d 0296 f73d b67e 183e
00000270: 8cf2 a43e f4ca 6a3e 4aea 3b3e 5c6f fe3d
00000280: 1620 d53c 9067 6139 f3b3 8e39 a034 bbbc
00000290: f386 0d3a 457d c739 d649 b939 871c be39
000002a0: e8d7 bf39 17cd bb39 ab3b bf39 d028 a439
000002b0: 91ed 9b39 f783 6439 6538 ddbc 2e67 c5bd
000002c0: d03e adbd 90ec 0dbe 8e1f 79bd fe57 e2bb
000002d0: 9936 85bb f53f 96bb 1c0e 173d d192 643c
000002e0: 9852 403e b617 b63e 7554 ab3e bdf5 423e
000002f0: c2a5 253e 3b65 993d 15fa f139 c591 d3bd
00000300: c46e ffbb de34 1138 e562 b139 fbac ac39
00000310: 6306 be39 5c91 bf39 8691 bc39 a504 7439
00000320: 06ce 5f38 ebae 8d38 c530 93bc d57b 82bb
00000330: 2ec1 04be 9022 88bc a100 063d cbe7 aa3d
00000340: 427a 8b3d dd4e a0bc da88 7bbd a6fd 88b9
00000350: 23f7 ec3d 7a90 9d3e 25c1 e93e 3085 e53e
00000360: 92a1 7f3e cd9d 353e b3fe c53d 87e2 8fbd
00000370: 9623 5eba 36d2 88b9 6f51 bf39 7771 c339
00000380: 8dee b739 54ef c039 218b c339 1295 9339
00000390: c920 b9b8 b5b2 b1ba d1e7 1e37 4b8c 003b
000003a0: a2e9 43bd 3cca 04bc bc65 9dbc 53e2 25bc
000003b0: bd7c 3abe 8342 32be 0a78 0cbe 62d3 cfbd
000003c0: 6d6d 4b3b 92ba 8d3d c7c2 b03e fb22 bc3e
000003d0: 9535 ad3e 6f0c 6a3e aca8 0e3e 8381 1a3a
000003e0: f81b 38bd f806 7b39 55f6 c539 4e61 be39
000003f0: 9f57 bd39 689a ca39 9e95 c339 114e ab39

layers.2.bias f4 [50]
0.076387994 0.046564978 0.002823216 0.02486729 0.24089508 0.08042457 0.023003794 -0.19901405
0.51520896 -0.1843071 -0.4404097 -0.093844585 1.0807732 -0.32355502 0.04930639 0.44018957
0.34038496 -0.08936688 0.58219665 -0.38969836 -0.8142461 0.11670917 0.8700508 -0.1490652
0.5075911 -0.61462665 -0.54018974 0.09259602 -0.6251601 0.7449622 0.07594603 0.1750103
0.038638227 -0.07925679 -0.8850766 -0.12035568 -0.7158386 0.52509445 0.7170509 0.4489434
0.11891852 -0.19766217 -0.09403338 0.31800765 0.7053919 -0.015072107 -0.035175465 0.26185256
0.011912776 -0.48991275
00000000: 4f71 9c3d ebba 3e3d b405 393b 7db6 cb3c
00000010: 33ad 763e a3b5 a43d 7472 bc3c 57ca 4bbe
00000020: bce4 033f 00bb 3cbe 617d e1be 9731 c0bd
00000030: c756 8a3f 01a9 a5be 7ff5 493d 8760 e13e
00000040: f046 ae3e fc05 b7bd d70a 153f 8b86 c7be
00000050: 6f72 50bf 3805 ef3d a6bb 5e3f 8ca4 18be
00000060: 7ef1 013f 2c58 1dbf e049 0abf fba2 bd3d
00000070: 7e0a 20bf d8b5 3e3f 9889 9b3d e635 333e
00000080: 1e43 1e3d 6251 a2bd 6194 62bf 0a7d f6bd
00000090: 3341 37bf 976c 063f a690 373f e9db e53e
000000a0: 8e8b f33d f467 4abe 9394 c0bd e6d1 a23e
000000b0: 9094 343f 00f1 76bc 2614 10bd 8a11 863e
000000c0: ce2d 433c d8d5 fabe

layers.4.weight f4 [10, 50]
0.23141316 0.098444045 0.12646084 0.04973093 -0.07520541 -0.14523098 -0.5173458 -0.7515256
0.0047985925 0.096926644 -0.010703964 -0.49334186 -0.013878978 0.16554575 -0.6181318 0.21657215
-0.36269945 -0.27901837 0.19180271 -0.7528544 -0.3830623 -0.05004554 0.06320799 0.39010978
0.3527031 -0.62237144 0.14867055 0.14540698 -0.30710182 0.23324254 0.12269562 -0.0084437495
0.08688392 -0.2143967 -0.437826 0.17287515 -0.4767267 -0.013735963 0.21938536 -0.3656903
0.04706763 -0.099392824 0.26715246 -0.26488465 -0.10540922 0.0010189941 0.15210956 0.22382268
0.07312669 -0.004993692 -0.114148006 -0.28777808 -0.19603144 0.03319518 0.23854311 0.50555986
-0.31011194 -0.028577382 -0.30129915 -0.19139445 -0.020737745 -0.17890859 -0.3654789 -0.2008888
0.000932698 0.009805969 0.38883963 -0.069811545 -0.7440248 -0.21565688 0.28786525 0.13951614
0.57930493 -0.3000216 -0.2715105 0.18153095 0.045525514 0.23182462 -0.2846182 -0.38557395
-0.5008504 0.6172998 -0.04138427 -0.20294689 0.21805912 -0.24251676 0.055864938 -0.20957479
0.23402083 -0.28945515 0.14400211 -0.13729367 -0.3002565 -0.13353294 -0.86019266 0.5447473
0.20155764 0.1796621 -0.035066396 0.18974032 0.28194144 0.27877012 0.2667927 0.15047508
0.09218737 0.3793351 -0.002967548 -0.13468887 -0.45215717 0.16314088 -0.5166158 -0.10105275
0.13713281 -0.3436658 -0.21392305 0.02065112 0.06455898 -0.2586286 -0.34408954 -0.3474928
-0.03887211 0.19636673 -0.00020474593 0.24133906 0.12482007 -0.6432831 0.15909423 0.15702283
-0.2761904 -0.16094196 -0.01925238 -0.07226369 0.29063642 -0.2137397 0.34952936 0.15941082
0.35334915 0.33281055 -0.14739062 0.051488705 0.24836937 -0.12467636 0.3146047 0.024779074
-0.2879071 -0.035708543 -0.071230456 0.018098729 -0.11934152 -0.31933638 0.07149523 0.19886099
0.13359375 0.15555224 -0.35550496 -0.095248185 0.29537585 0.18629885 0.16597077 0.084663056
0.06571817 0.22958307 -0.28754017 0.34855604 0.15933743 0.082299225 -0.41312867 0.32614675
0.24728212 0.13149907 0.057869945 0.25694746 -0.095517375 -0.029498773 -0.32009366 0.010538898
-0.29541948 -0.30318362 -0.18418542 -0.33605242 -0.13803983 -0.18360113 -0.351314 -0.069131784
0.31577253 0.113321885 0.18903479 0.097321935 -0.2651057 0.34514105 -0.23342922 0.19114679
-0.10637653 -0.16372429 -0.5465381 0.20058566 0.21381691 0.03631942 -0.3519439 -0.5816769
-0.21473676 -0.14832076 -0.30047277 0.30390516 -0.010528851 0.25670955 0.17127828 0.18918802
0.1543494 -0.5824605 0.17834796 -0.080191486 0.21087939 -0.44543657 0.252422 -0.39639226
0.16721201 0.0019904235 0.03041898 0.33086893 0.37065148 -0.053949617 -0.12751587 0.064176515
-0.24062555 0.15602608 0.16692822 -0.09813958 -0.19361675 0.25341192 -0.44768327 0.43606058
0.19555554 -0.45109835 -0.47496635 -0.5202373 -0.47037986 -0.44561443 0.35181987 0.016171316
-0.13983451 -0.56014043 -0.3191376 -0.5252131 0.23921013 0.22049896 -0.13978751 -0.45566905
0.3936429 -0.2752874 -0.53024024 -0.16141959 -0.3392488 0.05340161 -0.32037562 0.018900258
00000000: 92f7 6c3e 089d c93d f37e 013e a9b2 4b3d
00000010: 4b05 9abd 6eb7 14be c670 04bf fb63 40bf
00000020: 833d 9d3b 7a81 c63d ae5f 2fbc 4e97 fcbe
00000030: a764 63bc d384 293e e33d 1ebf 17c5 5d3e
00000040: beb3 b9be 7fdb 8ebe ee67 443e 11bb 40bf
00000050: be20 c4be 8dfc 4cbd 3173 813d 78bc c73e
00000060: 8095 b43e bc53 1fbf 183d 183e 91e5 143e
00000070: 733c 9dbe 22d7 6e3e d747 fb3d a757 0abc
00000080: 32f0 b13d cf8a 5bbe bb2a e0be 2f06 313e
00000090: 8615 f4be ce0c 61bc 8ea6 603e c23b bbbe
000000a0: fdc9 403d 778e cbbd 35c8 883e f69e 87be
000000b0: cae0 d7bd c58f 853a 9cc2 1b3e c631 653e
000000c0: 72c3 953d 20a2 a3bb 6ec6 e9bd a657 93be
000000d0: 77bc 48be abf7 073d a544 743e 5f6c 013f
000000e0: fec6 9ebe 1d1b eabc e243 9abe e8fc 43be
000000f0: 34e2 a9bc d033 37be 0d20 bbbe cbb5 4dbe
00000100: 4e80 743a 37a9 203c fd15 c73e 5bf9 8ebd
00000110: 6978 3ebf 28d5 5cbe 1363 933e 52dd 0e3e
00000120: 544d 143f 6e9c 99be 6d03 8bbe 40e3 393e
00000130: f678 3a3d 6f63 6d3e 7ab9 91be f369 c5be
00000140: bb37 00bf 5c07 1e3f 8d82 29bd 4fd1 4fbe
00000150: e44a 5f3e 5056 78be a2d2 643d c69a 56be
00000160: 28a3 6f3e 7733 94be 4a75 133e b696 0cbe
00000170: 38bb 99be dcbc 08be 9635 5cbf 8f74 0b3f
00000180: 2065 4e3e 57f9 373e c8a1 0fbd 494b 423e
00000190: a15a 903e f5ba 8e3e 0e99 883e 2416 1a3e
000001a0: bbcc bc3d 3638 c23e 327b 42bb e1eb 09be
000001b0: 2581 e7be 670e 273e ef40 04bf bff4 cebd
000001c0: 8b6c 0c3e f7f4 afbe a50e 5bbe 8a2c a93c
000001d0: 8037 843d f86a 84be 812c b0be 94ea b1be
000001e0: 5d38 1fbd 5c14 493e 11b1 56b9 9621 773e
000001f0: aaa1 ff3d 34ae 24bf 99e9 223e 98ca 203e
00000200: d468 8dbe f8cd 24be 2bb7 9dbc fcfe 93bd
00000210: 4cce 943e 94de 5abe 83f5 b23e 973c 233e
00000220: 2eea b43e 2566 aa3e 91ed 16be d2e5 523d
00000230: 8a54 7e3e 5256 ffbd de13 a13e 7cfd ca3c
00000240: 8f68 93be 1f43 12bd 46e1 91bd c943 943c
00000250: 5469 f4bd 0f80 a3be 176c 923d 37a2 4b3e
00000260: cdcc 083e 1649 1f3e bf04 b6be 7b11 c3bd
00000270: 813b 973e 20c5 3e3e 3ef4 293e d363 ad3d
00000280: 3f97 863d d317 6b3e 7738 93be f075 b23e
00000290: 5a29 233e 7f8c a83d 9a85 d3be b5fc a63e
000002a0: 8637 7d3e b1a7 063e 0909 6d3d 9e8e 833e
000002b0: 9d9e c3bd 69a7 f1bc 51e3 a3be 58ab 2c3c
000002c0: 3941 97be e23a 9bbe 1a9b 3cbe 100f acbe
000002d0: 505a 0dbe ef01 3cbe 6edf b3be f794 8dbd
000002e0: f0ac a13e 4e15 e83d 5692 413e b950 c73d
000002f0: efbb 87be 54b6 b03e 1208 6fbe fcbb 433e
00000300: f0db d9bd 57a7 27be ece9 0bbf 5466 4d3e
00000310: d2f2 5a3e acc3 143d fe31 b4be c7e8 14bf
00000320: f4e3 5bbe 66e1 17be 91d7 99be 7599 9b3e
00000330: 3481 2cbc 6f6f 833e 9363 2f3e 81ba 413e
00000340: c50d 1e3e 221c 15bf d9a0 363e 6f3b a4bd
00000350: c4f0 573e 4310 e4be 753d 813e edf3 cabe
00000360: a039 2b3e c471 023b 3a31 f93c a767 a93e
00000370: 08c6 bd3e 46fa 5cbd 8593 02be fa6e 833d
00000380: 8b66 76be 4dc5 1f3e 3bef 2a3e 67fd c8bd
00000390: 7843 46be 35bf 813e be36 e5be 5543 df3e
000003a0: b63f 483e 5df6 e6be ca2e f3be 462e 05bf
000003b0: a1d5 f0be 9327 e4be bc21 b43e b579 843c
000003c0: c730 0fbe 5d65 0fbf 0166 a3be 5e74 06bf
000003d0: 80f3 743e 7bca 613e 7524 0fbe 744d e9be
000003e0: 908b c93e 78f2 8cbe d3bd 07bf 2d4b 25be
000003f0: 05b2 adbe a6bb 5a3d 4608 a4be b7d4 9a3c

layers.4.bias f4 [10]
-0.018211057 -0.35756633 0.010111104 -0.36348438 -0.030562058 0.08998287 0.111912295 -0.4192161
0.6108854 0.02011836
00000000: 5b2f 95bc ef12 b7be 0ba9 253c a01a babe
00000010: 485d fabc f048 b83d 4632 e53d 7ea3 d6be
00000020: fc62 1c3f 42cf a43c
