mnist_nets/fc2.pt (torch, 338561 bytes, 6 tensors)

layers.2.weight f4 [100, 784]
000000 a5 56 b2 b9 a9 9d a3 b9 05 db b0 b9 47 27 bd b9
       -0.0003401536 -0.0003120725 -0.00033732518 -0.00036078153
000010 3d bd ab b9 4c 8a a4 b9 a5 27 b0 b9 e4 b0 b2 b9
       -0.00032756655 -0.00031383557 -0.00033598873 -0.000340826
000020 4b 4f b0 b9 18 3a a2 b9 ad 97 b5 b9 bf 9f b4 b9
       -0.00033628414 -0.0003094233 -0.00034636018 -0.00034451296
000030 1c 1a c1 b9 4e 74 d0 b9 c1 c6 ad b9 77 52 c3 b9
       -0.00036831282 -0.00039759505 -0.00033145215 -0.0003725474
000040 34 b2 b8 b9 18 3a b1 b9 9f ac ba b9 ca a8 b7 b9
       -0.00035227987 -0.00033803354 -0.00035605297 -0.00035030238
000050 23 eb e6 b9 66 77 c9 b9 ad ac bc b9 5f 6e ab b9
       -0.0004404421 -0.00038426666 -0.00035986808 -0.00032697894
000060 1d 83 ad b9 7b ed bf b9 04 91 c0 b9 18 5e cb b9
       -0.00033094818 -0.00036607296 -0.0003672914 -0.00038789283
000070 5d 72 b9 b9 37 47 b5 b9 a6 6d 9c b9 d3 61 b6 b9
       -0.00035371157 -0.0003457607 -0.00029836333 -0.0003478663
000080 6b d5 a8 b9 ac b6 b8 b9 19 ff c3 b9 d5 6d c3 b9
       -0.00032202466 -0.00035231316 -0.0003738336 -0.0003727513
000090 3d 6f a8 b9 31 8e ac b9 be db b0 b9 dc c9 a5 b9
       -0.00032126336 -0.00032912337 -0.00033733057 -0.0003162165
0000a0 cd 56 bd b9 2f 27 9d b9 31 1b ae b9 26 03 be b9
       -0.0003611356 -0.00029974568 -0.00033208125 -0.0003624197
0000b0 a0 52 bc b9 a3 63 d4 b9 06 db d6 b9 a3 b3 d4 b9
       -0.00035919715 -0.00040510026 -0.00040980446 -0.0004056963
0000c0 a0 2b a9 b9 75 e1 9e b9 99 29 b3 b9 1c 20 b9 b9
       -0.00032266695 -0.00030304087 -0.00034172533 -0.00035309873
0000d0 cc 82 c4 b9 b2 53 a0 b9 bd f3 a8 b9 99 49 b6 b9
       -0.00037481484 -0.00030579936 -0.00032225056 -0.0003476858
0000e0 f6 f4 d7 b9 fb 72 c2 b9 eb 56 a7 b9 d3 b1 b9 b9
       -0.00041190506 -0.0003708823 -0.0003191748 -0.0003541844
0000f0 35 a9 a7 b9 c4 1f a1 b9 bf 01 ab b9 49 61 7d b9
       -0.0003197879 -0.0003073198 -0.00032616963 -0.00024164202
000100 19 f9 9d b9 c6 37 9d b9 65 a1 89 b9 21 63 9e b9
       -0.00030130966 -0.00029986928 -0.00026250925 -0.00030209965
000110 9e b6 c5 b9 4c 3d df b9 28 d6 85 b9 b6 44 84 b9
       -0.00037710828 -0.00042579544 -0.00025527296 -0.00025228196
000120 51 d0 59 b9 55 a7 83 b9 e2 89 b3 b9 38 0d 8e b9
       -0.00020772337 -0.0002511094 -0.0003424427 -0.000270942
000130 a8 4a a2 b9 ed c6 80 b9 71 dd a1 b9 85 12 a3 b9
       -0.0003095467 -0.00024562274 -0.000308733 -0.0003110358
000140 2d 74 d0 b9 fd 0a ad b9 12 6d ba b9 be 52 b1 b9
       -0.0003975941 -0.00033005318 -0.00035557948 -0.00033821719
000150 b5 79 bd b9 a5 39 b9 b9 75 e7 bd b9 92 85 b6 b9
       -0.00036139568 -0.00035328898 -0.00036221338 -0.00034813263
000160 62 df 7e b9 97 c7 99 b9 fd 3c ed b9 fa ee 81 b9
       -0.00024306544 -0.0002933114 -0.00045249602 -0.0002478285
000170 0d c1 c1 b9 a5 ed 03 ba 2d 7a cf b9 19 ca e4 b8
       -0.00036955663 -0.0005032665 -0.00039573145 -0.00010909531
000180 ef cb 14 ba 9f 96 5c bb d8 10 98 bb 51 03 6e ba
       -0.00056761404 -0.0033659113 -0.00464068 -0.00090794737
000190 4f 15 d2 b9 b2 1e b7 b9 75 53 a3 b9 56 84 a8 b9
       -0.00040070197 -0.0003492735 -0.00031151963 -0.00032142055
0001a0 46 ba 2c b9 0b ec ce b8 ec 9a 40 b9 b9 21 be b9
       -0.0001647259 -9.866812e-05 -0.0001836826 -0.0003626475
0001b0 dd a1 da b9 84 f9 e7 b9 0f 98 bf b9 27 84 c9 b9
       -0.00041700798 -0.00044245657 -0.0003654365 -0.0003843617
0001c0 46 c4 a9 b9 b5 cd c3 b9 80 3c ab b9 a7 0c bc b9
       -0.00032380427 -0.00037346562 -0.00032660738 -0.0003586758
0001d0 f9 b9 9e b9 cb 83 50 b9 fe 5c 70 b9 08 f4 4d b9
       -0.0003027467 -0.00019885522 -0.00022922826 -0.00019641232
0001e0 78 02 23 ba 26 4e 7e ba 60 47 b3 ba d0 2a f9 bc
       -0.00062183244 -0.0009700976 -0.0013677888 -0.030415922
0001f0 5d 84 df bd d1 6a d0 bd 6b 13 45 bd ae 9a 03 bd
       -0.10913918 -0.101766236 -0.04811422 -0.032129936
000200 a7 2e 1c bc f2 fd 26 bc 09 c8 9d bc ae b0 90 ba
       -0.009532607 -0.010192381 -0.019260423 -0.0011038983
000210 a3 a5 04 39 d6 1e 07 b8 dc c5 13 b9 b4 c5 7c b9
       0.00012650205 -3.2215226e-05 -0.00014092721 -0.00024106243
000220 15 23 a9 b9 78 35 c8 b9 b9 0b c3 b9 38 ef c5 b9
       -0.0003226033 -0.0003818681 -0.00037202032 -0.00037753
000230 78 e9 bf b9 8f db b1 b9 d9 cc ac b9 1c 17 cc b9
       -0.00036604307 -0.00033923655 -0.0003295902 -0.0003892713
000240 47 7f 56 b9 83 38 1f b9 89 4b 00 ba 2f b5 52 ba
       -0.00020456045 -0.00015184474 -0.0004894068 -0.0008037863
000250 7b ff e7 ba 5e ff e8 ba 0b 8b 85 bc 78 62 51 bd
       -0.001770004 -0.0017776301 -0.016301652 -0.051119298
000260 a4 19 fa bd 29 01 a9 bd 77 b5 b3 bd 70 11 d4 bd
       -0.12211922 -0.082521744 -0.08774846 -0.103548884
000270 e0 c6 86 bc 6e f2 91 3c a4 71 f1 b8 ee 21 3d 3d
       -0.016452253 0.017815795 -0.00011512943 0.046174936
000280 02 1c c4 3c e7 86 93 3a 04 78 da b9 68 fe d8 b9
       0.023939136 0.0011255414 -0.0004166962 -0.00041388278
000290 f5 eb a8 b9 07 5c c5 b9 41 17 b1 b9 b7 c4 c4 b9
       -0.0003221926 -0.00037643334 -0.00033777396 -0.00037530597
0002a0 e1 c1 b7 b9 51 3c b2 b9 0b b6 b9 b9 cc 4e b3 b9
       -0.0003504893 -0.00033995745 -0.00035421582 -0.0003420025
0002b0 fd 07 1c b9 c3 ce e8 b9 8f 20 80 ba fc 58 47 bb
       -0.00014880295 -0.00044404538 -0.0009775328 -0.003041803
0002c0 f4 0d 4f bb 0f ab 64 3d 97 e1 3e 3a 71 d8 b9 bd
       -0.003159401 0.055827197 0.00072815403 -0.09074486
0002d0 ea 20 e6 bc 16 12 b0 bc 8b ea b1 bc b6 1f 53 bc
       -0.028091867 -0.021492999 -0.021718284 -0.012885978
0002e0 6c 76 62 3d 31 e3 29 3d 46 a8 f4 3c 27 90 00 3d
       0.055288717 0.041476432 0.029865395 0.031387474
0002f0 b3 6c 3c 3d f4 4d 81 3b a1 8a 15 3c 6a 5f 58 b9
       0.0460021 0.0039460603 0.00912729 -0.0002063491
000300 02 6a 5a b9 17 cd a8 b9 e3 57 da b9 df 35 ba b9
       -0.00020829591 -0.0003219626 -0.0004164568 -0.00035516822
000310 6f a2 b8 b9 8d 06 b1 b9 60 91 d1 b9 d6 e8 e0 b9
       -0.00035216237 -0.00033764952 -0.000399719 -0.00042898086
000320 58 b8 c7 b9 6d ee 7f ba d2 2f ff ba 7a fd 64 bc
       -0.00038093585 -0.0009763006 -0.0019469208 -0.013976449
000330 22 50 98 bb 16 96 bf bb 92 aa a7 bd b0 3d 11 be
       -0.0046482245 -0.005846749 -0.081868306 -0.14183688
000340 d7 48 b9 bd 2a 7a 9a bb 06 20 05 bd f9 81 14 bd
       -0.09047096 -0.00471427 -0.032501243 -0.036256764
000350 9b 91 49 3d a8 fd 82 3d 5c f3 36 bb 9e 64 14 3d
       0.049211126 0.06396037 -0.002791605 0.03622877
000360 ae 83 5c ba 3f cc 15 3d 6a a6 9a 39 cf b1 2b 3a
       -0.0008411956 0.036571737 0.00029497157 0.0006549628
000370 dd 27 2c b9 19 cd 92 b9 ef 14 cf b9 9e 47 be b9
       -0.00016418048 -0.000280001 -0.00039497713 -0.00036292983
000380 1d 7f c6 b9 b6 51 b9 b9 3f 2b d3 b9 09 c9 d9 b9
       -0.0003786021 -0.0003534683 -0.00040277277 -0.00041539248
000390 ae 6b fc b9 3e 27 ce b9 96 b2 4e ba 44 2f 20 bc
       -0.00048145413 -0.0003932062 -0.0007884888 -0.009776894
0003a0 35 d6 3c bc 25 88 0d bc 77 39 48 bd 89 e0 f4 bd
       -0.01152568 -0.008638416 -0.048882928 -0.11956889
0003b0 12 5c 33 bc 99 01 39 3d 6d 87 58 bc e7 17 42 bd
       -0.010947244 0.04516754 -0.013215882 -0.047386076
0003c0 bc ba bc 3d 45 db cc 3d 70 55 79 3d ee f0 5a 3d
       0.09215304 0.1000276 0.060872495 0.053452425
0003d0 92 47 4a 3d f6 78 17 3c d7 26 f4 ba b0 12 aa 39
       0.04938466 0.009245148 -0.0018627298 0.0003243885
0003e0 61 8c ab b9 89 ab 68 b9 e4 37 a8 b9 9d dc ce b9
       -0.00032720252 -0.00022189146 -0.000320851 -0.00039455752
0003f0 6c a6 ab b9 ad da c3 b9 0a d5 ec b9 6f ce 19 ba
       -0.00032739656 -0.00037356224 -0.00045172154 -0.0005867248

layers.2.bias f4 [100]
000000 02 18 a3 bd d1 2c 08 3f 4b 5f f8 3e 77 58 4c 3d
       -0.079635635 0.53193384 0.48510203 0.049889054
000010 f2 b3 06 bf 92 c8 03 3f 72 73 8a 3d 9b 69 e0 3e
       -0.52618325 0.5147792 0.06760301 0.4383057
000020 b0 8e 10 3f 95 da 89 3e dd 43 25 3e 04 06 13 be
       0.56467724 0.26924577 0.16139169 -0.14357764
000030 fe 1c a1 3d 4d 1d 8a 3d 0a 61 99 be 84 3f d1 3e
       0.07866858 0.0674387 -0.29956847 0.4086877
000040 9a c4 02 3f 82 7e c6 3e c3 a4 10 bf e6 c6 13 bf
       0.5108124 0.38768393 -0.56501406 -0.5772537
000050 d1 c3 a0 3e d0 c4 b1 bd fc 58 d9 3d 2f 30 8f be
       0.31399396 -0.08680117 0.106126755 -0.2796645
000060 d2 f4 e3 bd 25 fe c7 3e 8a b4 ab 3e 19 95 3d 3f
       -0.1113068 0.39061084 0.33536178 0.7405563
000070 58 b6 61 3f ca 0b 0d be 50 c7 2d 3f 6e 91 f0 3d
       0.8816886 -0.13774028 0.6788225 0.117464885
000080 4c ea a3 bd 81 5d 3e be 63 67 f8 3d b4 66 c0 3e
       -0.08003673 -0.18590356 0.121290945 0.37578356
000090 d6 b1 04 3d 4c 94 2b 3e 44 f7 92 3d 1e 93 9a 3c
       0.03239616 0.1675579 0.071760684 0.018868979
0000a0 12 12 c9 3e 09 07 32 bd f4 fe bd be 62 c3 07 3f
       0.392716 -0.04346374 -0.37108576 0.53032506
0000b0 7c cf 0e be 85 23 4f 3f 58 6b dc 3e 64 10 b6 bd
       -0.13946337 0.80913574 0.43050647 -0.08889845
0000c0 fb 70 f4 bd 3f c2 a2 3d b8 d7 80 bd 7c 0e 7c 3e
       -0.11935612 0.07947206 -0.06291145 0.246149
0000d0 a8 05 e1 3e 79 c5 2f 3f 86 6d 41 be b0 5a 96 be
       0.43949628 0.68660694 -0.18889436 -0.29366064
0000e0 9f c9 4f 3f f1 d5 db 3e 83 4b dd 3e c7 77 d5 3e
       0.81167024 0.42936662 0.43221673 0.41692945
0000f0 c5 10 dc 3e b8 ba 7f 3d 87 36 94 be a6 1e 8d 3e
       0.42981544 0.06243393 -0.2894785 0.27562445
000100 a0 bf 13 3f cc 1a 95 3e 16 a6 6b 3e 1d 1e 47 bb
       0.5771427 0.29122007 0.23012576 -0.003038294
000110 26 89 d1 3e 32 d4 5a be 89 70 94 3d e8 8a 43 3e
       0.40924948 -0.21370009 0.07248027 0.19095957
000120 ba 42 b3 3d 20 fe 8d bd 1b 06 5d 3b 58 17 00 3f
       0.087529615 -0.06933236 0.0033725563 0.5003562
000130 ba 63 db be c4 dc e5 3e df 39 2f 3f c1 ca 07 3f
       -0.42849523 0.44894993 0.6844768 0.5304375
000140 f2 36 9d be a3 77 9f 3e c3 94 fb 3e 12 78 c6 3e
       -0.30705982 0.31145963 0.49136934 0.3876348
000150 c1 5a 86 bd c4 fc cf 3c e3 fb 54 bd 5b d0 77 3e
       -0.06560279 0.025389083 -0.05199803 0.24200575
000160 8b 75 06 3e 80 c2 84 3e c7 15 d9 3e 04 06 57 3e
       0.13130777 0.25929642 0.42399427 0.20998389
000170 f3 c7 af be a4 30 e8 be 3d 9f 86 be 49 15 05 3f
       -0.34332237 -0.4534961 -0.26293364 0.51985604
000180 1d 52 24 3e 2b 34 35 be e1 32 01 bf 87 6e ac 3e
       0.16046949 -0.17695682 -0.5046826 0.33678076

layers.4.weight f4 [50, 100]
000000 25 93 00 3e 18 34 c0 bc 84 17 69 3c 2d ce 18 bd
       0.12556131 -0.02346234 0.014226798 -0.037306
000010 c4 e5 15 3d c5 c7 d1 3c 2e 83 87 3a 69 c6 83 bd
       0.036596075 0.025607953 0.0010338777 -0.06434328
000020 44 d7 4e 3d 1b fa 91 3d 13 52 51 bd b4 b7 26 bd
       0.050498262 0.07127782 -0.051103663 -0.040702537
000030 39 6d 12 3e 03 3b d6 3d 85 73 3d bd 3e c2 0a 3e
       0.14299478 0.10460474 -0.046252746 0.1355066
000040 70 81 a0 3c 41 cb 1e 3e 44 34 97 3d b9 4e 6c bd
       0.01959297 0.15507223 0.07383016 -0.057692263
000050 3f dc 6c 3d 99 23 f0 3d bd 63 14 3e 2b 9b 29 3d
       0.05782723 0.1172554 0.14491172 0.041407745
000060 a7 ff c0 bc 43 d5 99 be 6a 57 0f be 11 2f a5 3d
       -0.023559405 -0.30045518 -0.1399819 0.08065618
000070 10 67 90 3d 2a c2 c1 3c 9d 47 a0 be 49 0a f0 bd
       0.070509076 0.023652155 -0.31304637 -0.11720712
000080 4f 89 b3 3c 7b c0 0a be 5a 92 54 3e 02 c9 2c 3e
       0.02191606 -0.13549988 0.20758954 0.16873553
000090 3e 54 93 3e 13 6c 03 3e 1f 24 fb bc 5e c2 be 3c
       0.2877521 0.12834196 -0.030656872 0.02328604
0000a0 6e 96 10 3e b6 e7 0f 3e e5 29 5a 3e 31 69 14 3e
       0.14119884 0.14053234 0.21305044 0.14493252
0000b0 c7 31 88 3d b2 21 12 3d 7d f2 13 bc 3a e8 9c bd
       0.06650119 0.035676666 -0.009029982 -0.07661481
0000c0 6f 7b b3 3d 66 b0 67 3d 05 cd 35 bd cf 5f f4 3c
       0.087637775 0.05656471 -0.044384975 0.029830841
0000d0 c0 37 f9 3d c8 a7 63 3d 92 73 a3 bc 29 07 df 3d
       0.121688366 0.05557993 -0.01995257 0.108900376
0000e0 a5 f8 90 bc e9 80 a7 3c cf da c7 3d 39 e4 67 3c
       -0.017696688 0.020447211 0.09758531 0.014153534
0000f0 c3 26 f1 bd 12 e6 38 bb 66 23 eb bd 92 a3 a6 bc
       -0.11774971 -0.0028213304 -0.11481361 -0.020341668
000100 a0 5d c6 bb 81 99 83 3e 38 7b 81 bd 0a e9 40 3d
       -0.0060536414 0.25703052 -0.0632233 0.047097243
000110 cb 5d 52 bd 48 b5 fc 3d 3b 64 48 3d a3 3b 0a 3d
       -0.05135898 0.12339264 0.048923712 0.03374828
000120 0b ca 6c bd 23 f8 02 bd 70 d6 f7 bc fc 53 87 b9
       -0.05780987 -0.031974923 -0.030253619 -0.0002581178
000130 70 eb ea bd 48 de d5 3c 6a 0b b5 bd 89 7f 39 3a
       -0.114706874 0.026106969 -0.08840068 0.0007076194
000140 bf 5e 07 be 41 f6 3a be 60 3f a2 3d b0 26 b6 bd
       -0.13219737 -0.18258001 0.07922244 -0.08894098
000150 87 4c d0 bd 6c 2e 28 bd d5 d0 13 be 10 77 98 bd
       -0.101708464 -0.041059896 -0.14435132 -0.07444584
000160 44 7f d2 3d 2a 8c 92 bd eb 37 27 bc 9b dd aa 3d
       0.1027818 -0.071556404 -0.010206203 0.08343049
000170 e1 0b 4e 3e d1 6c 06 3c 8c ff 63 3a b4 bb b0 bd
       0.20121719 0.008204655 0.0008697442 -0.086295515
000180 28 4e a8 3c 16 6d 64 bd 70 e6 17 be 54 62 06 3e
       0.02054508 -0.055768095 -0.14833999 0.13123447
000190 83 4f 91 bd 23 92 3d 3c 21 de a2 3c c4 e2 0e be
       -0.07095244 0.011570486 0.01988131 -0.13953692
0001a0 01 14 65 3d 78 5a 8b 3d 5c 88 0f be 79 14 1a be
       0.05592728 0.06804365 -0.1401686 -0.15046872
0001b0 34 e4 9a 3d d2 72 3c 3d 6c 02 36 3d aa 93 1a bc
       0.075630575 0.04600794 0.044435903 -0.00943462
0001c0 51 db 7b 3d ed 90 b9 bd a7 1e 5f bd 4c 72 bd bd
       0.061488453 -0.090608455 -0.05447259 -0.09250316
0001d0 50 26 42 be 1d 99 18 3e a0 ae 0c be ec c3 ed 3b
       -0.18959928 0.14902158 -0.13738489 0.0072560217
0001e0 45 bb 46 3d 57 ce 9c bc 54 c7 82 3d eb b0 b3 3d
       0.048518438 -0.01914136 0.06385675 0.08773979
0001f0 d0 74 ed bd b8 c2 d7 3c 78 57 24 3e 6c 35 8e 3d
       -0.11594546 0.026337966 0.16048992 0.06943783
000200 72 27 f5 bc b1 cf d6 3d 4e 97 6d bd 81 cd b9 3d
       -0.029926036 0.10488833 -0.058005624 0.090724
000210 84 12 2c 3e bf 11 33 bd 4f 52 9e 3d 7f 0b 5c 3e
       0.16803938 -0.043718096 0.07730543 0.2148876
000220 a6 7b a7 3c 0f e8 77 be b3 95 d0 bc 33 6c 83 3d
       0.020444702 -0.24209617 -0.025462007 0.06417122
000230 4f 7f e2 bd 0e 37 c3 3d 81 cd a2 3d 10 f3 37 3e
       -0.110594384 0.09531985 0.07949353 0.17963815
000240 3f d9 e2 3d 2c 5c 96 3d 4f dd f1 3c b8 ee 6d 3d
       0.11076593 0.07341799 0.029524473 0.058088988
000250 63 c8 a4 3d f4 ad f3 3d 93 9f 48 3b f1 75 0e bd
       0.08046033 0.11898413 0.0030612692 -0.034780446
000260 02 2a ae bd 54 59 2a 3d 04 91 18 3e 29 03 81 3c
       -0.08504106 0.041589096 0.14899069 0.015748577
000270 b9 b0 3b 3d 04 45 0a 3e a2 c4 e9 3d b2 5c 78 be
       0.045822833 0.1350289 0.11414458 -0.2425411
000280 ef 30 19 3e d6 f9 92 3e 31 45 86 3b 74 b5 81 3e
       0.14960073 0.28706235 0.0040976037 0.2533375
000290 2a a1 b1 3d 6c 00 07 3d f6 69 0a 3e ca 07 40 3e
       0.08673318 0.032959387 0.13516983 0.18752971
0002a0 7b cc 95 3d 4d 24 f5 bd 9b 5a 28 be 66 12 05 be
       0.07314392 -0.119698144 -0.16440813 -0.129953
0002b0 38 58 49 bd 6b fd bb bd da 41 fa bd aa 2f a3 3e
       -0.049156398 -0.09179195 -0.122195914 0.31872302
0002c0 44 94 89 bd 85 b7 32 be f0 e7 78 3d c1 50 cc 3d
       -0.067177325 -0.1745282 0.060768068 0.0997634
0002d0 17 39 dc 3d a6 b8 06 3e cb f5 df bd 39 e4 6e 3e
       0.107530765 0.13156375 -0.10935553 0.23329248
0002e0 ab 35 b4 bd 01 c6 c4 3b 7e c7 b9 3d 56 c0 ef bd
       -0.08799299 0.006005049 0.09071253 -0.11706607
0002f0 bb 82 68 bd 2c cf 16 3c 09 7f 03 3e 70 0f 00 be
       -0.0567653 0.009204667 0.12841429 -0.12505889
000300 9c 89 be bc 33 e8 ba 3c 0d a5 33 be 2f 38 43 be
       -0.023258977 0.0228158 -0.1754343 -0.19064401
000310 9d 4e 31 3d 88 d2 b5 3d 17 83 91 3d 7f b7 3d bd
       0.043287862 0.08878046 0.071050815 -0.046317574
000320 5a 19 2e 3e 35 35 84 3e 41 a5 cb 3d 35 df 88 bd
       0.17001858 0.25821844 0.09943629 -0.06683198
000330 dd 8b 33 3e d6 4c 49 3d 44 d7 68 be bd 12 bf be
       0.17533822 0.049145542 -0.22738367 -0.37318984
000340 37 fa 2a 3d a8 d1 a5 bd f2 ba 86 bb f9 24 8e 3c
       0.04174253 -0.080966294 -0.004111641 0.017351614
000350 d6 bd 4d bd f0 6f 79 bd a9 6c 67 3e d3 88 60 3e
       -0.05022987 -0.060897768 0.22600044 0.21927194
000360 a6 59 fc 3d 0b 36 27 3e d8 c6 94 3c 87 93 ee 3d
       0.123217866 0.1632921 0.018161222 0.11649232
000370 74 54 e2 3d ac f4 04 bd 15 2c 68 bb ff 5a 6a bd
       0.110512644 -0.0324599 -0.0035426666 -0.057215687
000380 e7 8b f0 3d 21 74 ae bd f6 da de bd 0b ba 68 3d
       0.11745434 -0.085182436 -0.10881607 0.05681805
000390 b1 de dd 3d 89 6a 9b bc 47 a0 9d bd 19 bd 12 be
       0.10833491 -0.018971698 -0.07696586 -0.14329948
0003a0 54 65 82 bc 7c 83 01 3e f2 c1 a2 3d 81 d1 ac bd
       -0.015917458 0.12647814 0.079471484 -0.08438397
0003b0 d3 a8 bf 3d 5d 99 5e 3e fd 48 31 3e ed b7 04 3e
       0.093583725 0.21738191 0.17312999 0.12960787
0003c0 1b 2b b3 3d d7 05 0b bd a3 55 1b 3e 17 3f 3b 3e
       0.08748456 -0.033941116 0.15169387 0.18285786
0003d0 5e 92 20 3e da 1a 0a be 2a 01 f6 3d 0c 74 c7 bc
       0.15680835 -0.13486806 0.12011941 -0.024347328
0003e0 98 aa 29 be c9 9f 8d bd 4e 69 f5 bd d7 05 ff bd
       -0.16568983 -0.06915242 -0.11982976 -0.12452286
0003f0 be 48 0f 3c 82 bd 81 bd 3f 27 0d be d6 df 58 3d
       0.00874537 -0.06334974 -0.13784502 0.05294784

layers.4.bias f4 [50]
000000 60 42 95 3e 64 46 9c 3e 7d bf 37 be dc 15 ef 3d
       0.29152203 0.30522454 -0.1794414 0.11674091
000010 f5 16 93 3e 31 cd b0 3d 9f 9f 47 bd 6d 5a 11 3d
       0.28728452 0.08632887 -0.04873621 0.035486627
000020 d4 9b 33 be c8 bf c0 3d fe eb d2 3c e0 a1 58 be
       -0.17539912 0.09411579 0.025747295 -0.211555
000030 4a 3e 9c 3e 7a 84 8f 3e d9 62 b2 3e c7 43 8e 3e
       0.30516273 0.2803076 0.3484104 0.27786085
000040 75 2c a0 3d 47 f7 ce bd b7 7a 9d 3e a1 0a 43 3e
       0.078209795 -0.10105758 0.30757686 0.19047023
000050 0d 2c 72 3e e4 72 8f bd ba 30 13 be bf 50 f3 3e
       0.23649617 -0.070043355 -0.14374056 0.47522542
000060 e2 51 66 3e 9d 7d 50 3e 3d 3a 70 bd b6 3a 35 3e
       0.22492173 0.20360418 -0.05864929 0.17698178
000070 2f 56 67 bd 4b c2 e4 3e be 06 ab 3e 21 0e 11 3d
       -0.056478675 0.44679484 0.3340358 0.035413865
000080 0d e6 1e bd b7 f4 82 3e f8 c0 dd 3d 00 cc 4f 3e
       -0.038793612 0.25577328 0.108278215 0.20292664
000090 f8 5a 91 bd 67 8f 77 3e 3f 2e 81 3d ae 4c 92 3e
       -0.07097429 0.24175797 0.06307649 0.28574127
0000a0 dc b8 4b 3e df 6a 36 bd 31 cb 9f bc 4a e8 fd 3d
       0.19894737 -0.044535514 -0.019506069 0.12397821
0000b0 6c 68 1d bd b7 76 30 3e d3 aa 08 bd 46 e8 1d be
       -0.038429663 0.17232786 -0.033366036 -0.15420637
0000c0 98 e5 0f be b4 dc 35 be
       -0.14052427 -0.17759973

layers.6.weight f4 [10, 50]
000000 11 8b 25 be 65 70 e6 3c 31 36 82 be 4d d1 f4 bc
       -0.16166331 0.028129766 -0.2543197 -0.029884959
000010 3f 88 04 be 47 b2 9b be 55 d9 4c be 90 5f 97 bd
       -0.12942599 -0.30409452 -0.2000478 -0.07391274
000020 43 27 e7 bc bd 75 44 3e 42 4b 9f be bf 91 de 3d
       -0.028216964 0.19185539 -0.31112105 0.108676426
000030 e5 41 0e be 5b 8f 76 bc c6 ec 6c 3e 54 9b a1 bd
       -0.13892324 -0.015048827 0.23137197 -0.078909546
000040 0b 3d 69 3e c9 60 68 be 24 11 15 3e 7d 77 22 3e
       0.22777192 -0.2269317 0.1455732 0.15865894
000050 0e cc 9d bd 8a 42 14 3d af ee 3f be f7 cf f9 3d
       -0.07704936 0.03619627 -0.18743394 0.12197869
000060 4a 56 99 3d 26 9e 53 be 17 32 07 b7 35 8c 92 be
       0.074871615 -0.20665798 -8.0582895e-06 -0.28622594
000070 30 53 1d 3e a2 a7 3c be 6e e2 2a be 4e c0 3b 3d
       0.15363765 -0.18423322 -0.16687939 0.045837693
000080 26 7c 58 3e 9b 28 1d 3e 07 c8 a6 3d 04 24 c8 3d
       0.21141109 0.15347521 0.08143621 0.097724944
000090 d1 c8 fc 3c c8 a7 70 3e 9f 1d 15 be b2 58 a4 bd
       0.030857475 0.23501503 -0.14562081 -0.0802473
0000a0 5c 88 4c 3e a1 23 f8 3d c2 56 17 3d d1 db 25 3e
       0.19973892 0.12116171 0.036947973 0.16197135
0000b0 67 78 c2 be 14 2d 7f be 04 f9 87 bd 5d 2e 01 3d
       -0.37982485 -0.2491954 -0.06639293 0.031538356
0000c0 70 f7 6a be f7 4b 49 3d 8d e9 a1 3c ce 53 b5 be
       -0.22945952 0.04914471 0.019764686 -0.354155
0000d0 49 f5 b4 3e 20 06 0c 3e 87 d1 86 bd b4 c0 ee 3d
       0.35343388 0.13674212 -0.06582933 0.11657849
0000e0 8d 57 31 3c e5 f7 e1 bd 84 9b ea 3d 48 73 60 be
       0.010824096 -0.1103361 0.114554435 -0.21918976
0000f0 f2 d8 21 3e b7 88 f9 3d 22 05 70 bb d0 b0 9c 3d
       0.15805414 0.121842794 -0.0036624153 0.07650912
000100 59 e1 71 bd 80 2f 41 bd 09 6a 90 bd f0 87 1d 3d
       -0.0590528 -0.04716444 -0.070514746 0.03845972
000110 d2 cd bc bd dc 55 60 bd a9 d6 0c be c1 de ac 3d
       -0.092189446 -0.054769382 -0.13753761 0.084409244
000120 74 dc 2e 3e 3d 5e d8 bd 9f 8f 19 be 32 eb e2 3c
       0.17076284 -0.105648495 -0.14996193 0.02770004
000130 c2 3c ae 36 8f 43 a7 bd 43 cf a1 bd 7b b8 74 3d
       5.1926772e-06 -0.08167183 -0.0790086 0.059746247
000140 4a 4e 19 bc 28 2f 74 bc 73 0c 48 3d 85 06 71 be
       -0.0093570445 -0.014903821 0.048839998 -0.23537643
000150 22 1b 84 be 18 91 ba be bf a7 44 be ce f2 9e 3d
       -0.2580195 -0.36438823 -0.19204615 0.07761155
000160 44 ff 94 be 97 50 9a 3d 4c dc 82 3e 4d f6 16 3d
       -0.29101002 0.075349025 0.25558698 0.036855984
000170 56 24 1e 3e b5 39 34 3d 0f a6 99 3d 69 14 0a 3d
       0.15443549 0.044000346 0.07502376 0.03371087
000180 43 a9 17 be c6 68 7b be 1d 8e 80 3e bc 6c 81 3e
       -0.14810662 -0.24551687 0.25108424 0.2527827
000190 cf 1a c6 3d 37 fb a2 3d 47 3c 75 be 15 bb 51 be
       0.09673082 0.07958072 -0.23948775 -0.20481522
0001a0 07 e2 89 be 82 b9 87 be fa 4d 39 be a7 f6 f9 3d
       -0.26930258 -0.2650872 -0.18096152 0.12205248
0001b0 fe fa d5 bd 82 1d 2e be 08 77 b1 bc 22 be 9a 3d
       -0.104482636 -0.17003444 -0.021663204 0.07555796
0001c0 30 f9 d6 bd e6 cf 46 3d 40 4e d1 3b 33 9d 62 3e
       -0.104967475 0.04853811 0.006387502 0.22130279
0001d0 4e 84 9b be 14 38 97 bd f2 39 f0 bd 29 a9 5c 3c
       -0.30374378 -0.07383743 -0.11729802 0.013468065
0001e0 f3 3e 4a b9 41 21 d4 3d d2 b3 5d be 7f dd 4e 3d
       -0.00019287672 0.10357905 -0.21650627 0.050504204
0001f0 c9 24 53 bd e6 97 1a 3e 5d 62 16 37 9d 5a ae bd
       -0.051548753 0.15097007 8.963599e-06 -0.08513377
000200 f9 60 47 be cd cb 9c 3d 0c 38 42 be 88 cb 28 3e
       -0.19470586 0.076560594 -0.18966693 0.16483891
000210 53 9a 1f be ca cb 34 3c b3 13 6d be 8d 0b 2b 3e
       -0.15586214 0.011034915 -0.23152046 0.16703625
000220 74 c1 93 3d 49 e6 41 be f9 9c 0f bd 88 2e 59 3d
       0.07214633 -0.18935503 -0.03506181 0.05302289
000230 e0 1b 5e 3d 04 1c 46 3e bd a9 27 3e bf 87 29 3d
       0.054225802 0.19346625 0.16373344 0.041389223
000240 e4 b0 1e be e3 85 02 3e 2b 7a 41 3e c7 b1 74 3d
       -0.15497166 0.12746386 0.1889426 0.059739854
000250 27 89 a6 3e 9f 75 b6 bd 15 08 0c be 2c 6c 42 bd
       0.32526514 -0.08909153 -0.13674958 -0.047466442
000260 ae c9 20 be 46 69 19 be 98 bd e2 bd 21 45 02 3e
       -0.15701935 -0.14981565 -0.110713184 0.12721683
000270 75 f2 61 3e 4c e0 3a 3e 34 05 d4 3d bc 04 a1 bd
       0.22065146 0.18249625 0.10352555 -0.07862231
000280 07 6c 25 3d b0 7b 8a 3b b0 be 0e be 60 f0 c7 3c
       0.040386226 0.0042261705 -0.13939929 0.024406612
000290 cc 51 84 bd 7d a2 84 be e9 54 38 be 88 59 06 be
       -0.06460914 -0.2590522 -0.1800114 -0.13120091
0002a0 14 62 62 be 9a d3 f3 bd aa 0a a7 3d 16 c4 39 3b
       -0.22107726 -0.11905594 0.08156331 0.0028345636
0002b0 1e 53 0b be f8 fd 50 be a8 96 b5 3a 52 eb 1e 3d
       -0.13605925 -0.20409381 0.0013854103 0.038798638
0002c0 ba 9e 6c b6 0a 87 38 3d fe 71 cd 3d ba e2 16 bd
       -3.5259131e-06 0.04505066 0.10031508 -0.036837317
0002d0 36 33 e2 3d 66 19 6b 3e b3 ab 25 be 4b a1 08 3e
       0.11044924 0.22958907 -0.1617878 0.13342778
0002e0 c9 d0 29 be a1 26 0a be 26 e1 c4 bd bd c8 35 be
       -0.16583551 -0.13491298 -0.09613256 -0.17752357
0002f0 c7 ff 9e 3d da d8 4b bd f2 5c 9c ba 0c 90 8a bc
       0.077636294 -0.049767353 -0.0011929555 -0.01691439
000300 c7 39 87 bc 80 c3 25 be dc 34 d5 3d 3f f0 a6 bd
       -0.016507043 -0.16187859 0.10410473 -0.08151292
000310 bb f7 7f 3e c7 31 df 3d 7f b2 d8 bd 19 6f ca 3c
       0.24996845 0.10898166 -0.105809204 0.024711179
000320 35 7f 42 3d 75 c6 0e bd 9a d7 b4 3d c5 35 07 3e
       0.047484595 -0.034857232 0.08830185 0.13204105
000330 48 a9 38 be d1 b8 fa 3d a5 9b 86 3d 28 a1 4b bd
       -0.18033326 0.12242282 0.065726556 -0.049714237
000340 32 c0 85 3e d6 c7 32 3d 31 43 ac bd 3f 9c 9f 3e
       0.26123196 0.04364761 -0.08411253 0.31173894
000350 2f ad d8 3c 69 32 d8 bd 61 e3 9a bc 94 03 be 3c
       0.026449768 -0.1055649 -0.01890725 0.023195066
000360 94 b7 89 bd f5 4e 1e 3e e2 27 09 3d 79 9d 01 be
       -0.06724468 0.15459807 0.0334853 -0.12657727
000370 b4 90 04 be db 12 05 3e 08 a4 28 3d dd 6a 05 bd
       -0.12945825 0.12995474 0.041172057 -0.032572616
000380 ed 12 28 be 5c 46 d1 bd e6 9b a3 35 6a b1 b6 3d
       -0.1641347 -0.10218498 1.2189819e-06 0.08920558
000390 b3 4f 5a bd f5 3e 61 3d f7 a7 35 be 0d ee 0b be
       -0.053298663 0.05499168 -0.17739855 -0.13665028
0003a0 b2 7f 39 bd 2b 77 2f be 72 06 04 3e b3 76 1e 3e
       -0.045287795 -0.17135303 0.12893084 0.15474968
0003b0 81 ce 66 be d4 df a4 3d a9 8b 05 3e e7 35 74 be
       -0.22539712 0.08050504 0.13041557 -0.23848687
0003c0 1d e2 e6 bd 33 00 e1 3d 58 32 57 be 83 aa 9b be
       -0.112735964 0.10986366 -0.21015298 -0.30403528
0003d0 26 7e e6 3c 84 ec 98 bd d8 fe 97 bc d3 be 68 be
       0.028136324 -0.07466987 -0.018554136 -0.22729044
0003e0 34 55 4a bd 4e 66 30 be 76 36 ad bd f7 0f 0f 3e
       -0.049397662 -0.17226526 -0.08457653 0.13970934
0003f0 a9 c9 2c be d4 a5 42 bd a1 ff 5c 3e e7 f7 26 3d
       -0.16873802 -0.047521427 0.2158189 0.04076376

layers.6.bias f4 [10]
000000 be e0 2e bd 2e 29 0e be 4d f4 74 3d a8 87 f1 bd
       -0.0426948 -0.13882896 0.059803296 -0.117934525
000010 61 6e d0 bb 2e 9d 92 3e de c8 40 3e 8e aa bd bd
       -0.0063608144 0.28635544 0.18826625 -0.09261046
000020 e6 2b 84 3e 4b 12 37 bd
       0.25814742 -0.04469518
