mnist_nets/fc3.pt (torch, 360769 bytes, 6 tensors)

layers.2.weight f4 [100, 784]
000000 84 f3 06 39 5a ba 19 39 4a 9c 12 39 0a bc 19 39
       0.00012869952 0.00014660638 0.00013981867 0.00014661267
000010 84 ce 19 39 ca 94 12 39 1a b8 12 39 82 b7 12 39
       0.0001466815 0.00013979073 0.00013992228 0.00013992007
000020 3b 27 13 39 64 93 12 39 2e c0 12 39 6f ab 11 39
       0.00014033627 0.00013978552 0.00013995238 0.00013892142
000030 a6 92 12 39 30 a1 12 39 3b 99 12 39 2b 25 13 39
       0.00013978276 0.00013983692 0.00013980728 0.00014032859
000040 9a ba 12 39 7b a6 11 39 66 b5 18 39 1c 01 13 39
       0.0001399316 0.00013890296 0.00014563426 0.00014019426
000050 70 c4 19 39 2f 27 13 39 e4 b1 1a 39 9a b2 12 39
       0.00014664396 0.0001403361 0.00014752854 0.0001399018
000060 78 b1 12 39 18 f6 06 39 f7 26 13 39 d5 fb 11 39
       0.00013989757 0.00012870913 0.00014033528 0.00013922092
000070 10 be 12 39 c9 be 06 39 1d 81 13 39 73 a3 1a 39
       0.00013994449 0.00012850309 0.00014067111 0.00014747474
000080 59 26 13 39 d3 5b 19 39 59 09 03 39 1a 5b 04 39
       0.00014033298 0.00014625424 0.00012496616 0.00012622439
000090 c3 8e 12 39 06 d2 07 39 ca b8 07 39 23 f2 16 39
       0.00013976828 0.00012952843 0.00012943443 0.00014395318
0000a0 67 0c 17 39 48 53 08 39 79 be 18 39 a3 29 0f 39
       0.00014405102 0.00013000995 0.00014566806 0.00013653054
0000b0 e7 bf 0a 39 41 5c 0b 39 38 c4 05 39 78 44 05 39
       0.00013232195 0.0001329044 0.00012756966 0.00012709375
0000c0 37 01 f5 38 b0 e0 07 39 21 cc 0e 39 bc a6 0a 39
       0.00011682737 0.00012958306 0.00013618219 0.00013222819
0000d0 d0 92 06 39 43 25 13 39 ee fc 11 39 4a c1 19 39
       0.00012833928 0.00014032894 0.00013922501 0.00014663223
0000e0 4c 00 07 39 57 29 13 39 7b 88 1a 39 35 9f 0c 39
       0.00012874714 0.00014034413 0.00014737427 0.0001341075
0000f0 d4 f3 09 39 ca b2 0e 39 ec fd 09 39 f8 7b 04 39
       0.00013156171 0.0001360878 0.00013159931 0.00012634683
000100 d7 fc 0a 39 1b 60 10 39 70 60 d3 38 d9 50 e7 38
       0.00013254896 0.00013768712 0.00010079227 0.000110299974
000110 14 5f 0d 39 a1 1a d4 38 d7 5e df 38 05 20 00 39
       0.00013482227 0.00010113908 0.00010651134 0.0001221896
000120 78 f2 0e 39 e3 8c fa 38 cd 03 ea 38 3a fe b8 38
       0.00013632502 0.00011947171 0.000111586975 8.821157e-05
000130 e4 8e fd 38 af c7 0f 39 f6 97 02 39 c2 22 05 39
       0.000120905956 0.0001371193 0.00012454376 0.00012696817
000140 c4 14 17 39 ed da 14 39 61 84 13 39 38 be 12 39
       0.00014408218 0.00014195936 0.00014068327 0.00013994507
000150 b0 c6 19 39 d2 94 12 39 18 7e 19 39 72 c7 0d 39
       0.00014665234 0.00013979085 0.0001463819 0.00013521107
000160 57 73 02 39 c9 e4 0f 39 92 c1 0b 39 f3 bd 0b 39
       0.00012440734 0.00013722772 0.00013328184 0.00013326835
000170 53 ca b5 37 94 50 1f b9 11 c4 dc 37 39 19 14 39
       2.1671096e-05 -0.0001519344 2.6317344e-05 0.00014123776
000180 7d 9e 11 39 2c 34 d6 38 99 2c 92 37 07 56 16 b8
       0.00013887319 0.00010214033 1.7425324e-05 -3.5842906e-05
000190 de 14 1a b8 0c 00 35 38 1e 5f 86 b7 56 42 10 38
       -3.6735895e-05 4.3153806e-05 -1.6018337e-05 3.4394056e-05
0001a0 6e de b2 38 19 d2 ab 38 c3 45 9d 38 13 d4 03 39
       8.529132e-05 8.193049e-05 7.4993375e-05 0.00012572137
0001b0 a7 57 0b 39 9c e4 08 39 10 c6 19 39 7f b1 11 39
       0.00013288726 0.00013055134 0.00014665001 0.000138944
0001c0 20 a2 12 39 5b 22 13 39 09 06 0e 39 d1 2a 13 39
       0.00013984041 0.00014031811 0.00013544424 0.00014034963
0001d0 51 eb 1a 39 97 0c 21 39 25 c0 1a 39 1c 52 1d 39
       0.00014774247 0.00015358847 0.00014758164 0.00015003275
0001e0 b5 63 a4 b8 63 b0 af b8 49 35 e7 38 13 38 39 39
       -7.838701e-05 -8.377505e-05 0.000110248635 0.00017663864
0001f0 46 f2 17 39 9c 35 39 38 2a 32 9b 38 2b 80 64 38
       0.00014490736 4.4157365e-05 7.40032e-05 5.44788e-05
000200 92 23 09 b8 7c 5a 46 38 3a 7d 21 38 bd 67 5a 37
       -3.2696473e-05 4.729115e-05 3.8502018e-05 1.3017966e-05
000210 62 22 05 b7 98 71 33 b8 67 da 17 37 eb 02 11 b7
       -7.935423e-06 -4.2782718e-05 9.051152e-06 -8.643353e-06
000220 fc 63 97 38 bb fb 14 39 5d bd 02 39 a1 be 12 39
       7.2188646e-05 0.00014208157 0.0001246831 0.0001399466
000230 fa a4 11 39 96 fd 11 39 c7 12 13 39 17 b7 0d 39
       0.00013889736 0.00013922746 0.00014026008 0.00013515014
000240 83 56 02 39 e2 07 4d 39 fd ab 3d 39 57 49 c7 38
       0.00012429994 0.0001955326 0.00018088515 9.50272e-05
000250 2c 9b 71 b6 d0 7c a1 b4 72 d0 0f 39 ad 6a 8f b5
       -3.600212e-06 -3.00794e-07 0.00013715195 -1.0685377e-06
000260 01 2b 23 37 68 31 68 b9 7c 8b d5 bc 16 bb e6 b9
       9.72557e-06 -0.0002214365 -0.026067488 -0.00044008408
000270 5f b5 cb b9 ec 0b 04 39 b0 93 4a 39 92 4b 62 3d
       -0.0003885431 0.00012592942 0.00019319239 0.05524785
000280 72 6a fb 39 d4 c2 44 b5 cd 5c c4 b6 ef be 91 37
       0.0004795376 -7.32992e-07 -5.8520586e-06 1.7374257e-05
000290 0b 23 f3 37 71 d6 f9 38 27 a7 0d 39 ea 93 12 39
       2.8984176e-05 0.00011913188 0.00013509077 0.00013978747
0002a0 c8 86 13 39 aa b5 12 39 f0 12 08 39 f0 5a 01 39
       0.00014069222 0.0001399132 0.00012977025 0.00012336276
0002b0 8c b8 e9 38 4e b8 2d 39 80 dc 32 39 80 2c c6 b6
       0.0001114468 0.00016567225 0.00017057545 -5.9060403e-06
0002c0 0b f2 06 b8 b3 04 34 ba 29 4b 79 b7 ab fb 18 37
       -3.217351e-05 -0.00068671553 -1.4859056e-05 9.118502e-06
0002d0 c5 b2 95 b9 f2 fe 5f ba 4b 98 22 bc 79 69 a1 b9
       -0.00028552688 -0.0008544765 -0.009924005 -0.00030786896
0002e0 f1 25 22 37 23 28 ec 38 9c f2 e0 39 1b 59 c3 3a
       9.664786e-06 0.00011260833 0.00042905367 0.0014903875
0002f0 b7 68 26 3c 8e b0 59 3a 3c 0d e5 39 2a c4 98 38
       0.010156802 0.0008304202 0.00043688144 7.284463e-05
000300 a3 a9 a5 b7 ed 89 39 b7 e4 4e 1e 39 0c fe 17 39
       -1.9748526e-05 -1.1058973e-05 0.00015097443 0.00014495122
000310 fa b8 19 39 d4 9e 06 39 fb b5 1e 39 61 91 7a 39
       0.00014660126 0.00012838404 0.00015135847 0.00023896016
000320 74 a3 91 39 51 7a a2 39 84 00 03 39 41 fd 25 ba
       0.00027778337 0.0003099018 0.00012493326 -0.0006331988
000330 85 c6 1a ba a4 68 26 ba 8a 9a 0a b9 43 59 28 ba
       -0.00059042155 -0.000634799 -0.00013218276 -0.00064219924
000340 42 c9 a5 b8 9f 6c c9 37 e1 c0 80 b8 d8 bb 3c 39
       -7.9053e-05 2.4011648e-05 -6.139442e-05 0.00017999054
000350 88 a6 28 36 a1 56 37 ba 7c ba 0e 39 bd 03 4d 3a
       2.5130885e-06 -0.0006993805 0.00013611646 0.00078206864
000360 b7 fa 08 3d b3 36 83 3d 8c b3 db 3d 82 72 66 39
       0.033442225 0.064069174 0.10727605 0.00021977167
000370 e2 9a 7d b7 51 12 c0 38 d2 b1 2c 39 a6 e3 0c 39
       -1.5116037e-05 9.158685e-05 0.00016469441 0.00013436246
000380 c4 9b 16 39 90 fe 08 39 23 1e 94 39 4a 0a c7 39
       0.00014363142 0.00013064803 0.00028251213 0.00037963904
000390 9e 4f 0c 3a 07 4c 00 3a 6d 04 0e b7 20 00 f8 b9
       0.000535244 0.00048941415 -8.46489e-06 -0.0004730234
0003a0 64 80 df b9 83 17 b2 b9 0d a0 86 b9 f7 f2 b0 b9
       -0.00042629533 -0.00033968323 -0.0002567772 -0.0003375036
0003b0 a3 d2 fe 36 ac 05 f3 39 b6 cb b4 39 47 b9 0d 3a
       7.5943112e-06 0.00046352798 0.00034484052 0.00054063316
0003c0 ce fb 1b 37 67 74 ff bc 6c b0 70 bd d2 da b9 37
       9.297348e-06 -0.031183435 -0.058762 2.2155615e-05
0003d0 79 03 27 3a 4d 95 1a 3e fb b0 cc 3d d1 d1 8a 38
       0.0006371062 0.15096016 0.09994694 6.619434e-05
0003e0 f7 2e 73 b7 d0 2c d5 b6 b9 0e 4c 39 57 30 12 39
       -1.44948635e-05 -6.3531115e-06 0.0001946044 0.00013941653
0003f0 76 cc 12 39 5a 40 0f 39 77 bf 3a 39 eb 0c f6 39
       0.00013999813 0.00013661516 0.00017809668 0.000469304

layers.2.bias f4 [100]
000000 04 7c c0 3d 0b 74 cd bd 24 fa f9 3e 65 7c 9f bc
       0.09398654 -0.10031899 0.48823655 -0.019468496
000010 c1 59 42 3e 72 6e 51 3d 08 e3 dd 3e 82 98 3b be
       0.18979551 0.05113072 0.43337274 -0.18319896
000020 29 0c 9a bc f8 f6 65 3d 71 ed 4b 3e 38 d8 4c 3d
       -0.018804627 0.05614373 0.19914795 0.05001089
000030 5a 0e e1 3d c0 41 6a 3d 11 b4 10 3e 76 b8 6b 3d
       0.109890655 0.05719161 0.1413119 0.057548963
000040 84 a1 0e 3d 09 dd 2b 3e 90 8b 11 3e 10 65 dc bd
       0.034822002 0.16783537 0.14213395 -0.10761464
000050 97 0a 69 3d 6c 84 64 3d 69 8b 68 3e a0 3f 03 be
       0.056894865 0.05579035 0.22709431 -0.1281724
000060 56 df 88 3c 1b 69 2d bd b3 3d 6d 3d 3c 41 fd 3e
       0.016708057 -0.042336565 0.05792017 0.49463832
000070 4f f5 17 be 97 3d 84 3e c8 a9 64 3d 6c be 44 be
       -0.14839672 0.2582824 0.05582598 -0.19213265
000080 74 1a 6b 3d 67 3a 68 3d ea 36 6b 3d c3 78 69 3d
       0.057398275 0.05669632 0.057425417 0.056999933
000090 f2 78 12 3e 75 9a 67 3d d0 90 0e be 9d 3c 39 be
       0.1430395 0.056543786 -0.13922429 -0.18089528
0000a0 03 96 6a 3d 1e d5 da bc 1b 97 c8 be bf c3 66 3d
       0.05727197 -0.02671295 -0.39177784 0.05633902
0000b0 3c a1 bb 3d b9 ac 2e bc 9f 4a d3 bc 3e dd 9c bc
       0.091616124 -0.0106612975 -0.025792418 -0.019148465
0000c0 df a1 9b bd 19 7d 93 be bb 99 bf bc 83 b7 64 3d
       -0.07599234 -0.2880638 -0.023388734 0.055839073
0000d0 1e c5 23 3e ed 11 68 3d 8d 07 f4 3e 57 d2 63 be
       0.15993163 0.05665772 0.4766201 -0.22248207
0000e0 4d aa e1 bc 7b e0 f5 bd f5 b9 67 3d 2a 42 60 3d
       -0.027547026 -0.12005707 0.056573827 0.0547506
0000f0 cc 73 6e 3d 38 89 65 3d 84 93 10 3e 15 b4 b5 3d
       0.0582159 0.056039065 0.14118773 0.088722385
000100 ef a1 cc be 90 15 3f 3e 33 9a 6e 3d 99 d5 63 3d
       -0.39967296 0.18660569 0.058252525 0.055623624
000110 38 26 34 3b f2 8f 60 be 0b 42 63 3d 00 2d 4a 3e
       0.00274886 -0.21929911 0.055482905 0.19743729
000120 f5 b1 6a 3d 05 a9 98 bc 87 0d 6c 3d 1e 7e 47 bc
       0.05729862 -0.018635282 0.05763009 -0.012176065
000130 f8 43 37 3e 50 f9 68 3d 90 b3 5b bc ff 15 82 3d
       0.17897022 0.056878388 -0.01340951 0.06351852
000140 38 ea 6d 3d 15 27 61 3d 9a 3a 76 3e 0a f5 16 bd
       0.058084697 0.054968912 0.24045792 -0.03685478
000150 b5 fa 65 3d 51 c3 3c bd 94 15 40 be f8 9a de 3d
       0.056147296 -0.046084706 -0.18758231 0.10869402
000160 dc c9 f4 3d 4c 3b ed 3e 99 b0 66 3d d3 f9 34 be
       0.11952564 0.46334302 0.05632076 -0.17673425
000170 81 fc 63 3d 7a 4e b1 bc 18 cf 0e 3d 50 14 0a 3e
       0.05566073 -0.021643866 0.03486547 0.13484311
000180 00 18 4e be 19 92 6b 3d 2b ab 2b be 88 1c 0a 3d
       -0.20126343 0.057512376 -0.16764514 0.033718616

layers.4.weight f4 [100, 100]
000000 3b 83 e7 b6 3a 98 ab 36 9e b2 c2 b6 9c c7 87 37
       -6.8996137e-06 5.1139186e-06 -5.8024443e-06 1.6186204e-05
000010 9a 9a 14 37 35 25 d8 36 83 c2 4c b6 d4 b9 66 36
       8.857483e-06 6.441633e-06 -3.051159e-06 3.4380837e-06
000020 ce 22 7d 37 92 ed ac b6 5b 92 6e b7 55 27 37 b7
       1.5088079e-05 -5.1536563e-06 -1.42199815e-05 -1.0916808e-05
000030 b1 fc 36 37 96 c2 d4 b7 f9 23 be 36 95 ca ea b7
       1.090688e-05 -2.536298e-05 5.666629e-06 -2.7989308e-05
000040 4a 9c 3d 37 f1 76 52 b6 d8 15 5f b7 64 cd 33 35
       1.1301667e-05 -3.1361672e-06 -1.3296922e-05 6.698158e-07
000050 a8 77 4b b7 36 00 c4 b6 5e a2 00 37 cf 91 e2 36
       -1.21276025e-05 -5.8412797e-06 7.667199e-06 6.752299e-06
000060 7d fa d5 35 a5 52 71 b7 3e c1 fa b6 c4 03 2f 36
       1.5942638e-06 -1.4383962e-05 -7.473077e-06 2.6079224e-06
000070 88 da 87 b7 b0 63 07 b6 ab 2b e0 36 d8 a8 4d 37
       -1.6195016e-05 -2.0174593e-06 6.680804e-06 1.2258264e-05
000080 8b af 9b b7 7b 16 ec b5 02 7e ed 35 38 00 17 b7
       -1.8559183e-05 -1.7589913e-06 1.7694549e-06 -9.000352e-06
000090 f4 a0 83 b7 1b 27 f7 35 05 4b 01 b7 e3 5b 01 b6
       -1.5691367e-05 1.8414315e-06 -7.706466e-06 -1.9275983e-06
0000a0 81 22 9a b6 bc f7 fd 36 4f 92 e7 36 ce 9c 5c 36
       -4.5935744e-06 7.5688276e-06 6.901369e-06 3.2873827e-06
0000b0 5b d4 29 37 48 d4 e7 b7 f0 19 c2 36 b6 16 3b 37
       1.0122628e-05 -2.7636197e-05 5.78467e-06 1.1151356e-05
0000c0 79 b4 9b 36 c0 07 97 36 5e b0 f4 35 c3 f1 d0 b6
       4.6403698e-06 4.501053e-06 1.8230746e-06 -6.227028e-06
0000d0 ee f4 db 36 da a5 37 b6 44 ee 4d 34 df 57 ed b6
       6.555222e-06 -2.7365663e-06 1.9178793e-07 -7.07338e-06
0000e0 34 71 a0 b6 d9 aa 33 b7 45 8f 95 b6 36 46 19 34
       -4.78155e-06 -1.070901e-05 -4.457225e-06 1.4274778e-07
0000f0 c0 77 05 37 f3 e7 31 b6 e5 f9 44 36 82 c9 5c b3
       7.955299e-06 -2.6510068e-06 2.9351734e-06 -5.1406012e-08
000100 86 6e 05 37 46 8c 43 36 01 c4 e7 b6 2d b7 9b 36
       7.953151e-06 2.9138914e-06 -6.9071543e-06 4.6406844e-06
000110 79 81 1c b7 68 c5 10 37 61 eb b6 35 a8 5d b6 35
       -9.32847e-06 8.629031e-06 1.3628561e-06 1.3587314e-06
000120 1c a4 3d 36 2b 55 13 37 83 c8 2a 36 e1 64 23 36
       2.825872e-06 8.7817125e-06 2.5448687e-06 2.4347612e-06
000130 60 36 3d 36 85 21 bd 36 0c 5d eb 37 fc 7d 1c 37
       2.8194845e-06 5.636541e-06 2.8057511e-05 9.327658e-06
000140 07 be 54 37 01 7e 51 b7 cc 9f 82 b6 e7 af 1e b7
       1.2680429e-05 -1.2486708e-05 -3.8929047e-06 -9.458489e-06
000150 26 d2 4d 37 4b 39 e7 b7 37 09 96 b7 4c 23 5a b7
       1.2267881e-05 -2.7564025e-05 -1.7885684e-05 -1.3002031e-05
000160 70 55 3c b6 a9 a4 44 b7 82 ae f2 36 a1 e0 3d b6
       -2.8063914e-06 -1.1720848e-05 7.2324774e-06 -2.8293946e-06
000170 cc 30 e3 34 8c d2 0a b7 2f 0f 3c 37 8d c4 4f 37
       4.231755e-07 -8.274463e-06 1.1209208e-05 1.23839245e-05
000180 a9 0f 8f b6 29 8f 15 37 cd 56 2e b6 75 5c 29 37
       -4.263555e-06 8.914424e-06 -2.5978545e-06 1.0094712e-05
000190 34 d4 ae bd c3 fa 98 b7 34 ae 04 b7 1f b7 88 35
       -0.08536568 -1.8236582e-05 -7.908373e-06 1.0186085e-06
0001a0 b0 87 9e b9 11 be 8a b9 bc 68 d6 b8 0e 19 1b 39
       -0.00030237203 -0.00026463022 -0.000102238235 0.00014791286
0001b0 53 1d 69 b9 29 0e 2a b7 86 ea c7 38 12 a0 54 b9
       -0.00022231536 -1.01360865e-05 9.532743e-05 -0.00020277526
0001c0 b6 e7 8c 3e 4a 79 82 37 fe fa df b9 88 43 95 b8
       0.2752053 1.5553687e-05 -0.00042720878 -7.117452e-05
0001d0 e6 8c be 39 9a 10 98 3e 98 b0 db 39 a1 d2 ce 36
       0.00036344602 0.29700166 0.00041902508 6.163799e-06
0001e0 b9 99 5c b7 d1 bd b4 36 7a a3 48 3d 28 fe 2c 39
       -1.3148813e-05 5.3865156e-06 0.04898403 0.00016497879
0001f0 9e 57 4e 3a 61 23 65 37 dc 55 4f b7 6c 08 b9 3e
       0.00078713323 1.3657701e-05 -1.2358152e-05 0.36139238
000200 e5 17 b0 b9 81 e2 89 b9 42 a0 c9 36 4c 62 82 b9
       -0.0003358714 -0.00026299435 6.0089233e-06 -0.0002486877
000210 9d c1 8b 38 3c b8 43 b7 da ea 0a 38 42 8e 9d b7
       6.6641e-05 -1.1665801e-05 3.3120486e-05 -1.8782102e-05
000220 b1 1a 22 3e e1 70 01 38 77 e3 89 38 22 78 fa b9
       0.15830494 3.0861123e-05 6.575038e-05 -0.00047773222
000230 70 d9 16 38 19 00 83 37 c3 3e 70 39 0d bb 40 37
       3.596529e-05 1.5616462e-05 0.00022911564 1.1487643e-05
000240 91 4d 4d b8 2a 78 dd b5 31 e6 bb 36 78 0d 7e 39
       -4.8948048e-05 -1.6500755e-06 5.599832e-06 0.00024228345
000250 58 7b c4 b9 50 d3 4f ba 50 73 ba b5 b6 ac a3 b7
       -0.00037475931 -0.00079279114 -1.389164e-06 -1.9511539e-05
000260 ea 32 8c 3e 42 a0 fc 37 20 00 59 38 07 5a a0 be
       0.27382594 3.0115367e-05 5.1736948e-05 -0.31318685
000270 94 ea 84 37 01 cf 01 36 c8 5c f5 37 f2 3d 8a b7
       1.584486e-05 1.934299e-06 2.924948e-05 -1.6479727e-05
000280 dc 11 3e b7 df 2c cf 36 58 46 84 b8 08 70 10 3d
       -1.1329041e-05 6.1743044e-06 -6.307353e-05 0.03526309
000290 7f 54 56 be bb 29 b5 39 78 c3 54 38 00 f8 fa 37
       -0.2093067 0.00034554102 5.0726783e-05 2.9917806e-05
0002a0 5c e8 55 ba 90 8e 91 b9 92 00 f2 b7 13 52 1e 39
       -0.00081599294 -0.00027762773 -2.8848914e-05 0.00015098629
0002b0 f4 9f 62 37 b7 44 08 ba b0 40 3e 37 91 29 a6 b6
       1.3507892e-05 -0.00051982276 1.1339944e-05 -4.9520245e-06
0002c0 19 d3 1d 3d 0c c0 f4 37 23 e6 82 35 2c 58 92 b9
       0.038531397 2.9176495e-05 9.752733e-07 -0.00027912983
0002d0 ba 50 7d b7 a7 f6 40 b7 bd 05 cf bc 01 31 8b 35
       -1.5098771e-05 -1.150152e-05 -0.02527129 1.0370569e-06
0002e0 9d 77 eb b7 66 9c 91 37 22 79 8f 39 e0 1d 75 ba
       -2.8069882e-05 1.7358176e-05 0.00027365336 -0.000935046
0002f0 82 3f 4e ba c2 02 e1 39 f4 d2 92 b7 da 1e 8c 3d
       -0.000786774 0.000429174 -1.7502789e-05 0.06841822
000300 5e 40 ab b6 c8 88 71 36 98 83 cb b9 3c 7e 55 3d
       -5.1036905e-06 3.5991416e-06 -0.00038817222 0.05212234
000310 bf 94 dc b9 36 d9 01 38 65 77 d5 bd 89 6b 42 b9
       -0.00042072494 3.095829e-05 -0.10423163 -0.00018541342
000320 cd 39 71 b6 4f ef 13 b7 2c c3 a7 b6 cc 7f 02 b7
       -3.5945443e-06 -8.817601e-06 -4.999709e-06 -7.778359e-06
000330 76 5a 9a b7 02 73 07 38 83 71 37 b5 5e 41 2c b7
       -1.8400355e-05 3.2293618e-05 -6.8337994e-07 -1.0267218e-05
000340 68 c2 25 b7 d3 28 c9 36 f3 ac 3d b6 6b 20 17 b7
       -9.88003e-06 5.9950194e-06 -2.8263864e-06 -9.007849e-06
000350 aa 53 12 b7 65 86 8b b6 8b 18 d1 b5 29 21 e3 36
       -8.721758e-06 -4.1581684e-06 -1.5578856e-06 6.7689875e-06
000360 51 63 38 35 be f5 fc 36 a3 f5 1b 37 29 f7 2b b6
       6.8689866e-07 7.5387934e-06 9.295912e-06 -2.5624852e-06
000370 26 03 0f 36 44 5f 64 36 23 80 97 b7 ed b6 c1 35
       2.1310493e-06 3.40301e-06 -1.8060271e-05 1.4432859e-06
000380 38 81 65 b6 db 1f c6 b6 07 9d 2a b6 43 c5 09 b5
       -3.4198874e-06 -5.9045683e-06 -2.5423376e-06 -5.132353e-07
000390 28 2a 8a b6 c7 b1 04 35 f6 3f bf 36 74 53 41 37
       -4.117628e-06 4.943253e-07 5.6996896e-06 1.1523127e-05
0003a0 b8 6e 2c 37 90 1f 61 b7 e9 bd 70 36 4d 76 4c b6
       1.0277778e-05 -1.3418394e-05 3.587333e-06 -3.046723e-06
0003b0 37 da 29 b6 cc cf 21 b7 c3 1a 02 b7 e5 d5 f4 36
       -2.530998e-06 -9.644729e-06 -7.754835e-06 7.2966673e-06
0003c0 b9 5c ef b7 65 2f 8f b7 c7 6d 69 37 ca 70 d4 36
       -2.8534198e-05 -1.7068998e-05 1.3913442e-05 6.3312227e-06
0003d0 4e d4 a5 b6 b3 12 3d 36 89 96 97 b7 1e 7b e8 35
       -4.9420987e-06 2.817408e-06 -1.8070701e-05 1.7321179e-06
0003e0 e7 89 07 b7 3b ad eb b3 6e b4 55 b7 d8 60 98 b6
       -8.078735e-06 -1.0974551e-07 -1.2737799e-05 -4.541227e-06
0003f0 3d c1 85 b6 85 75 9d 36 7f 3d 9a b6 93 59 8c 34
       -3.986205e-06 4.6926457e-06 -4.5967167e-06 2.6142206e-07

layers.4.bias f4 [100]
000000 45 d1 5c 3d 42 d6 bc 3e 38 b2 80 bd d8 44 0c bc
       0.053910512 0.36882216 -0.062839925 -0.0085613355
000010 f9 1e 71 3d 83 61 4e 3e 76 67 3a be 73 71 5b bd
       0.05886743 0.20154385 -0.1820353 -0.05357499
000020 e8 26 cb bd 42 50 c2 3d 30 49 d3 bd d1 12 ec 3d
       -0.0991953 0.09487964 -0.10316694 0.115270264
000030 f6 1c f2 3c 1d f0 b5 3e ee 74 5f be ec 9b ab 3d
       0.029554825 0.35534754 -0.21821949 0.08379349
000040 7e ba c5 bb 99 fd 76 3d 4d 7e 67 3e be 59 89 3e
       -0.0060341945 0.060300443 0.22606774 0.2682628
000050 07 65 08 3f 95 87 43 3d b8 86 19 bd dc cf 01 bc
       0.53279155 0.047736723 -0.037481993 -0.007923093
000060 2b 31 a2 3c 46 11 00 3f 25 38 9f 3e 09 6a b0 3e
       0.019798836 0.5002636 0.31097522 0.34455898
000070 2b 89 dd 3e 65 a1 ce 3e 34 ed e2 3e ba 93 a9 bc
       0.43268713 0.4035751 0.44321597 -0.020700324
000080 5a 77 18 bd 32 63 89 3e f1 5a 19 3e 46 c5 a5 3e
       -0.037223198 0.26833493 0.14976098 0.3237707
000090 36 04 64 3d f5 48 89 bd 08 58 85 3e 1a 8b f9 3d
       0.05566808 -0.067033686 0.26043725 0.12184735
0000a0 43 fc 31 ba f0 62 d7 3d 9e 7d 66 3d 7b 95 22 be
       -0.0006789604 0.10516918 0.05627214 -0.15877335
0000b0 37 bf b5 3e 99 77 8c 3e 95 a6 bc 3e d2 9d a5 3d
       0.35497448 0.27434996 0.36845842 0.080867425
0000c0 1f f3 21 3e c5 ba 8f bd 57 ba 22 be d4 de 54 be
       0.158154 -0.07018045 -0.15891396 -0.20788127
0000d0 9e 2e 70 bd aa ab b4 bd a6 29 96 bc 98 de 0f bc
       -0.058638208 -0.08821805 -0.018330406 -0.008781098
0000e0 67 d5 02 bd 85 3a 30 3d ae 6e c3 3e d9 e4 99 3d
       -0.031941798 0.04302456 0.3817038 0.07514352
0000f0 b8 a4 e5 3d 65 8e d4 3c 0f a7 25 be e5 d9 b1 3d
       0.11213058 0.025946805 -0.16177009 0.08684138
000100 e7 89 c7 3e 09 75 c2 3e 4b f6 b9 3e ca e1 8b 3b
       0.389724 0.37979916 0.3632072 0.0042688595
000110 66 c0 83 be a8 d4 6e 3d 3a a4 a7 bd 8d 0f 2c be
       -0.25732726 0.058308274 -0.081856206 -0.16802807
000120 d2 d7 dd 3d 7b 64 b8 3e f1 55 a7 3d cd a6 3b 3e
       0.1083218 0.3601416 0.08170689 0.18325348
000130 8e 41 c9 bb f4 80 b0 3d 40 7e aa 3d 0a c5 71 3d
       -0.006141848 0.08618346 0.083248615 0.0590258
000140 58 98 cc 3e 4f 2c b1 3d 88 60 aa 3e e8 06 6c 3d
       0.3995998 0.08651029 0.33276772 0.057623774
000150 e5 1e 89 3e 67 a0 ff 3e a0 1a b8 bd 73 09 ce 3e
       0.26781383 0.49927065 -0.08989453 0.40241584
000160 cc 7d 13 3f 67 c1 2f bc 73 18 54 3d 17 22 f3 bc
       0.57613826 -0.010727263 0.05178113 -0.029679341
000170 a7 b0 bb be 3a 73 ea bd 98 a2 dc 3d 05 09 87 3e
       -0.36658213 -0.11447759 0.107732 0.2637407
000180 9d d6 87 3e 3d 0b d4 bd 98 ba fb 3d 68 ca 24 be
       0.26530924 -0.10353706 0.12291449 -0.16092837

layers.6.weight f4 [10, 100]
000000 4f 6c 25 b8 58 e1 e8 3d b9 74 cc 36 35 90 9d b5
       -3.9439936e-05 0.11371106 6.093262e-06 -1.1739381e-06
000010 0b c2 b0 b7 31 ff 91 be b7 10 a3 3e bf ab c6 b9
       -2.1071193e-05 -0.28515008 0.3184869 -0.00037893464
000020 f6 53 b6 39 a3 4a 7b bf 46 78 f6 b5 df 95 a9 bd
       0.000347763 -0.9816076 -1.8363432e-06 -0.08280539
000030 ab c4 22 bf cc 17 fd b8 cd f1 c3 b9 8c fb 02 b8
       -0.6358134 -0.000120684126 -0.00037373454 -3.1228687e-05
000040 f3 e5 dc b4 be e6 11 b8 c0 f7 dd be 71 7d 42 bf
       -4.1145503e-07 -3.478559e-05 -0.4335308 -0.7597266
000050 2b 1c d7 3d 38 f6 02 39 a4 3d a0 b7 ae 9c 96 37
       0.105034195 0.0001248949 -1.910219e-05 1.7954353e-05
000060 e3 55 fd 3e ec 33 77 3d fe 3f aa 3e f5 f7 10 3f
       0.4947959 0.06035225 0.33251947 0.5662835
000070 d4 78 d6 b8 b3 cc f0 be 3c 87 ac 3d 15 36 63 b7
       -0.00010226821 -0.47031173 0.084242314 -1.3542846e-05
000080 84 fc 59 3d 69 90 ba b9 68 88 e5 bd 2e 61 86 bc
       0.053219333 -0.00035584279 -0.11207658 -0.01640376
000090 66 3e 1d b7 37 7d dd 35 0d e9 ac b7 28 8e df b7
       -9.3724575e-06 1.6502225e-06 -2.061252e-05 -2.6649868e-05
0000a0 ca 88 3b bf 05 10 88 b9 ca db 39 b7 cb 14 0c ba
       -0.732556 -0.00025951877 -1.1078033e-05 -0.00053436746
0000b0 f7 fa 2e ba 02 cb 85 be 81 4f 74 be ba 8e 2d b8
       -0.000667497 -0.26131445 -0.23858453 -4.137934e-05
0000c0 73 82 38 bf a8 b1 25 37 44 07 15 ba 10 d1 87 b4
       -0.7207405 9.87613e-06 -0.00056849816 -2.5297823e-07
0000d0 71 f7 1b 37 71 8f 4a 36 74 70 8c 37 b3 17 af 39
       9.296332e-06 3.018384e-06 1.6741666e-05 0.00033396258
0000e0 70 91 96 be 03 5a 6e b8 26 4e 3e 39 23 2c 84 39
       -0.29407835 -5.682745e-05 0.00018148925 0.00025209886
0000f0 58 a8 51 bf dc c7 2f 3c eb ca d7 37 82 56 1a be
       -0.818975 0.0107288025 2.5724488e-05 -0.15072063
000100 e2 b7 02 b9 0f 3b 1e 3e 4c 70 8d bd 5d 14 0b b8
       -0.00012466268 0.15452217 -0.069061846 -3.3159147e-05
000110 2d e7 94 b9 ec 83 8e b7 b2 64 08 bd 73 72 4e bf
       -0.00028401 -1.698915e-05 -0.033299156 -0.80643386
000120 46 d7 e1 b9 dc 56 63 39 06 ab 14 b8 5d 13 86 b9
       -0.00043075735 0.00021680765 -3.5445228e-05 -0.00025572898
000130 05 43 7d b7 3f 8c 1e 3a 82 30 8b b9 11 f5 ec b7
       -1.5095579e-05 0.000604812 -0.00026548287 -2.824751e-05
000140 26 03 06 3a 04 fd 8c b9 13 b6 2a bf 65 2d e4 b7
       0.00051121635 -0.00026891392 -0.66684073 -2.7200856e-05
000150 8c a4 ab b8 bb 53 07 39 23 b9 89 b9 c3 c3 08 3a
       -8.184565e-05 0.00012905795 -0.00026268614 0.0005217159
000160 b8 7f 64 bd fe eb 1c 37 d7 8e 6a b8 11 8e f5 3e
       -0.055785865 9.353271e-06 -5.5922977e-05 0.4795995
000170 d8 bd b2 bd b6 b8 71 34 77 ba c9 3e 59 43 a2 38
       -0.08727616 2.2512071e-07 0.39400074 7.7373064e-05
000180 9e 43 57 3e f6 4b 1d b6 e8 a6 83 3d e7 1d 66 b7
       0.21021888 -2.3439038e-06 0.06428319 -1.37160305e-05
000190 31 7f 98 b8 7d 6e cf 39 12 e2 39 37 64 73 95 36
       -7.271616e-05 0.00039564437 1.1079495e-05 4.4539793e-06
0001a0 03 8c 91 b8 2a 7e 15 bf 54 a2 79 39 2a 0a 92 39
       -6.940218e-05 -0.58395636 0.00023806962 0.00027854863
0001b0 2f aa a9 3d 7b 81 d7 3e da 99 29 37 17 e0 f7 37
       0.08284413 0.42090973 1.0109006e-05 2.9549044e-05
0001c0 8f 8a 96 3d 27 fc a6 38 40 89 17 3f 53 dd a9 38
       0.07350647 7.962464e-05 0.591938 8.099773e-05
0001d0 06 61 44 b7 11 0f 54 b8 37 1e 7c 3e bf d4 5f 39
       -1.17051e-05 -5.055877e-05 0.24620901 0.00021346191
0001e0 d6 a5 a1 be a2 8c ed be 2e 2c 8b 36 9c 10 f7 36
       -0.31571835 -0.46396357 4.147666e-06 7.363107e-06
0001f0 27 a0 83 3e 32 11 9d 3e 60 1f 0b ba 8b 89 a0 39
       0.25708124 0.3067718 -0.00053071044 0.00030620056
000200 64 76 28 38 75 d0 16 3e b1 4d 05 bf bf ba 62 36
       4.016458e-05 0.14727958 -0.5207167 3.3785325e-06
000210 da 25 3b b9 13 1d 4d 39 36 d2 28 b9 28 f8 f6 be
       -0.0001784781 0.00019561154 -0.00016100038 -0.48236203
000220 43 72 59 b8 f4 06 15 b7 fe 5b 40 be b4 e3 1f 3a
       -5.1843246e-05 -8.882711e-06 -0.18785092 0.0006099299
000230 6a 45 8b be de 9a 69 b7 e1 c7 7c b8 bc d5 27 3f
       -0.27201396 -1.392394e-05 -6.0267634e-05 0.6556051
000240 b5 b7 98 bf 68 fa 33 39 25 cd d8 b7 a7 59 66 38
       -1.1931063 0.00017164054 -2.5844734e-05 5.491977e-05
000250 b5 e2 27 3e 64 22 db b5 09 96 31 3f 0d 92 29 37
       0.16395076 -1.632678e-06 0.6936956 1.010719e-05
000260 02 a6 78 36 4e 8d 96 36 b1 6e 78 b6 fd f5 43 38
       3.705151e-06 4.4867984e-06 -3.701931e-06 4.6720717e-05
000270 5e 9e 1b b9 0c ec 97 be eb 4f ec bd 58 1d cb be
       -0.00014840948 -0.29672277 -0.11538681 -0.39670825
000280 78 61 39 38 b7 f6 c3 39 65 9a 93 3e 61 b3 31 b9
       4.4198212e-05 0.00037377115 0.2882873 -0.00016946859
000290 04 4c 37 37 da fd 84 be aa 62 52 b9 d9 91 6e bc
       1.0925349e-05 -0.25974923 -0.00020063916 -0.01456114
0002a0 98 81 6f 3e 3c 1c 26 b8 e9 dc d3 3e c0 60 82 3d
       0.2338928 -3.960378e-05 0.4137948 0.0636611
0002b0 72 e5 7a 37 44 da 22 bf 35 e3 3d 38 db bb 6d be
       1.4954583e-05 -0.63614297 4.5272714e-05 -0.23216192
0002c0 eb 65 0d b7 31 db e5 b8 ca 2a 41 b8 d5 03 4d b8
       -8.4279845e-06 -0.000109603985 -4.6054636e-05 -4.8879378e-05
0002d0 87 b8 bb 36 4f 2a 2f 39 e3 31 90 3d 1d b7 72 b8
       5.594516e-06 0.00016705062 0.07040765 -5.7867834e-05
0002e0 43 74 3b 37 62 8e 87 b9 36 5a eb 37 5f 32 2c bf
       1.1173138e-05 -0.0002585529 2.805619e-05 -0.6726436
0002f0 5e d7 3a be ba 33 2a b7 b2 8a ef 39 39 e9 c8 b7
       -0.18246219 -1.0144833e-05 0.00045688968 -2.395046e-05
000300 30 ec c8 b9 e6 61 a8 b7 2d 21 87 b8 20 cf 0d bf
       -0.00038322946 -2.0072748e-05 -6.443481e-05 -0.5539417
000310 d2 8b ba bb 99 ba 86 b7 97 1b 60 bf 31 63 b7 b4
       -0.0056929374 -1.6060936e-05 -0.875421 -3.4158577e-07
000320 f6 7e 76 36 32 a7 12 39 47 83 7b b6 22 d0 85 b7
       3.6730758e-06 0.0001398593 -3.7478328e-06 -1.5951755e-05
000330 39 80 38 b6 c3 6a 0c be 62 6c 61 36 3d c9 aa b9
       -2.7492772e-06 -0.13712601 3.35907e-06 -0.0003257486
000340 a4 4f 8f 3e fd 7f 91 3e 60 d3 a6 36 b8 5c 0e 3a
       0.27990448 0.2841796 4.971793e-06 0.0005430686
000350 6b b3 a1 3e 01 bb 8d b7 bc ac 3f bd f5 44 35 b7
       0.31582198 -1.689559e-05 -0.04679559 -1.0804496e-05
000360 b6 c4 d4 34 3a 04 93 37 53 4a 8f bf 1d 4e 66 be
       3.9631203e-07 1.7525734e-05 -1.1194557 -0.22490735
000370 30 8b 66 3e 54 6a 74 39 d8 e2 9a 34 98 e8 c4 34
       0.22514033 0.00023309264 2.8849786e-07 3.667708e-07
000380 d0 46 8c 39 31 4b 0b bf ee 82 4d 3e ba 20 55 bf
       0.0002675564 -0.5441161 0.20069477 -0.8325306
000390 d2 a2 66 37 8a 0e 08 ba 53 72 32 b9 b6 b8 17 37
       1.3746978e-05 -0.0005190155 -0.00017017992 9.043308e-06
0003a0 70 04 7c 38 66 ee 88 bf 09 66 38 bf eb 7c b5 35
       6.0085615e-05 -1.0697753 -0.72030693 1.3521907e-06
0003b0 a6 96 cf 37 1d 90 13 b6 21 d0 1d b9 bd 73 8a bf
       2.4746474e-05 -2.1988592e-06 -0.00015050221 -1.081657
0003c0 c9 25 4d 39 d8 96 d7 3e 01 45 d7 37 33 35 30 bd
       0.000195644 0.42107272 2.566213e-05 -0.043019485
0003d0 3b 76 8e 38 a0 29 47 38 0c 0f 0c b9 b7 ca 6a 38
       6.79311e-05 4.7484064e-05 -0.00013357046 5.597874e-05
0003e0 9a 15 94 be 6d aa 16 37 0c 02 00 3f b4 a4 f8 b6
       -0.2892273 8.980377e-06 0.50003123 -7.41015e-06
0003f0 bb fc 3b 37 9b 7b c5 b5 7c 8e 0d b7 b1 6f 1a 39
       1.1204912e-05 -1.4713618e-06 -8.43743e-06 0.00014728193

layers.6.bias f4 [10]
000000 c2 bf 94 ba 21 08 c7 be a9 3d 8b 3c c1 4c c4 3d
       -0.0011348652 -0.3887339 0.016997175 0.09584952
000010 c4 cd d3 bc 3a ec 38 be 4a 66 d7 3b e4 32 14 be
       -0.025854953 -0.18058863 0.006573473 -0.14472538
000020 60 c1 e4 3e 8d 5e 16 3c
       0.44678783 0.009177816
