mnist_nets/fc4.pt (torch, 379599 bytes, 8 tensors)

layers.2.weight f4 [100, 784]
0	0x3719746a	9.146615e-06
1	0x3913d5d7	0.00014098674
2	0x3913e79a	0.00014105291
3	0x390f16ee	0.00013646085
4	0x3718a98a	9.09938e-06
5	0x371a5fb1	9.201395e-06
6	0x371a612f	9.201743e-06
7	0x36b5dd95	5.420016e-06
8	0x36b69f74	5.4425855e-06
9	0x371a43af	9.194874e-06
10	0x3913f6c7	0.00014110944
11	0x365e271d	3.3103345e-06
12	0x38d0df07	9.959755e-05
13	0x365364ac	3.1500049e-06
14	0x37192c7a	9.129866e-06
15	0x371a804e	9.208989e-06
16	0x365224ee	3.1313934e-06
17	0x3644e3e5	2.9338928e-06
18	0x371acc6e	9.226713e-06
19	0x364a8b96	3.0181595e-06
20	0x381c8745	3.7319278e-05
21	0x36b5df95	5.4202487e-06
22	0x3665e455	3.4256566e-06
23	0x371ae944	9.233427e-06
24	0x381a4900	3.6784448e-05
25	0x3913e7f9	0.00014105429
26	0x36b3de57	5.3604995e-06
27	0x36b4805e	5.379362e-06
28	0x38396b32	4.420727e-05
29	0x371bea41	9.293261e-06
30	0x3913e87d	0.00014105621
31	0x364b5b96	3.0302667e-06
32	0x381a5570	3.679603e-05
33	0x36b6ed3a	5.4516395e-06
34	0x3819dc2e	3.66831e-05
35	0x3626e0d2	2.486679e-06
36	0x3912e4ca	0.00014008876
37	0x360bf7c8	2.0856842e-06
38	0x383b3cc7	4.4640878e-05
39	0x35ee215d	1.7742092e-06
40	0x39139e93	0.00014078086
41	0x350355ee	4.8926347e-07
42	0x38374e69	4.3703625e-05
43	0x36edc0e4	7.085606e-06
44	0x38c1055b	9.203955e-05
45	0x370f6048	8.545881e-06
46	0x3637f90a	2.7414085e-06
47	0x37175107	9.019167e-06
48	0x3631e203	2.6506611e-06
49	0x38190344	3.6481084e-05
50	0x3839f6ce	4.4337292e-05
51	0x3717d794	9.050495e-06
52	0x3913e7c9	0.00014105359
53	0x38d0c115	9.954177e-05
54	0x3913d59f	0.00014098593
55	0x371ab26e	9.220659e-06
56	0x3718ec7a	9.114965e-06
57	0x3913d8f2	0.00014099831
58	0x36b5bc74	5.416159e-06
59	0x3913f3d1	0.00014109841
60	0x33544b81	4.9428767e-08
61	0x365febbe	3.336681e-06
62	0x383c6eab	4.492576e-05
63	0x36812405	3.848693e-06
64	0x3818fe8b	3.6476686e-05
65	0x3819994a	3.6620804e-05
66	0x390d9352	0.00013501689
67	0xb878bdc8	-5.9304555e-05
68	0xb8c8e305	-9.579029e-05
69	0x37cf5543	2.4716026e-05
70	0x3804b35d	3.1638298e-05
71	0x390cb0bb	0.00013417278
72	0x37da222c	2.6003538e-05
73	0xb8a1d342	-7.716428e-05
74	0xb8c7f8a8	-9.535375e-05
75	0x37246cea	9.80052e-06
76	0xb69bb957	-4.6409364e-06
77	0x38c86c42	9.556908e-05
78	0x38ddd274	0.00010577301
79	0x3803cbad	3.142252e-05
80	0x361e7777	2.3613372e-06
81	0x3719d3df	9.168841e-06
82	0x371a570e	9.199384e-06
83	0x371a81db	9.20935e-06
84	0x381a0666	3.672242e-05
85	0x364273e5	2.8975712e-06
86	0x3913dfa7	0.0001410233
87	0xb471d36e	-2.2521792e-07
88	0x37fb7bb5	2.9979137e-05
89	0xb8b83ba1	-8.7849105e-05
90	0xb88f88bd	-6.844241e-05
91	0x38cb1751	9.684137e-05
92	0x390fd933	0.00013718456
93	0xb95b13e9	-0.00020892885
94	0xb76bca95	-1.4054259e-05
95	0xb826b89d	-3.974942e-05
96	0x39012940	0.00012317766
97	0xb8a3717f	-7.793586e-05
98	0x3894efc9	7.1018534e-05
99	0xb890d281	-6.9056645e-05
100	0x38a74998	7.9768884e-05
101	0x38a88df0	8.037302e-05
102	0x38ac29fe	8.209421e-05
103	0xb89f7848	-7.604115e-05
104	0xb80f22e1	-3.412634e-05
105	0x3a1ae7a1	0.0005909149
106	0x3a2bc17a	0.00065519626
107	0xb91f2539	-0.00015177288
108	0x39132c4e	0.00014035517
109	0x3913eead	0.00014107926
110	0x3913e1ea	0.00014103172
111	0x3913e399	0.00014103799
112	0x371aa944	9.2185255e-06
113	0x365b0c01	3.264053e-06
114	0x3717f65e	9.057663e-06
115	0x36008c87	1.9155284e-06
116	0x3914ebd9	0.0001420224
117	0x384e8b63	4.924404e-05
118	0xb8889b15	-6.5138716e-05
119	0x3909a2c2	0.0001312597
120	0x3805a767	3.1865577e-05
121	0x36f245f4	7.2203056e-06
122	0xb91d6ed0	-0.00015013968
123	0x398ce9db	0.00026877117
124	0xba0e06b8	-0.0005417871
125	0x396e79db	0.00022742843
126	0xba3944a3	-0.00070674176
127	0xba7ecd83	-0.00097199547
128	0xb9ff8159	-0.00048733762
129	0x39a23443	0.00030937986
130	0x39e1a646	0.00043039228
131	0x3a195a92	0.0005849983
132	0x39f2c6be	0.0004630591
133	0x39db5496	0.00041833956
134	0x39ef366f	0.00045626189
135	0xb8f0f0c9	-0.000114889415
136	0xb87aa104	-5.9754602e-05
137	0xb727fb6c	-1.0012514e-05
138	0x38cd6572	9.7940574e-05
139	0x381a25a0	3.6751502e-05
140	0x36b40657	5.365156e-06
141	0x3913e91a	0.0001410585
142	0x37189eda	9.0968915e-06
143	0x3910ed1f	0.00013821245
144	0x391bfa4f	0.00014875199
145	0x38d8c7dd	0.0001033691
146	0x38d9f1aa	0.0001039238
147	0xb8d38182	-0.00010085387
148	0xb922072a	-0.00015452193
149	0x381c4219	3.7254857e-05
150	0x3889e8a1	6.5759996e-05
151	0x399c3c17	0.0002979941
152	0xba69e360	-0.0008922126
153	0xba9cbb37	-0.001195765
154	0xba930e1a	-0.0011219413
155	0x38b16c9d	8.4602485e-05
156	0xb95daa5f	-0.0002113967
157	0x39283899	0.00016042813
158	0x3a454abc	0.000752609
159	0x3a41b8ce	0.0007389904
160	0x3a1e9511	0.00060494343
161	0x39acb452	0.00032940746
162	0x399f2be8	0.00030359556
163	0x37f1bf7e	2.881861e-05
164	0xb88322ef	-6.253074e-05
165	0x3873c613	5.8120186e-05
166	0x39152336	0.00014222864
167	0x390f0f65	0.00013643278
168	0x371baa81	9.2784185e-06
169	0x381a4140	3.677723e-05
170	0xb56ec1af	-8.8943756e-07
171	0x353bc12c	6.994403e-07
172	0x390fac8b	0.0001370182
173	0x38b9c66e	8.858448e-05
174	0x38119a01	3.471412e-05
175	0x385abbed	5.215027e-05
176	0xb93021c7	-0.00016797251
177	0xb94808bb	-0.00019076739
178	0x37b8055f	2.193701e-05
179	0xb9a9938d	-0.00032344126
180	0xba57ae68	-0.00082275877
181	0xba6152ff	-0.0008595436
182	0xb894ca8e	-7.094919e-05
183	0x39b39f92	0.0003426043
184	0x39f6c28e	0.0004706573
185	0xb973ee5c	-0.00023263082
186	0x38f48525	0.00011659627
187	0x3a8da07f	0.0010805278
188	0x3a3ec425	0.00072771526
189	0x3a142ded	0.00056525954
190	0xb8688b72	-5.544298e-05
191	0xb82b4f0f	-4.0843206e-05
192	0x36bede00	5.6882855e-06
193	0xb7e9da14	-2.7877315e-05
194	0x36fa06a7	7.451355e-06
195	0xb8a14bff	-7.6912336e-05
196	0x36b70714	5.454649e-06
197	0x365338f4	3.1474601e-06
198	0x369dfab6	4.708151e-06
199	0x36fada24	7.4759755e-06
200	0x391682a9	0.0001435379
201	0xb850cb96	-4.978067e-05
202	0x37b310eb	2.134634e-05
203	0xb775a46d	-1.4641421e-05
204	0xb92fbf5e	-0.0001676059
205	0xb88d81c9	-6.747578e-05
206	0x391548e9	0.00014236908
207	0x399c356d	0.00029794444
208	0xb9d4ae04	-0.00040565443
209	0xb8f31024	-0.000115901494
210	0x399c867c	0.00029854837
211	0x39c9c25a	0.0003848251
212	0x3b6feaee	0.0036608535
213	0xb8d9c952	-0.00010384865
214	0xb9fed17f	-0.00048602742
215	0x38fb4d73	0.00011983039
216	0x3a97405b	0.0011539565
217	0x39fe4857	0.00048500553
218	0x38ac8cad	8.227802e-05
219	0x34aee697	3.2577802e-07
220	0xb89e5fa3	-7.551841e-05
221	0xb846acf3	-4.736795e-05
222	0xb7cf5678	-2.4716588e-05
223	0xb8aa614c	-8.124355e-05
224	0x39128dec	0.00013976515
225	0x383b22de	4.4616747e-05
226	0xb74a23fb	-1.2048516e-05
227	0x36eed761	7.118026e-06
228	0x3916a00b	0.00014364735
229	0x37b79e24	2.188894e-05
230	0xb9073c79	-0.00012897131
231	0x39089ae5	0.00013027673
232	0xb960ddaa	-0.00021444881
233	0x3a88b60b	0.001043023
234	0x3aaeb07f	0.0013327746
235	0x3a286d6c	0.00064249965
236	0xb89a4aaf	-7.357203e-05
237	0xb884c148	-6.330252e-05
238	0x3c4a0add	0.012331692
239	0x39ad8bd5	0.00033101314
240	0x3e00faa0	0.12595606
241	0x3dbfe1ae	0.09369217
242	0x3d79ab8f	0.060954627
243	0x38eb25cd	0.00011212714
244	0x3a4be1bb	0.0007777472
245	0x3a16e1fc	0.000575572
246	0x391f1ffa	0.00015175334
247	0x393a83ea	0.00017787484
248	0xb94b6694	-0.00019397802
249	0xb954c11a	-0.00020289831
250	0x38d5a0b2	0.00010186563
251	0x391396a3	0.00014075129
252	0x3913613d	0.00014055237
253	0x3649ecd9	3.0089197e-06
254	0xb5811de7	-9.619952e-07
255	0x38d23ace	0.000100245335

layers.2.bias f4 [100]
0	0x3f414629	0.7549768
1	0xc04b9dd0	-3.181507
2	0xbdfa7c95	-0.122307934
3	0xbddb7563	-0.10715749
4	0xc011dd54	-2.2791338
5	0x3fc62be4	1.5482144
6	0xbfa26eaa	-1.2690022
7	0xc00a315d	-2.159263
8	0xbf78fff9	-0.97265583
9	0xbe7847ba	-0.24246112
10	0x3d559b67	0.052150156
11	0xbfe2b55e	-1.7711599
12	0x3ff318b7	1.8991917
13	0xbf06c987	-0.52651256
14	0xbf3028a8	-0.68812037
15	0xbfab8f88	-1.3403177
16	0xbf9b9f09	-1.2157909
17	0xc028b2f9	-2.6359236
18	0xc03bed1d	-2.9363472
19	0x3fd5591b	1.6667818
20	0xc03c7d8c	-2.9451628
21	0xbf4eec60	-0.8082943
22	0xbf89471b	-1.0724825
23	0xbd87bd99	-0.0662796
24	0xbf5a8aba	-0.8536793
25	0x3fa1c4a8	1.263814
26	0xbfdec0ab	-1.7402548
27	0xbfba0e83	-1.4535679
28	0xbf4a7bae	-0.7909497
29	0xbfecb696	-1.8493221
30	0xbeabcc13	-0.33554134
31	0xbfe6a30a	-1.8018506
32	0xbf93d636	-1.1549747
33	0xbfaef656	-1.3668926
34	0xbf150c76	-0.5822214
35	0x3fb191da	1.3872635
36	0xc01f80e3	-2.4922416
37	0xbff17463	-1.8863643
38	0xc00d065a	-2.2035127
39	0xbf180cee	-0.5939473
40	0xbef5072f	-0.47857043
41	0xc04b7ba6	-3.179422
42	0x3ea0fd47	0.31443235
43	0xbf79f1d9	-0.97634655
44	0xc00299c6	-2.0406356
45	0x3ec94a69	0.39314583
46	0xc005f62d	-2.0931504
47	0xbfd32cc1	-1.6498033
48	0x3f611be9	0.8793321
49	0xbfefb491	-1.872698
50	0xc04bb438	-3.1828747
51	0xbfcd4e83	-1.6039585
52	0xbe52fb48	-0.20603669
53	0xbf9c8a83	-1.222977
54	0x3e1aee1c	0.15129894
55	0xc05f2439	-3.4865859
56	0xc019ebce	-2.4050174
57	0x3f71bc36	0.9442781
58	0xc0078f6a	-2.1181283
59	0xbf817cea	-1.0116246
60	0xbe770be8	-0.24125636
61	0xbf662a83	-0.8990862
62	0x3f634b3a	0.8878666
63	0xbfcd1d94	-1.6024652
64	0xbebb821e	-0.3662271
65	0xbfaf4ca3	-1.3695263
66	0x3d0ec763	0.03485812
67	0xc04a12fc	-3.1574087
68	0xbd8b8abc	-0.06813571
69	0xbf2fa751	-0.6861468
70	0xbf880735	-1.06272
71	0xbf9c2ba1	-1.2200814
72	0x3fb58ff8	1.4184561
73	0xbfb7dade	-1.4363668
74	0xbff1f0bb	-1.890159
75	0xbf96778a	-1.175523
76	0xbe41a4a1	-0.18910457
77	0xc045ac1f	-3.0886304
78	0xbffc7495	-1.9723078
79	0x3ede8ba8	0.43465924
80	0xbe0a2bec	-0.13493317
81	0xbf78df99	-0.9721618
82	0xbe383052	-0.17987183
83	0x3fb1db7e	1.3895109
84	0xc02663ed	-2.599849
85	0x3fbde7a1	1.4836313
86	0xbffe17d4	-1.9851022
87	0xbfa48867	-1.2854127
88	0x3e94c58e	0.29056972
89	0xbff21193	-1.8911613
90	0xbfb30d20	-1.398838
91	0xbfa5d67e	-1.2956083
92	0x3fbd571c	1.4792209
93	0x3f8bd6fb	1.0924982
94	0xbf54a4b6	-0.8306383
95	0xbff97ab0	-1.9490566
96	0xc026ecbc	-2.6081991
97	0xbfdf29db	-1.7434648
98	0xc0170dcd	-2.3602173
99	0xbfee11ff	-1.8599242

layers.4.weight f4 [100, 100]
0	0xb722617f	-9.6786525e-06
1	0xba23ccb8	-0.0006248462
2	0x3890495a	6.880118e-05
3	0xbf5444a5	-0.82917243
4	0x3e9a8613	0.30180416
5	0x39e8ad58	0.0004437964
6	0x3c3abb5e	0.011397211
7	0xbfaeb80d	-1.3649918
8	0x3b13e0b5	0.0022564356
9	0xbee952c0	-0.45570946
10	0x37c47079	2.3417395e-05
11	0xbb69ca59	-0.0035673587
12	0x3a0b8a7e	0.0005323066
13	0xb8397591	-4.421693e-05
14	0xbe96ccc4	-0.294531
15	0x38a8b8be	8.045275e-05
16	0x3c252ab2	0.01008098
17	0xbc6a9ab3	-0.01431911
18	0x38183e32	3.6297548e-05
19	0x38e7fba0	0.00011061807
20	0xb8369e85	-4.3539814e-05
21	0x3cf45de0	0.02982992
22	0x3b052f40	0.0020322353
23	0xb9673681	-0.00022050181
24	0xbac66756	-0.0015136998
25	0xb7d1fac6	-2.5031517e-05
26	0xbd32ed69	-0.043683443
27	0x3ba2281e	0.00494863
28	0x39ad7263	0.00033082356
29	0xb900a36f	-0.00012267915
30	0xbaad188a	-0.0013206166
31	0x3a8fb7e2	0.0010964836
32	0x3a3f87ff	0.0007306337
33	0xbf9f2506	-1.2433174
34	0x3a4036f7	0.0007332409
35	0xb8abcc0b	-8.1919214e-05
36	0xb8a8168d	-8.015065e-05
37	0x3a9a3bcf	0.0011767092
38	0x3aaf4ee6	0.0013374954
39	0x3c8dec9d	0.01732474
40	0x3bc4f7db	0.006010992
41	0x3834b617	4.308493e-05
42	0x39849cd4	0.00025293848
43	0x39c048c5	0.0003667531
44	0x3a1e8e52	0.0006048429
45	0x38495216	4.7998583e-05
46	0x3a40afc1	0.0007350408
47	0xbac51b0d	-0.0015037969
48	0xb8946198	-7.075368e-05
49	0x38f02189	0.00011450338
50	0x3774f199	1.4599785e-05
51	0xbfc0329e	-1.5015447
52	0xbfcba2b1	-1.5909024
53	0x3a79c99c	0.00095286383
54	0x39ddca56	0.00042303157
55	0x3eb614e4	0.35562813
56	0x39ed97a5	0.00045317147
57	0x39b4775f	0.00034421214
58	0xba99c7a4	-0.0011732471
59	0xb7025f8b	-7.770849e-06
60	0x3968a06b	0.00022185004
61	0xb8174f9c	-3.6075347e-05
62	0x3996f553	0.0002879301
63	0xbfc490ab	-1.5356649
64	0xbfeb57da	-1.8386185
65	0x3b621e46	0.0034502908
66	0x3824d7af	3.9301518e-05
67	0xb966a955	-0.0002199759
68	0x39dc7072	0.00042045448
69	0x3cdfa751	0.027301462
70	0xbc153b81	-0.009108425
71	0x3b7c2cec	0.0038478924
72	0x395d12b9	0.00021083177
73	0x3a60e1f1	0.000857859
74	0x3a2a2e96	0.0006491927
75	0x39db95d1	0.00041882557
76	0x38b091c3	8.419484e-05
77	0xba846bf7	-0.0010102977
78	0x39a7ce1c	0.00032006286
79	0x38f9b4e2	0.00011906937
80	0xb98ebaec	-0.00027223618
81	0xbc2b08a1	-0.010439069
82	0xbec7dfc8	-0.3903792
83	0xb8d1b556	-9.999673e-05
84	0xbe6269c7	-0.22110663
85	0xb90feba6	-0.00013725329
86	0x39782999	0.0002366662
87	0xba68c452	-0.00088793517
88	0x391a9aa2	0.0001474419
89	0xbfd7fb2d	-1.6873528
90	0x38cb339e	9.689409e-05
91	0x3abf40ff	0.0014591514
92	0x390bb3c1	0.00013323037
93	0xb68c9b28	-4.1903877e-06
94	0xb7ca5cfa	-2.4123572e-05
95	0x3cc233ab	0.023706278
96	0xbeb65f6d	-0.3561968
97	0xb7fd59ec	-3.0201823e-05
98	0x3a14ae0a	0.0005671686
99	0x3943f24d	0.00018686913
100	0xbfa163fb	-1.2608637
101	0xbefed4ea	-0.49771816
102	0x393ba3ed	0.00017894777
103	0xbe4b01e5	-0.19824941
104	0x3a8fea6f	0.0010979901
105	0xbfb19284	-1.3872838
106	0xbce6c5da	-0.028170515
107	0xbdfadb13	-0.12248816
108	0x3e25d7ab	0.16195552
109	0xbe86c480	-0.26321793
110	0xbf06e9f8	-0.5270076
111	0xb86f6135	-5.707257e-05
112	0x3a3ea52d	0.0007272538
113	0x39dca155	0.00042081872
114	0xb88ed204	-6.810206e-05
115	0x37da9fcb	2.6062035e-05
116	0xb965a1f4	-0.00021899474
117	0xba0aff0d	-0.0005302288
118	0xbd7b927e	-0.061419003
119	0xbdf43658	-0.11924428
120	0x3a9d808a	0.0012016457
121	0x3af43ad3	0.0018633254
122	0xba1b0a83	-0.0005914347
123	0xc003262f	-2.0492055
124	0xbd50f532	-0.051015086
125	0xb91ed86a	-0.00015148675
126	0xbe42175a	-0.1895422
127	0xbb996604	-0.0046813507
128	0x39a141e4	0.00030757405
129	0xb90ebcd7	-0.00013612524
130	0x3d106fcd	0.03526287
131	0xbb9e3add	-0.0048287944
132	0x3ab17f0c	0.0013541891
133	0x383ae25e	4.4556677e-05
134	0xbf6960ed	-0.9116352
135	0xbf05d123	-0.5227224
136	0xb8f03ec1	-0.000114557806
137	0xb9a69a40	-0.00031776913
138	0x3a93cf95	0.0011277074
139	0x3ac22350	0.0014811549
140	0xbd07c6c1	-0.03314853
141	0x3a524413	0.0008021008
142	0x3b0843d9	0.0020792393
143	0x3e338d81	0.17534448
144	0x398cfe8a	0.00026892527
145	0xb9e2d3c0	-0.00043263845
146	0xb8ffc2b2	-0.00012195612
147	0xb991bc65	-0.0002779692
148	0xbf0cf4e9	-0.55061203
149	0xbe14d564	-0.14534527
150	0x3a44b1e8	0.0007503317
151	0xbec155c7	-0.37760755
152	0x3d9eeef0	0.077604175
153	0xbf00abec	-0.5026233
154	0x3a184d47	0.0005809855
155	0x3b123150	0.0022307225
156	0xbdf397a9	-0.11894161
157	0x39549d25	0.00020276436
158	0xbf440809	-0.7657476
159	0x3ad26863	0.0016052838
160	0x3b4052c4	0.0029346207
161	0xbe989430	-0.29800558
162	0x384dba04	4.904905e-05
163	0xbea71787	-0.32635137
164	0x3b232be1	0.002489798
165	0xbc90c957	-0.017674131
166	0xba17cae6	-0.0005790427
167	0xba05ba30	-0.00051012915
168	0xbfdca9d3	-1.7239326
169	0x3a2225fe	0.0006185471
170	0xbbc2a4ab	-0.00594004
171	0xbdb644d1	-0.088998444
172	0xbf293dc6	-0.66109884
173	0xbb2bc3c9	-0.0026209226
174	0xbb520807	-0.0032048242
175	0x3c42c21f	0.011887102
176	0x3a10120a	0.0005495852
177	0xbb585ec1	-0.0033015462
178	0xbedca17f	-0.43091962
179	0xb9b9d172	-0.00035442
180	0xbf930a4b	-1.1487516
181	0xbccde077	-0.025131447
182	0x3c9f6d4c	0.019461296
183	0xbf0db0c3	-0.5534784
184	0xbe997874	-0.2997471
185	0xba7977e2	-0.000951646
186	0xbf1889f6	-0.5958551
187	0xbeefeca3	-0.46860227
188	0xb85b07d9	-5.2220978e-05
189	0xba23f21d	-0.0006254034
190	0x39d3c280	0.0004038997
191	0xbc62c1f4	-0.013840187
192	0xbfb93637	-1.446967
193	0xc00c0a5c	-2.1881323
194	0xb9a2e618	-0.0003107048
195	0x3d9d1902	0.076707855
196	0xb9afc924	-0.00033528463
197	0x3a77a846	0.0009447377
198	0xbf65e683	-0.8980486
199	0xbf250ca0	-0.6447239
200	0xbd0bcc94	-0.034130648
201	0xbda7fb1b	-0.082021914
202	0xbd590ab0	-0.052988708
203	0xbe042ee2	-0.1290851
204	0xbc225c17	-0.009909651
205	0xbccc01d7	-0.024903221
206	0xbdda264c	-0.10651836
207	0xbd7cd841	-0.061729673
208	0xbcfb6380	-0.030687094
209	0xbe2ea782	-0.17056087
210	0xbd9b7433	-0.075905226
211	0xbbd8d4ac	-0.0066171493
212	0xbcda1987	-0.0266235
213	0xbd9fd4df	-0.07804274
214	0xbc3cdf77	-0.011527888
215	0xbc827518	-0.015924975
216	0x3c58e6c0	0.013238609
217	0x3d01ef81	0.03172255
218	0xbd1315a2	-0.035909303
219	0xbda09147	-0.078402095
220	0xbcc5fd6b	-0.02416869
221	0xbdaf9833	-0.085739516
222	0xbde93546	-0.11387114
223	0xbdd39973	-0.103320025
224	0xbcc8de2d	-0.024520004
225	0xbdb61c79	-0.088921495
226	0xbdab4f30	-0.08364713
227	0xbdc1119a	-0.09427185
228	0xbd1ba1da	-0.03799615
229	0xbbab8823	-0.0052347346
230	0xbd46de32	-0.048551746
231	0xbd9c61b9	-0.076358266
232	0x3b5e0fc4	0.0033883909
233	0xbdb7953c	-0.08964011
234	0xbd30f6e1	-0.043204192
235	0xbdf4f722	-0.11961199
236	0xbd447258	-0.04796061
237	0xbd89acc0	-0.067224026
238	0xbcc21093	-0.023689544
239	0xbd8531cd	-0.06503639
240	0xbd0cbdbc	-0.034360632
241	0xbca493ff	-0.020090101
242	0xbd22ce99	-0.039747808
243	0xbcc8bff2	-0.02450559
244	0xbd2f1b6e	-0.04275077
245	0xbd29bd4f	-0.041440304
246	0xbd1b8d59	-0.037976597
247	0xbc8b4988	-0.017002836
248	0xbcdf079c	-0.027225308
249	0xbdbc73b7	-0.09201758
250	0xbd9e794e	-0.07737981
251	0xbd9b5880	-0.075852394
252	0xbe0cb528	-0.1374098
253	0xbdb8a2c8	-0.09015423
254	0xbddc4eae	-0.107571945
255	0x3b6d816c	0.0036240472

layers.4.bias f4 [100]
0	0x3f7ceda2	0.988001
1	0x3e9505e4	0.29106057
2	0xbe219096	-0.15777811
3	0xbe96f5a5	-0.29484287
4	0x3fce19f6	1.6101673
5	0x3eaa2545	0.3323156
6	0xbd8c8879	-0.068619676
7	0x3f59a1ba	0.850124
8	0xbd3f8f67	-0.04676762
9	0xbd737859	-0.059440944
10	0xbd4fe396	-0.050754152
11	0xbe3f1c5b	-0.1866316
12	0xbdced85a	-0.100998595
13	0xbe3cd399	-0.18440093
14	0x3fb4fdd0	1.4139957
15	0xbdd8c3d6	-0.10584228
16	0xbd06ef85	-0.032943267
17	0xbf1c9380	-0.6116257
18	0xbc956c53	-0.01824013
19	0xbe2b68d1	-0.16739203
20	0xbe88900f	-0.26672408
21	0xbf03e41c	-0.5151994
22	0xbf55e5d3	-0.8355381
23	0x3f6858f3	0.90760726
24	0x3f96bbfd	1.177612
25	0x3e7b0081	0.24511911
26	0xbe903280	-0.28163528
27	0xbf80c6b3	-1.0060638
28	0xbd61ffcc	-0.055175588
29	0x3f660ca5	0.89863044
30	0x3edcd0aa	0.43127948
31	0xbec24751	-0.37945035
32	0xbe6c7665	-0.23092039
33	0x3f6ed643	0.9329569
34	0x3eaea7fb	0.34112534
35	0xbe19e6d2	-0.15029457
36	0xbf36792e	-0.71278656
37	0x3fa7e628	1.3117113
38	0x3f38060d	0.7188423
39	0x3fbee953	1.4914955
40	0x3ea9308c	0.3304485
41	0x3f9bac05	1.2161871
42	0xbe643dca	-0.22289196
43	0x3f864569	1.0489932
44	0x3fd803ff	1.687622
45	0x3daa3a77	0.083119325
46	0xbe67d283	-0.22638898
47	0x3fc09295	1.5044733
48	0xbea54b6f	-0.32284114
49	0xbdc345aa	-0.09534772
50	0xbe50c924	-0.20389229
51	0xbdc6ffcb	-0.097167574
52	0x3f6174b0	0.88068676
53	0x3e092d25	0.13396128
54	0xbf860860	-1.0471306
55	0xbf371bfc	-0.71527076
56	0xbe6aafe7	-0.22918664
57	0xbf9d31c4	-1.2280812
58	0x3fa45e58	1.2841291
59	0x3f57c6fa	0.8428799
60	0xbf8eb2f8	-1.1148367
61	0xbfa468c0	-1.2844467
62	0xbed73a83	-0.42036828
63	0xbe65f018	-0.2245487
64	0xbf5b5bc3	-0.8568689
65	0x3d6d9d3e	0.058011286
66	0xbe165d98	-0.1468414
67	0xbd8b9e53	-0.06817307
68	0xbe825ec1	-0.25462916
69	0x3fcbeb3d	1.5931164
70	0x3ee0e0aa	0.43921405
71	0x3ee654bd	0.44986525
72	0xbf3c522f	-0.735629
73	0x3fbdb532	1.4820921
74	0x3fde6e4b	1.7377409
75	0xbec1f265	-0.37880245
76	0x3ea96b6c	0.3308977
77	0xbf1cb5d3	-0.6121494
78	0xbddd1154	-0.10794321
79	0x3f82caa5	1.0218092
80	0xbe3f5360	-0.18684149
81	0xbe8ad340	-0.27114296
82	0x3f659789	0.8968435
83	0xbd809a01	-0.06279374
84	0xbdffd989	-0.124926634
85	0x3fbb41c1	1.4629441
86	0x3f71b190	0.94411564
87	0x3f806968	1.0032167
88	0xbf23a43e	-0.6392249
89	0xbf47d29b	-0.78055733
90	0xbed26cd6	-0.4109866
91	0xbfa22d77	-1.2670125
92	0xbdd6d997	-0.10490721
93	0xbf191781	-0.5980149
94	0x3fc5856a	1.543134
95	0xbd3c767f	-0.046011444
96	0xbe050c11	-0.12992884
97	0xbedf2718	-0.43584514
98	0x3c24d7ab	0.010061185
99	0x3cf14540	0.029451966

layers.6.weight f4 [50, 100]
0	0x380d3a56	3.367135e-05
1	0x38d05163	9.933372e-05
2	0xbcc680ee	-0.0242314
3	0xb8d26d46	-0.00010033934
4	0x38f4a527	0.00011665589
5	0x3aa04558	0.0012227697
6	0x3f2ec146	0.6826366
7	0xb562b828	-8.4459543e-07
8	0x3c819a62	0.015820686
9	0xbf7d233c	-0.9888189
10	0xbfaf49cd	-1.3694397
11	0xbdaaee6b	-0.08346256
12	0x3ea3d333	0.3199707
13	0xb7941dfd	-1.765694e-05
14	0xb95686bd	-0.00020458824
15	0x3d28655e	0.041112296
16	0x3e018a4b	0.12650411
17	0x3fc008fe	1.5002744
18	0x39ff5deb	0.00048707364
19	0xb81f6499	-3.8002243e-05
20	0xb888019f	-6.485287e-05
21	0x3aa4178e	0.0012519227
22	0xba8ebe09	-0.0010890375
23	0x3a235761	0.0006230977
24	0xb8b997fe	-8.849798e-05
25	0x3af73db5	0.0018862995
26	0xc00c609e	-2.193397
27	0x3c9e547f	0.0193274
28	0xb85058c1	-4.9673723e-05
29	0x3f4c5776	0.79820955
30	0x3e8ac4b5	0.271032
31	0x3bdc6396	0.0067257388
32	0xbe0bc62c	-0.13649815
33	0x38c29cab	9.2798226e-05
34	0x3495e740	2.792167e-07
35	0xbb5d30c7	-0.0033750997
36	0x3f0910d8	0.53541327
37	0xbdf3d7c3	-0.11906388
38	0xbf7b72dc	-0.98222136
39	0x3a28dc49	0.00064415165
40	0xbfc4f6bd	-1.5387799
41	0xb960fe4e	-0.0002145704
42	0x3a0cd039	0.0005371604
43	0xb7ec2ece	-2.8155187e-05
44	0x390b3ddf	0.00013279122
45	0x39297477	0.00016160482
46	0xbf4d34f1	-0.8015891
47	0xbfd0c250	-1.63093
48	0x38b0789b	8.4147985e-05
49	0xba05a62c	-0.0005098309
50	0xbc853944	-0.016262658
51	0xbcedeb37	-0.029042823
52	0x391d4cd4	0.00015001307
53	0xb96b95d5	-0.00022467163
54	0x389f6d4f	7.602071e-05
55	0x396a7369	0.00022358973
56	0xbb9f1bcf	-0.00485561
57	0x3f04ed65	0.51924735
58	0x39240cd2	0.00015645035
59	0x3880acc3	6.135695e-05
60	0xb8878bda	-6.463351e-05
61	0x392f0792	0.0001669212
62	0x3a5443f0	0.00080972817
63	0xbd5305cc	-0.0515192
64	0xb8156454	-3.5617806e-05
65	0x3934a99d	0.00017229324
66	0x3ad6cf0c	0.0016388609
67	0xb814d7fc	-3.54871e-05
68	0xba324e17	-0.00068017974
69	0x38f21855	0.000115439914
70	0xb8c79e4d	-9.518545e-05
71	0xb82b7ded	-4.0886855e-05
72	0x3a08637d	0.0005202813
73	0xb898b70b	-7.282019e-05
74	0x38b9d439	8.861017e-05
75	0x3906d4fc	0.00012858579
76	0x3a4e286a	0.00078642985
77	0xb88c5688	-6.691838e-05
78	0x39d0bb87	0.0003981257
79	0x394532b4	0.00018806272
80	0xb6c1fd4a	-5.781335e-06
81	0xbeade5d7	-0.33964416
82	0x390109ab	0.00012306
83	0x3a9975d6	0.0011708091
84	0x3c99726d	0.01873132
85	0xbecc3c71	-0.39889863
86	0x38f25990	0.000115561415
87	0xbac15284	-0.0014749323
88	0xb8886863	-6.504429e-05
89	0x3924bd14	0.00015710696
90	0x3b210823	0.00245715
91	0xb8145b75	-3.5371126e-05
92	0x3a6e7378	0.00090961857
93	0x39ca3cb5	0.00038573673
94	0x36d3bede	6.31051e-06
95	0xbfe9eae9	-1.8274814
96	0x3aace529	0.0013190854
97	0x3a1a2a00	0.0005880892
98	0x39a933cc	0.00032272784
99	0xb7ecf0ad	-2.8245466e-05
100	0x3a4b7b1c	0.000776218
101	0x394d9d4a	0.00019608918
102	0x3dc43878	0.09581083
103	0x3da3ca22	0.07997538
104	0xb73b390b	-1.115935e-05
105	0xb9a32c25	-0.00031122673
106	0x399f1d8d	0.0003034886
107	0xbff7f464	-1.9371457
108	0xbc2becde	-0.010493485
109	0x39f67e49	0.00047014866
110	0x3a35b0c5	0.0006930943
111	0x3c2a7a7e	0.010405181
112	0xbf85265b	-1.040233
113	0x37a2e67b	1.941923e-05
114	0x3ac98eb0	0.0015377607
115	0xbc027de7	-0.007964588
116	0x39d53013	0.00040662344
117	0xb9e38556	-0.00043396157
118	0x38ab2d8a	8.162398e-05
119	0xb8d076cb	-9.94034e-05
120	0xb9871668	-0.000257659
121	0x380582f8	3.1831645e-05
122	0x398e8eaf	0.00027190658
123	0x399f5041	0.00030386637
124	0xb8b5f2f8	-8.676009e-05
125	0x3a7c8e3c	0.00096342317
126	0xbb2c9504	-0.0026333937
127	0xb7d6601a	-2.5555539e-05
128	0xb897d1c3	-7.239312e-05
129	0xb8b76e36	-8.7466484e-05
130	0xba1ceea7	-0.00059864897
131	0xbcb82975	-0.022480706
132	0x3a14ebd4	0.0005680893
133	0x37c88309	2.3902876e-05
134	0x3b01e4ee	0.001982029
135	0xbd82c5b0	-0.06385362
136	0xb99919a8	-0.0002920155
137	0x395565ae	0.00020351142
138	0x3986cb67	0.00025710018
139	0x3a3ff894	0.0007323113
140	0x3a1f28cf	0.00060714496
141	0xbf0ffaf7	-0.56242317
142	0xbeb0f8d7	-0.3456485
143	0x3870f231	5.7446017e-05
144	0xba0cac4a	-0.0005366249
145	0xbec1cbc6	-0.3785078
146	0xba15a27e	-0.0005708112
147	0xb9b3c220	-0.00034286175
148	0xb9b48dd7	-0.00034437954
149	0xba7499b9	-0.0009330768
150	0x3cdc9aa4	0.026929207
151	0x3d15145f	0.03639638
152	0xb7ef020b	-2.8491972e-05
153	0xb96cd287	-0.00022585141
154	0x3f5fc3ff	0.8740844
155	0x37487362	1.1947794e-05
156	0xbcaaaff1	-0.020835849
157	0x38c66a54	9.461181e-05
158	0xbe71ea06	-0.23624429
159	0xb9bd7352	-0.0003613481
160	0xb721a54d	-9.634835e-06
161	0xbb2cb089	-0.002635034
162	0x3a24429a	0.0006266028
163	0xb8aa2fc9	-8.1151324e-05
164	0x39460381	0.00018884057
165	0x384cf10a	4.8861875e-05
166	0x3dd03c28	0.10167724
167	0x3960ff4e	0.00021457413
168	0xb71cd441	-9.347744e-06
169	0xb9e8a1c8	-0.00044371025
170	0xb7e1ddbd	-2.6925345e-05
171	0x394b0ed0	0.00019365107
172	0x39a1de50	0.0003087395
173	0xb62934ac	-2.5213621e-06
174	0x3f6b1866	0.91834104
175	0xba252a9f	-0.00063006015
176	0xbaafd5e9	-0.0013415191
177	0xb8bfd126	-9.146547e-05
178	0x3f2e4685	0.68076354
179	0xb99f9cb7	-0.00030443605
180	0xb90988d0	-0.00013116305
181	0xb9ef8394	-0.00045683666
182	0xbf7fe1c0	-0.9995384
183	0xb7d4977e	-2.5342913e-05
184	0xbc3087f4	-0.010774601
185	0xb9d6ae85	-0.00040947288
186	0x3c0a2c4b	0.008433412
187	0xb9906cdf	-0.00027546936
188	0xb79bc8ff	-1.8571036e-05
189	0xbb1cd6e2	-0.002393179
190	0x38466830	4.730391e-05
191	0xb9275a73	-0.00015960056
192	0x3a2e47a0	0.0006648246
193	0x3a9d1e12	0.0011987111
194	0xb99c6127	-0.00029827023
195	0xba75b18c	-0.0009372465
196	0xbbcbff06	-0.0062254695
197	0xbe71a833	-0.23599319
198	0xb97da459	-0.00024189184
199	0x380e251a	3.388999e-05
200	0xbe1311ae	-0.14362213
201	0xba81b5d2	-0.0009896106
202	0x3bc49f7f	0.0060004587
203	0xba88c29d	-0.0010433976
204	0xbad81ff3	-0.0016489014
205	0xbe3bf89c	-0.18356556
206	0xbce010ad	-0.027351702
207	0xbb8fb346	-0.0043853847
208	0x3ce37ce4	0.027769513
209	0xbb178634	-0.0023120763
210	0xba937283	-0.0011249337
211	0x3d387d4e	0.045041375
212	0xb95773c2	-0.00020547121
213	0xbb9d3e5d	-0.004798694
214	0xbb84165a	-0.004030985
215	0x3dd6cf50	0.104887605
216	0xbdf99c2d	-0.12187991
217	0xba5a77f0	-0.0008333912
218	0xba51f43d	-0.00080091116
219	0xbba464d7	-0.005016904
220	0xbe5efc93	-0.21776037
221	0xbdb07529	-0.086160965
222	0xbb5720dd	-0.0032825985
223	0xbac9177a	-0.001534208
224	0xbbc70ed4	-0.0060747657
225	0xbc4b7658	-0.012418352
226	0xbb3a5df2	-0.0028437343
227	0xb9911325	-0.0002767082
228	0xba419a26	-0.00073853356
229	0xbb2cc9c2	-0.0026365374
230	0xba2ab2b5	-0.0006511615
231	0xb94cbc36	-0.0001952507
232	0xb85d5243	-5.2767118e-05
233	0xbb57cfcd	-0.0032930255
234	0xbd9056ed	-0.0704783
235	0xba872ce4	-0.0010313061
236	0xbb80dbbd	-0.003932445
237	0xbdfa7459	-0.12229223
238	0xba8cab9c	-0.0010732296
239	0xbdf4711f	-0.11935639
240	0xbac6e713	-0.0015175067
241	0xbbeabbd9	-0.0071635065
242	0xbdb194d9	-0.086709686
243	0xbbd49c4a	-0.0064883577
244	0xbb716041	-0.0036831053
245	0xb8b8d18e	-8.812836e-05
246	0xb910f2ea	-0.00013823403
247	0xbac06422	-0.0014678279
248	0xbe546901	-0.20743181
249	0xbaa9a15a	-0.0012941763
250	0x3aec48a1	0.0018027016
251	0xbb51ea23	-0.0032030426
252	0xbb1c205b	-0.0023822996
253	0xba87601e	-0.0010328328
254	0xba3dcc1c	-0.00072401925
255	0xba40ffba	-0.0007362325

layers.6.bias f4 [50]
0	0x3f86cd24	1.0531354
1	0xbf763e09	-0.9618841
2	0xb82afe64	-4.0768078e-05
3	0xbbe0c3d8	-0.006859284
4	0xbf364724	-0.712023
5	0xbe7d61e1	-0.24744369
6	0xbe2f77f8	-0.17135608
7	0x3fc8625a	1.5655015
8	0xbc3c2a43	-0.011484685
9	0xbcfb7fd0	-0.030700594
10	0x3f9c9299	1.2232238
11	0xbba170ff	-0.0049268003
12	0xbad9109f	-0.001656074
13	0xbe8f6dd1	-0.2801347
14	0xbc172901	-0.009226085
15	0xbd15cb6d	-0.036570955
16	0xbdb3a370	-0.087714076
17	0xbe1854e0	-0.14876127
18	0xbd8ee1b0	-0.0697664
19	0xbe827335	-0.2547852
20	0x3f20924c	0.6272323
21	0x3f977b35	1.1834475
22	0x3f8e0168	1.1094179
23	0x3e0b5dce	0.13610002
24	0x3fa429f1	1.28253
25	0xbdf1f831	-0.11814917
26	0x3f57156f	0.8401708
27	0xbe42ae37	-0.1901177
28	0x3ec1e6e1	0.3787146
29	0xbd07dfcd	-0.033172417
30	0xbacd3291	-0.0015655329
31	0xbe3531e9	-0.1769482
32	0x3eda0b8b	0.42586932
33	0x3f8ebcb2	1.1151335
34	0x3f384d9a	0.7199341
35	0xbdaa909d	-0.08328364
36	0x3f633006	0.8874515
37	0x3f9d69c5	1.2297903
38	0xbde2cf1d	-0.1107466
39	0x3ef56465	0.47928157
40	0x3fb41f32	1.407202
41	0x3efd3de0	0.4946127
42	0xbe13f519	-0.14448966
43	0xbe530f46	-0.20611295
44	0x3fc13d0c	1.5096755
45	0x3e55dcc1	0.20884992
46	0xbd771b49	-0.060328756
47	0x3f58fc94	0.84760404
48	0xbe12af0c	-0.14324588
49	0x3d30dd96	0.04318007

layers.8.weight f4 [10, 50]
0	0xb8e52e24	-0.00010928165
1	0xbec49d33	-0.38401183
2	0xb49b82d8	-2.89662e-07
3	0xbe0d2a39	-0.13785638
4	0xc080e5f4	-4.0280704
5	0xbe2b6c06	-0.16740426
6	0xb844934d	-4.6867226e-05
7	0xb9d264d2	-0.00040129438
8	0xbb837ffc	-0.0040130597
9	0x3ac1b596	0.0014778848
10	0x3985f300	0.00025548786
11	0xbd91ce99	-0.071194835
12	0x36e85031	6.9234743e-06
13	0xb8e8fac4	-0.00011109331
14	0xbf573e44	-0.84079385
15	0x3ce489a2	0.02789766
16	0x3cfcbe72	0.03085253
17	0xb8757db6	-5.852963e-05
18	0xbdcdc9e9	-0.10048277
19	0xbd070471	-0.03296322
20	0xb7cb13ae	-2.420865e-05
21	0x3981a0c9	0.00024724592
22	0xb7adc5b4	-2.071527e-05
23	0x3780876e	1.5321853e-05
24	0xc006285c	-2.0962133
25	0xbafc2ce7	-0.0019239456
26	0x38888970	6.510585e-05
27	0xba9edc8f	-0.0012120175
28	0x3897245d	7.207014e-05
29	0x3925d5bc	0.00015815248
30	0x3d09680b	0.03354649
31	0xbcc70b04	-0.024297245
32	0xbfd17b84	-1.6365819
33	0x3951b47d	0.0001999903
34	0xb82f1a2f	-4.1747637e-05
35	0x3f130037	0.574222
36	0xb91d832d	-0.00015021554
37	0x3f123ad5	0.5712102
38	0xbb245434	-0.0025074603
39	0xb6130d6e	-2.1912524e-06
40	0x398c43cb	0.0002675339
41	0xb7cdf335	-2.4551156e-05
42	0xbd983b9a	-0.07433243
43	0xba9a37a2	-0.0011765847
44	0xb8718a01	-5.7587404e-05
45	0xbf60f90f	-0.87880033
46	0xb89f9c84	-7.610864e-05
47	0xb8a1609d	-7.695074e-05
48	0xbf8bda85	-1.0926062
49	0xb87098c8	-5.7362748e-05
50	0xb7d360df	-2.519827e-05
51	0xbf9bfebe	-1.2187116
52	0xbe5a21c2	-0.2130194
53	0xb7be2b4b	-2.2669925e-05
54	0x3aed8657	0.0018121701
55	0x3d1ff68c	0.039053485
56	0xbf6f9e0a	-0.93600523
57	0xb94c6845	-0.000194938
58	0x379e8138	1.889524e-05
59	0x3f4727fe	0.777954
60	0xb6369284	-2.7205397e-06
61	0xbccdcc85	-0.025121937
62	0xb61d4e0d	-2.3440255e-06
63	0xbee59fde	-0.4484853
64	0x38b5fc7a	8.67778e-05
65	0xbd27981b	-0.040916543
66	0xbdb9d1ed	-0.09073243
67	0x37c45e36	2.3408891e-05
68	0x3c90ddab	0.017683825
69	0xb5f39610	-1.8148585e-06
70	0xb55cc470	-8.224224e-07
71	0xb83eb7d1	-4.5470722e-05
72	0xb93b3c2c	-0.00017856125
73	0xb878ac51	-5.928829e-05
74	0xb857d0b1	-5.1454354e-05
75	0xb9e902cc	-0.00044443307
76	0x3f7a5c5b	0.97797173
77	0xb823c871	-3.9048904e-05
78	0xb98b2da0	-0.0002654614
79	0xb8992e59	-7.3042414e-05
80	0xbca1d0bb	-0.01975285
81	0xbb8f8b67	-0.0043806317
82	0xb96c4d6e	-0.00022535559
83	0x372dcb32	1.0358914e-05
84	0xb9c3eff0	-0.00037372066
85	0xb8abd09f	-8.192774e-05
86	0xb8a8dddd	-8.0521895e-05
87	0xbfaf60d6	-1.3701427
88	0xbd9fc05f	-0.07800364
89	0xbfbd3ac8	-1.4783564
90	0x38040aba	3.1481242e-05
91	0xb6f37c98	-7.256469e-06
92	0xbda6f3d1	-0.08151973
93	0xba8a1327	-0.0010534272
94	0xb961c48f	-0.00021530896
95	0xb8e15965	-0.00010745487
96	0xb8913157	-6.923329e-05
97	0xb9554bd6	-0.00020341514
98	0x3a03f561	0.0005033818
99	0xb8aafb0a	-8.152991e-05
100	0xb79b63fe	-1.8524002e-05
101	0xb9d36d9b	-0.0004032672
102	0x32a6f54b	1.943649e-08
103	0xbf5d8f51	-0.8654681
104	0xba740ef2	-0.00093100884
105	0xbd31c5c7	-0.043401506
106	0xb86ed292	-5.693973e-05
107	0xb8a057b6	-7.645732e-05
108	0x37404256	1.1459537e-05
109	0xbe516561	-0.20448829
110	0xb8f0cf04	-0.000114826515
111	0xb841388c	-4.606745e-05
112	0x3706ecbc	8.042141e-06
113	0xb878952a	-5.9266727e-05
114	0xb73143a9	-1.05657755e-05
115	0x3d8a8d78	0.06765264
116	0xbb8a3cf8	-0.004218694
117	0xbf892568	-1.071454
118	0x3d98e0c0	0.07464743
119	0xbf71793f	-0.9432563
120	0x3797a202	1.8076043e-05
121	0xbf871823	-1.0554241
122	0xb88dbd21	-6.758632e-05
123	0xb9a11a58	-0.0003072794
124	0xb8cc260a	-9.734563e-05
125	0x38e74890	0.00011028454
126	0xb88b8d36	-6.654339e-05
127	0xb95f56d8	-0.00021299289
128	0xb8b0bf22	-8.427935e-05
129	0xb7c34f35	-2.3282695e-05
130	0xbd7c8045	-0.061645765
131	0xbddbbd83	-0.10729506
132	0xbfb548cd	-1.4162842
133	0x39618073	0.00021505523
134	0x3e284044	0.16430765
135	0xb8bb31b1	-8.9261106e-05
136	0xb893f196	-7.054505e-05
137	0x3875cf6c	5.860573e-05
138	0xbba58dd9	-0.00505231
139	0xb8680416	-5.5316916e-05
140	0x39f6deee	0.00047086872
141	0xb5058222	-4.973573e-07
142	0x3b6e108e	0.0036325785
143	0xba7412a8	-0.00093106413
144	0x3fa61283	1.2974399
145	0xb9e7279a	-0.0004408926
146	0xb8afda83	-8.385351e-05
147	0xb68d39cb	-4.2088554e-06
148	0x38feef28	0.0001215621
149	0x37d5e2a2	2.5497113e-05
150	0x37ca574c	2.4120927e-05
151	0xb9cdf5fc	-0.0003928392
152	0xbd2c5b8f	-0.042079505
153	0xb892b269	-6.995054e-05
154	0xbfa22543	-1.2667621
155	0xba29b312	-0.0006473522
156	0x371d94cf	9.392576e-06
157	0xba3c0115	-0.0007171792
158	0x382f35d0	4.1773368e-05
159	0xbebdd9cd	-0.3708023
160	0xb837b2d4	-4.3797147e-05
161	0x3db4cc15	0.08827988
162	0xb9096315	-0.00013102249
163	0xb789286a	-1.6350492e-05
164	0x37ac5cd9	2.0547233e-05
165	0x3c5e3e69	0.013564684
166	0xbc17a50c	-0.009255659
167	0x38fcb91e	0.00012050777
168	0xb9448491	-0.00018741401
169	0xba06c802	-0.0005141498
170	0xb9bd4158	-0.00036097574
171	0xbfb3077b	-1.3986658
172	0xb72f3fb9	-1.0445649e-05
173	0xbf4329c5	-0.7623561
174	0x37cfd597	2.4775783e-05
175	0x38882941	6.4926695e-05
176	0xb9b2287c	-0.0003398097
177	0xbf038443	-0.5137369
178	0xb96df227	-0.0002269229
179	0xb8fa2cc1	-0.00011929265
180	0xbdabbd8f	-0.08385765
181	0xbd955ea5	-0.07293443
182	0xba4357b1	-0.00074517267
183	0x35d844d1	1.6113282e-06
184	0xba0bbb6b	-0.00053303567
185	0xba403698	-0.0007332354
186	0xb962f3fa	-0.00021643928
187	0xb9a7d6ed	-0.00032012854
188	0xbcd14d56	-0.025549572
189	0xb790e46e	-1.7272509e-05
190	0xbfc1ac5c	-1.5130725
191	0x392561d7	0.00015772074
192	0xbc5b7d2e	-0.013396544
193	0xbecb9bfc	-0.39767444
194	0xbad942ab	-0.0016575655
195	0xbf430dac	-0.76192737
196	0x391ff59c	0.00015254918
197	0xb967f4e0	-0.000221211
198	0xb9c1433f	-0.0003686193
199	0xb74d8f18	-1.2252269e-05
200	0xb86402b3	-5.436195e-05
201	0x39087d6f	0.00013016698
202	0xb538d106	-6.884951e-07
203	0xb7f4ad48	-2.9167757e-05
204	0xba9e4a81	-0.0012076647
205	0xbe012bef	-0.12614416
206	0xbf8089f5	-1.0042101
207	0xbe9289a2	-0.2862063
208	0xb887257f	-6.444286e-05
209	0xb9d75683	-0.00041072452
210	0x3f3f0d6a	0.74629843
211	0xbd9a28fa	-0.07527347
212	0xb9922284	-0.00027873006
213	0xbdfe6465	-0.124214925
214	0xbd438f4c	-0.04774408
215	0xba1e4284	-0.0006037133
216	0x3cb30332	0.02185211
217	0xb7fdbe73	-3.0248635e-05
218	0xbc3f84f7	-0.011689416
219	0xbff96843	-1.9484943
220	0x36d45a10	6.328577e-06
221	0x391da137	0.00015032744
222	0xb78eb78a	-1.7013186e-05
223	0xb78d64af	-1.6855394e-05
224	0x38cb44ec	9.692632e-05
225	0xbf36223c	-0.7114599
226	0xba0c0abb	-0.0005342175
227	0x396117eb	0.00021466582
228	0xb7b03be0	-2.1008716e-05
229	0xbf872320	-1.0557594
230	0x3cb76c25	0.022390435
231	0xbb70f967	-0.003676975
232	0xba4a10e7	-0.0007708207
233	0xbf6b493f	-0.9190864
234	0xb9e5f397	-0.00043859772
235	0xba9ee8f9	-0.0012123875
236	0xb90af033	-0.00013250187
237	0x38d3ba9f	0.00010096025
238	0xbe05b6bd	-0.1305799
239	0x390a5bdb	0.00013194924
240	0xb9064b28	-0.00012807234
241	0x36fc9345	7.5273297e-06
242	0xbe1028d1	-0.1407807
243	0xb8661072	-5.485159e-05
244	0xb7885aad	-1.6254688e-05
245	0x39a57e0a	0.0003156516
246	0x3821c55c	3.8569196e-05
247	0xb9aa2fff	-0.00032460687
248	0xbf9bfeda	-1.218715
249	0x36472f51	2.9680853e-06
250	0xbf9c8b1b	-1.2229952
251	0xbd75728e	-0.0599237
252	0x3d22859c	0.0396782
253	0xb7186ac3	-9.084763e-06
254	0xba416c51	-0.0007378506
255	0xb7bf6dd8	-2.2820124e-05

layers.8.bias f4 [10]
0	0xbf03c03f	-0.5146522
1	0xbf76fce8	-0.96479654
2	0xbed91f28	-0.42406583
3	0x3f81a3e0	1.0128136
4	0x3f87c14f	1.0605868
5	0x3e12df38	0.14342964
6	0xbce23698	-0.027613923
7	0xbe894a7a	-0.26814634
8	0xbf82d34c	-1.0220733
9	0x3f161c06	0.5863651
