mnist_nets/fc5.pt (torch, 401799 bytes, 8 tensors)

layers.2.weight f4 [100, 784]
0	0xb68fc882	-4.2850743e-06
1	0xb809905d	-3.2797794e-05
2	0xb80aff91	-3.313978e-05
3	0xb8c5327a	-9.403094e-05
4	0xb81498e8	-3.5428355e-05
5	0xb8abae98	-8.186436e-05
6	0xb9510f48	-0.00019937486
7	0xb8133d64	-3.5104706e-05
8	0x37c8398e	2.3868659e-05
9	0xb7cad15e	-2.417777e-05
10	0xb775653e	-1.462671e-05
11	0xb7d664c5	-2.5557712e-05
12	0xb82aaedc	-4.069401e-05
13	0x37a5246f	1.9686498e-05
14	0x36e7fc8d	6.9137373e-06
15	0xb6e049f0	-6.6843277e-06
16	0xb7487b65	-1.1949659e-05
17	0xb881266a	-6.1583545e-05
18	0xb80c0da1	-3.3391294e-05
19	0xb83dd168	-4.5256136e-05
20	0xb838cc8e	-4.4059525e-05
21	0xb88998ef	-6.561155e-05
22	0xb88901be	-6.5329936e-05
23	0x36c6670b	5.9128556e-06
24	0xb86afde6	-5.602641e-05
25	0xb769d44b	-1.39373105e-05
26	0xb883e3a1	-6.288966e-05
27	0xb8a808e7	-8.0125224e-05
28	0xb8225d14	-3.8710496e-05
29	0xb8b13c47	-8.451245e-05
30	0xb8ee2cd4	-0.00011357074
31	0xb8567350	-5.112897e-05
32	0xb76f5b30	-1.4266741e-05
33	0xb8863267	-6.399006e-05
34	0xb8f045ee	-0.00011457117
35	0x3732ac69	1.0649769e-05
36	0xb8d34c8d	-0.00010075523
37	0xb90c5d0f	-0.00013386107
38	0xb8d9f77a	-0.000103934624
39	0xb8c90a41	-9.586337e-05
40	0xb8a05568	-7.645303e-05
41	0xb90e5e91	-0.00013577404
42	0xb73c3428	-1.1217817e-05
43	0xb8b82784	-8.781164e-05
44	0xb8fedf86	-0.00012153298
45	0xb8a04d08	-7.643743e-05
46	0xb84e009a	-4.9114788e-05
47	0xb6ebd15d	-7.027919e-06
48	0xb7c3a432	-2.332227e-05
49	0xb86d2dce	-5.6547862e-05
50	0xb8111ea0	-3.4599216e-05
51	0x37e540fd	2.732919e-05
52	0xb8d7f5ff	-0.00010297819
53	0xb8a5744d	-7.889476e-05
54	0xb9119777	-0.00013884703
55	0xb905990a	-0.0001274088
56	0xb7bd4adb	-2.2565413e-05
57	0x385a042c	5.1979136e-05
58	0xb7384fe2	-1.0985854e-05
59	0xb75809fe	-1.287693e-05
60	0xb8f074be	-0.00011465837
61	0xb861d06e	-5.3838296e-05
62	0xb7d7fbb4	-2.5747206e-05
63	0xb82c9bb8	-4.115302e-05
64	0xb7a74c7d	-1.9943569e-05
65	0xb895a21f	-7.135071e-05
66	0xb8c32b3d	-9.306378e-05
67	0x37055d08	7.949078e-06
68	0xb78949e7	-1.6366086e-05
69	0xb66c22dd	-3.5187034e-06
70	0xb8691384	-5.5569704e-05
71	0xb70a4bfe	-8.243134e-06
72	0xb7f12e46	-2.8750987e-05
73	0xb8cb5b26	-9.696772e-05
74	0xb894b0da	-7.090131e-05
75	0xb8a4a5fa	-7.851045e-05
76	0xb8bd8c27	-9.038328e-05
77	0xb8213167	-3.84314e-05
78	0xb91042fa	-0.00013757861
79	0xb8622b81	-5.3923115e-05
80	0xb9067103	-0.00012821336
81	0xb85884ea	-5.16222e-05
82	0xb88b611b	-6.646124e-05
83	0xb813273d	-3.5084075e-05
84	0x374fab26	1.237801e-05
85	0xb8260dd4	-3.9590363e-05
86	0x368d5ee0	4.2131724e-06
87	0xb802cded	-3.11862e-05
88	0xb753a59f	-1.2615142e-05
89	0xb9068788	-0.00012829725
90	0xb8494118	-4.7982758e-05
91	0x3840906a	4.5910863e-05
92	0xb710bc48	-8.6269065e-06
93	0xb8908fbb	-6.893227e-05
94	0xb85f4362	-5.32301e-05
95	0xb92b1544	-0.00016315753
96	0xb85fa1dd	-5.331809e-05
97	0x3877266b	5.892517e-05
98	0xb83cefa7	-4.5045887e-05
99	0xb8d442ee	-0.000101214144
100	0xb88ebfa6	-6.806785e-05
101	0xb931b995	-0.0001694917
102	0xb875f70a	-5.8642625e-05
103	0xb83601e5	-4.3393946e-05
104	0x381e85d9	3.779479e-05
105	0xb8d08f17	-9.9448655e-05
106	0xb91cc075	-0.00014949015
107	0xb88df9c9	-6.76993e-05
108	0xb8b89f64	-8.8034925e-05
109	0xb84ed1b3	-4.9309525e-05
110	0xb805c53a	-3.1893353e-05
111	0xb86e9031	-5.687791e-05
112	0xb8413e7b	-4.6072975e-05
113	0xb7ac2438	-2.0520863e-05
114	0x382696a2	3.9717772e-05
115	0xb86ecc12	-5.6933677e-05
116	0x36cbd970	6.0751845e-06
117	0xb892b8a9	-6.996218e-05
118	0xb9138b80	-0.0001407098
119	0xb77f0dad	-1.5202369e-05
120	0xb808c15a	-3.2605e-05
121	0x37fa9621	2.9872232e-05
122	0x373f69f1	1.1409154e-05
123	0x37eab41c	2.7978844e-05
124	0xb9750a43	-0.00023368844
125	0xb91ce3e1	-0.00014962211
126	0xb94539f5	-0.00018808975
127	0xb73dc3bd	-1.1310852e-05
128	0xb84788a3	-4.757255e-05
129	0xb91be19d	-0.00014866
130	0xb964cd7b	-0.00021820322
131	0xb91d0017	-0.0001497272
132	0xb8ff4927	-0.00012172973
133	0x371ac4eb	9.224964e-06
134	0xb8693bcb	-5.5607215e-05
135	0xb8401658	-4.5797176e-05
136	0x37143f01	8.836157e-06
137	0xb89bab46	-7.422878e-05
138	0xb7f71e93	-2.9458932e-05
139	0xb90f453f	-0.00013663339
140	0xb816c4fa	-3.5946236e-05
141	0xb8cddc73	-9.8162236e-05
142	0xb86efa06	-5.6976474e-05
143	0xb7318c33	-1.0582665e-05
144	0xb864b1be	-5.452497e-05
145	0x38a4ee5e	7.864529e-05
146	0x389e6f0e	7.554713e-05
147	0x37978fb0	1.8067512e-05
148	0x394e07e1	0.00019648626
149	0x39d8d568	0.0004135773
150	0x3a2414bc	0.0006259193
151	0xba84795f	-0.0010106972
152	0xbc4a6acc	-0.012354564
153	0xbc128b09	-0.008944281
154	0xbcc0f2c6	-0.023553263
155	0xbc17ba23	-0.009260687
156	0xbc15659c	-0.009118464
157	0xbbe1f735	-0.0068959245
158	0xb9b55e01	-0.0003459305
159	0xb983cc8a	-0.0002513866
160	0xb9be9ddb	-0.00036357236
161	0xb97ecc4b	-0.00024299433
162	0xb80f8e5f	-3.422645e-05
163	0xb778b02a	-1.4822968e-05
164	0xb8c49c65	-9.375139e-05
165	0x373c3532	1.1218059e-05
166	0xb7aec62e	-2.0834701e-05
167	0xb88184d6	-6.175942e-05
168	0xb822f2cb	-3.884993e-05
169	0xb82a65ff	-4.062615e-05
170	0xb8c347e5	-9.311716e-05
171	0xb8935670	-7.0256065e-05
172	0xb7d168eb	-2.4963598e-05
173	0x3863c2ce	5.4302443e-05
174	0x394b6c59	0.00019399951
175	0x3989c8f6	0.00026280404
176	0x39848458	0.00025275606
177	0x3a6fe102	0.0009150655
178	0x3a02d247	0.000499044
179	0xb933b822	-0.00017139365
180	0xba9b267c	-0.0011837031
181	0xbcbfd457	-0.023416681
182	0xbbb8d3cb	-0.005640482
183	0xbc9e5121	-0.019325795
184	0xbad485cc	-0.0016214191
185	0xbc6f3293	-0.01459946
186	0xba8221be	-0.0009928269
187	0xb8fa0cbb	-0.000119233
188	0xb835559f	-4.3233504e-05
189	0xb8835b2f	-6.263551e-05
190	0xb8b6f321	-8.7237226e-05
191	0xb91056d8	-0.00013765262
192	0x3779fd7d	1.4900576e-05
193	0xb849c000	-4.810095e-05
194	0xb8386171	-4.3959768e-05
195	0xb82ade72	-4.0738327e-05
196	0xb831249a	-4.2234176e-05
197	0x36f7437e	7.3690308e-06
198	0xb873c806	-5.8122e-05
199	0xb737f4fa	-1.0964688e-05
200	0x392d3b46	0.00016520647
201	0x394f35a2	0.00019761038
202	0x398cedf5	0.00026880173
203	0x398a7710	0.0002641012
204	0x39259ce7	0.00015794077
205	0x3909b212	0.00013131674
206	0x3928fa6f	0.00016115022
207	0x396891aa	0.00022179508
208	0x3a103427	0.00055009354
209	0xbb862c05	-0.004094603
210	0xb92ca698	-0.00016465259
211	0xbb554f47	-0.0032548474
212	0xbc7d6d97	-0.015468023
213	0xbcac3951	-0.021023424
214	0x3a45fcca	0.0007552622
215	0x39ea2010	0.00044655846
216	0x39610cdf	0.00021462467
217	0xb8167b75	-3.5877765e-05
218	0xba00009a	-0.0004882902
219	0xb9418d2c	-0.00018458505
220	0x3607f085	2.0256568e-06
221	0xb818665e	-3.633496e-05
222	0xb80a1d66	-3.2929143e-05
223	0xb73708e6	-1.0909722e-05
224	0xb88f550e	-6.834614e-05
225	0xb71e505e	-9.436246e-06
226	0x37819bd8	1.5450569e-05
227	0x3847dda5	4.765172e-05
228	0x3830b4d5	4.2130083e-05
229	0x37b5a027	2.1651458e-05
230	0x3848d704	4.7883965e-05
231	0xb9a39bb0	-0.0003120578
232	0xb83ddac3	-4.526485e-05
233	0xb93a8290	-0.0001778698
234	0x3a26f68a	0.00063691346
235	0x3ce6a133	0.028153038
236	0x3bc293f1	0.005938046
237	0x3c179e2b	0.009254019
238	0x3d32e10e	0.04367166
239	0x3cbe74e5	0.023249099
240	0xb9cebf5a	-0.0003943395
241	0x3a0cb115	0.00053669635
242	0x3ac8b890	0.0015313793
243	0x3a8936ab	0.0010468563
244	0x39f10e8f	0.0004597795
245	0x39a04d81	0.00030575323
246	0x38eff2db	0.000114416434
247	0xb8b1aa2e	-8.471716e-05
248	0xb8bd2267	-9.01863e-05
249	0xb9253bd2	-0.00015757911
250	0xb88e470d	-6.784322e-05
251	0xb700b17e	-7.67072e-06
252	0xb83f6b2b	-4.5637757e-05
253	0xb86c3af2	-5.632168e-05
254	0xb5b3eb6b	-1.3405055e-06
255	0xb8460e3f	-4.7220146e-05

layers.2.bias f4 [100]
0	0x3f407a93	0.75187033
1	0x3de120ee	0.10992609
2	0xbea747be	-0.32671922
3	0xbe877c9a	-0.2646225
4	0xbc327d36	-0.01089411
5	0x3f18f563	0.5974943
6	0xbe9fd43a	-0.31216604
7	0xbe29790d	-0.16550083
8	0xbe9f3af7	-0.31099674
9	0x3f6c9246	0.92410696
10	0xbe4bf487	-0.19917499
11	0x3f1d294b	0.61391133
12	0xbea885bc	-0.3291453
13	0x3e1c48c9	0.1526214
14	0x3f86ea61	1.0540277
15	0xbdf5858c	-0.11988363
16	0xbd929bd1	-0.07158626
17	0x3df2b733	0.11851349
18	0xbe8b5dfe	-0.27220148
19	0x3edc3a41	0.43013194
20	0x3f92cebc	1.146934
21	0xbe2e3601	-0.17012788
22	0xbe084886	-0.13308915
23	0x3fd56c54	1.6673684
24	0x3e2f7819	0.17135657
25	0x3f426b3a	0.75944865
26	0xbe25ad3a	-0.16179362
27	0xbdf0980d	-0.117477514
28	0xbe794b2b	-0.2434508
29	0xbe1ca247	-0.15296279
30	0xbe5563c4	-0.20838839
31	0x3d851622	0.06498362
32	0xbdc1d1b5	-0.094638266
33	0xbe7860ee	-0.24255726
34	0xbe267e15	-0.16259034
35	0x3e9cbebc	0.3061427
36	0x3e7fe10d	0.24988194
37	0xbcc056dd	-0.02347892
38	0x3f854fd2	1.0414984
39	0x3e6fc685	0.23415573
40	0x3d5b6532	0.053563304
41	0xbedf1bf1	-0.43576005
42	0xbe1e4d08	-0.15459073
43	0x3da85630	0.08219564
44	0x3f4f13c3	0.8088953
45	0xbeacca42	-0.3374806
46	0xbe1fc159	-0.156011
47	0xbe969132	-0.2940765
48	0x3f5c6565	0.86092216
49	0xbedfa0f5	-0.43677488
50	0xbcd21813	-0.025646245
51	0x3c831eb9	0.01600586
52	0xbe71490b	-0.2356302
53	0xbf0001d3	-0.50002784
54	0xbe505a0b	-0.20346849
55	0xbea72770	-0.32647276
56	0xbd130442	-0.035892732
57	0x3f06c58e	0.52645195
58	0xbdd1ab89	-0.10237796
59	0x3e349125	0.17633493
60	0x3dab83f7	0.0837478
61	0xbf05aa76	-0.5221323
62	0xbe830409	-0.25589016
63	0xbe50b205	-0.20380409
64	0xbd70f268	-0.058824927
65	0xbe2fb9ec	-0.17160767
66	0xbdfb2cb9	-0.122643895
67	0x40027db1	2.0389216
68	0xbe9daf01	-0.3079758
69	0xbec87312	-0.39150292
70	0xbec9358a	-0.3929866
71	0xbe99ed07	-0.3006365
72	0x3fa0ec3b	1.2572092
73	0x3f511248	0.8166852
74	0x3f57916b	0.84206265
75	0xbe50914f	-0.20367931
76	0xbe12bede	-0.14330623
77	0xbdd6a83c	-0.10481307
78	0x3d585a12	0.052820273
79	0x3d53bfc0	0.05169654
80	0xbe5dcfc9	-0.21661295
81	0xbddec5f9	-0.10877604
82	0xbd5c644e	-0.053806596
83	0xbe3d6bb1	-0.18498112
84	0x3f9fddf7	1.2489613
85	0xbe1bd6a2	-0.15218595
86	0x3e07c12f	0.13257287
87	0xbd03fe4c	-0.03222494
88	0xbe1d72ef	-0.15375875
89	0xbe31780e	-0.17330953
90	0xbeb61628	-0.3556378
91	0x3f65bfa6	0.8974556
92	0xbea1b4d0	-0.3158326
93	0xbe21a725	-0.15786417
94	0xbe6981d3	-0.2280343
95	0xbec965f7	-0.39335606
96	0x3dd346c4	0.10316232
97	0x3d4862b4	0.048922256
98	0xbe99f471	-0.30069306
99	0xbcf28591	-0.029604705

layers.4.weight f4 [100, 100]
0	0x3cb40801	0.021976473
1	0xbb3b2929	-0.002855847
2	0xbb0d6bc4	-0.0021579126
3	0x3c93c1aa	0.018036682
4	0x39868cfd	0.00025663516
5	0x3ab8c438	0.0014096564
6	0x3d15673b	0.0364754
7	0xbe005771	-0.12533356
8	0x3da3ee44	0.0800443
9	0x39b6e9b5	0.0003488787
10	0x3bb7db5e	0.0056108674
11	0x399139ad	0.00027699527
12	0xbd1d8c45	-0.03846385
13	0x3c9b5421	0.018961014
14	0x3d91b173	0.07113924
15	0x3d24250f	0.040074404
16	0x3dd2e53b	0.102976285
17	0x3991f11f	0.00027836204
18	0x3c0c5f5b	0.008567656
19	0x3ac0f0a2	0.0014720152
20	0x3bcf116d	0.006319216
21	0xbcb6f76e	-0.02233478
22	0xbc9888ed	-0.018619979
23	0x3e4b76e1	0.19869567
24	0x3c2cec19	0.010554337
25	0x3d3d13fa	0.04616163
26	0xb9aec673	-0.00033335722
27	0x3ab920fd	0.0014124211
28	0xbf672137	-0.90285057
29	0xbc070bb0	-0.008242533
30	0xbe833d18	-0.25632548
31	0xbc107fef	-0.008819564
32	0x3cea7dc2	0.02862442
33	0xbc535a03	-0.012899878
34	0xbb0ec43f	-0.0021784452
35	0xbca02e5d	-0.019553358
36	0x3c5382c8	0.012909599
37	0x3bdd7ec5	0.006759497
38	0x3d272d7a	0.040814854
39	0x3c784fca	0.015155742
40	0x3c8ae3b0	0.016954273
41	0xbc30b77b	-0.010785933
42	0x3d9ed169	0.077547856
43	0x39eb10d4	0.0004483523
44	0x3d06a562	0.032872565
45	0xbe5f2f15	-0.21795304
46	0x3b9cc9fc	0.0047848206
47	0xbf6a737f	-0.91582483
48	0x3d1d5c5c	0.03841816
49	0xbc2b4492	-0.01045336
50	0x3959213d	0.00020707115
51	0x3ca04cf4	0.019567944
52	0xbc727fc2	-0.014800968
53	0x3bd48187	0.0064851674
54	0x3d34bf1b	0.044127565
55	0x3bc6bad8	0.006064754
56	0xbd8a8915	-0.067644276
57	0xbb4d18aa	-0.0031295219
58	0x3a2f65bf	0.00066908816
59	0x389f8403	7.6063e-05
60	0xb8be2177	-9.066139e-05
61	0x3927a4f3	0.0001598781
62	0xbb32faac	-0.0027310057
63	0x3d986c77	0.07442563
64	0x3a8c133c	0.0010686885
65	0xbc909e51	-0.017653616
66	0x3c8d4f48	0.017249718
67	0x3ea507ae	0.32232422
68	0x3da3706b	0.079804264
69	0xbb32d81f	-0.0027289463
70	0x3c1e0626	0.009645021
71	0xb8657e8a	-5.4715703e-05
72	0x3df4567c	0.11930558
73	0x3d1ada74	0.03780599
74	0xbd0875e2	-0.033315547
75	0x3c7746e0	0.0150925815
76	0x39f9e7cb	0.0004766568
77	0xbe20f26d	-0.15717478
78	0x3d1cd258	0.038286537
79	0x3d2aa88e	0.041664653
80	0x3c80d152	0.015724812
81	0x3a91e35a	0.0011130378
82	0x3cce31a9	0.025170164
83	0x3cdff5e2	0.027338926
84	0x3ce828a6	0.028339695
85	0x3e03713d	0.12836166
86	0x39c8661f	0.0003822306
87	0xbbf9de10	-0.007625349
88	0x3bc0a50d	0.0058790506
89	0xbbaf6d4e	-0.0053536063
90	0x3cce68ee	0.025196519
91	0x3d4f9a04	0.05068399
92	0xbb2c921e	-0.002633221
93	0xb9d35936	-0.00040311523
94	0x3d9f3146	0.0777307
95	0xbb255d9b	-0.0025232795
96	0x3d06c602	0.03290368
97	0xbd6d6c60	-0.057964683
98	0x3d41dc40	0.047329187
99	0xbdfba815	-0.122879185
100	0x3cf398cf	0.02973595
101	0x3e5e7e8a	0.21727958
102	0x3d4870f0	0.04893583
103	0x3e34742f	0.17622446
104	0x3c8e5a1a	0.017376948
105	0x3d1a2156	0.037629448
106	0x3d214871	0.039375726
107	0x3cee623d	0.029099578
108	0x3e88ff48	0.26757264
109	0xbb56c580	-0.0032771528
110	0xb935b7c1	-0.00017329959
111	0xb99c2322	-0.00029780815
112	0x3d8ae267	0.06781464
113	0x3d1f663b	0.038915854
114	0xb9529a84	-0.00020084722
115	0x3cbfbbf6	0.023405056
116	0x3d0f91ba	0.035051085
117	0x3ce347fa	0.027744282
118	0xbafa9bdf	-0.001911994
119	0xb9c2ec67	-0.00037178697
120	0x3d8cc53d	0.06873558
121	0x3b635875	0.0034690176
122	0x3d74a3da	0.059726574
123	0x3d96c2b8	0.073613584
124	0xbb5d4541	-0.0033763202
125	0x3e1e317d	0.15448566
126	0xbcdcf6f9	-0.026973234
127	0xb9bb9298	-0.0003577664
128	0x3bbfd641	0.0058543985
129	0xbd8b7818	-0.068100154
130	0x3d30fa7a	0.043207623
131	0x3c61a070	0.013771161
132	0x3d19a6dd	0.03751265
133	0xbe2da653	-0.16957979
134	0xbc0bcaa0	-0.008532196
135	0x3c4b0e48	0.012393542
136	0x3afce49f	0.0019294209
137	0x3cdaceb3	0.02670989
138	0x3cef6ff9	0.029228197
139	0xbedd8bda	-0.4327076
140	0xbd41c0d4	-0.047303036
141	0x3b1147ba	0.0022167997
142	0x3d6ac150	0.057313263
143	0x3c9260e4	0.017868467
144	0x3d0f4a3d	0.03498291
145	0x3c879f8f	0.016555576
146	0x3d2bf5e9	0.041982565
147	0x3bbfd335	0.0058540353
148	0x3c246d62	0.0100358445
149	0x38c0c200	9.191409e-05
150	0xb9ee72a5	-0.00045480314
151	0x3cb4f399	0.022088813
152	0xbd1ed1ae	-0.038774185
153	0x3c987f6a	0.018615443
154	0x3c083b23	0.008314881
155	0x3cb6ba70	0.022305697
156	0x3c8cfb27	0.017209603
157	0x3d5d2217	0.05398759
158	0x3934cbe9	0.000172421
159	0xba4236f2	-0.00074087
160	0xbc0b91b7	-0.008518628
161	0x3d0289d9	0.031869743
162	0x3d38ad1f	0.045086976
163	0x3c1ddd76	0.00963532
164	0x3b95a14d	0.0045663477
165	0x3ca5042c	0.02014359
166	0x3cbf9cbd	0.023390168
167	0x3d3fb9b6	0.046807967
168	0xb8633e94	-5.4179298e-05
169	0x3bbe6054	0.005809823
170	0xbf594095	-0.8486417
171	0x3a444096	0.00074864307
172	0x3da89be0	0.08232856
173	0x3d7cbba5	0.06170239
174	0x3d1d81c4	0.038453832
175	0x3d41361d	0.047170747
176	0xbe05373e	-0.13009354
177	0xbc15b2be	-0.009136854
178	0xbf2b9c3d	-0.67035276
179	0x3a60fbbf	0.0008582435
180	0x3a7e1c9f	0.0009693596
181	0xb8a5e177	-7.909809e-05
182	0x3c623f34	0.013809014
183	0xbf07e3f4	-0.53082204
184	0x3d49ec67	0.049297716
185	0x3cf0489e	0.029331502
186	0xbb9c059d	-0.0047614113
187	0xbc8c0eee	-0.017096963
188	0x3d24d669	0.04024354
189	0xb7eaf136	-2.8007296e-05
190	0x3c078252	0.008270817
191	0x3bfd4f52	0.007730403
192	0x3ca8435f	0.020539938
193	0x3cd555c6	0.026041877
194	0xbdfafdce	-0.12255441
195	0x3d1da314	0.0384856
196	0x3cbca33a	0.023027051
197	0x3df7b9bb	0.12095972
198	0xbc88d48d	-0.016702915
199	0xbca872aa	-0.020562489
200	0xba085a6c	-0.0005201462
201	0x3d1182b8	0.035525054
202	0x3c4c5d04	0.0124733485
203	0x3cafffa1	0.021484198
204	0xbec07086	-0.3758585
205	0xbdf80927	-0.12111121
206	0x3ce95fa4	0.028487988
207	0xb97b24c5	-0.00023950923
208	0x3a435320	0.0007451046
209	0xbd783d2f	-0.060605224
210	0xbcb838a8	-0.022487953
211	0x3d816e8d	0.06319914
212	0x3d4f0103	0.050538074
213	0xbe19a1b8	-0.15003097
214	0x3cb2c6f4	0.021823384
215	0xbc1463d3	-0.009057003
216	0x3d5f0498	0.05444774
217	0x3d087f39	0.033324454
218	0xb9c68be4	-0.0003786973
219	0xbd303fde	-0.04302966
220	0x381d878d	3.755796e-05
221	0xbb4daee3	-0.0031384758
222	0x3d7921be	0.060823195
223	0x3acc976c	0.0015609092
224	0xbdc7d7a9	-0.09757931
225	0x3d25fe6f	0.04052585
226	0xbd64729f	-0.055773374
227	0x3c9c783a	0.019100297
228	0x3a371123	0.00069834496
229	0x3bee2912	0.0072680796
230	0x3cee1e0b	0.02906706
231	0xbdbd605e	-0.09246896
232	0x3daf19ec	0.08549866
233	0x3d98e823	0.074661516
234	0xbd90dab5	-0.07072965
235	0x3c7ad415	0.015309353
236	0xbd2e9a9e	-0.042627923
237	0xba82d153	-0.0009980596
238	0x3c7b2566	0.015328741
239	0x3c0d8ef0	0.008640036
240	0xbe659f1a	-0.22423974
241	0x3d3cc01e	0.046081655
242	0x3d8010fa	0.06253238
243	0x3c24b4bb	0.010052855
244	0x395a4613	0.00020816205
245	0x3d3eef14	0.04661472
246	0x3c43775b	0.011930312
247	0xbcb97f85	-0.022643814
248	0x3b8a09c0	0.004212588
249	0x3b71d6bb	0.003690167
250	0x3d338f99	0.043838117
251	0xbe1e2c62	-0.15446618
252	0xbe08189a	-0.13290635
253	0x3b65fdfa	0.0035094009
254	0x3cd46315	0.025926152
255	0x3b843f42	0.004035861

layers.4.bias f4 [100]
0	0x3f926fc3	1.1440357
1	0x3efccd26	0.49375266
2	0xbd28bcbb	-0.041195612
3	0x3ee2e182	0.44312674
4	0x3e79f63a	0.24410334
5	0x3f4c3924	0.7977469
6	0x3f785c1c	0.9701555
7	0x3e9970c7	0.29968855
8	0x3ecc7d44	0.3993932
9	0x3ef066af	0.4695334
10	0x3f8dbad2	1.1072638
11	0x3ecc751e	0.39933103
12	0xbc4dbfd1	-0.01255794
13	0x3f90eb7a	1.1321862
14	0xbea5a012	-0.32348686
15	0x3ee34a9a	0.44392854
16	0x3eaedf11	0.3415456
17	0x3e9dcd79	0.30820826
18	0x3e890070	0.26758146
19	0x3c7ba07f	0.0153580895
20	0x3ee3ed33	0.44516906
21	0x3f8048c2	1.0022204
22	0x3efb7d02	0.4911881
23	0xbc545207	-0.01295901
24	0xbd0b3d2b	-0.03399388
25	0x3f3234b7	0.69611686
26	0x3f441e9f	0.76609224
27	0x3e91283e	0.28351015
28	0x3f0e8f7f	0.5568771
29	0x3f8455ca	1.0338681
30	0x3f079eb5	0.5297654
31	0x3f20b1d4	0.62771344
32	0x3e7fb4b0	0.2497127
33	0x3f8bb40a	1.0914319
34	0x3e7be17d	0.24597736
35	0x3f1c7286	0.6111225
36	0xbefc9797	-0.49334404
37	0x3e63ee2d	0.22258826
38	0xbd5f8140	-0.05456662
39	0xbe1bd41b	-0.1521763
40	0x3eec75f7	0.4618375
41	0x3f901c37	1.125861
42	0xbebbdb98	-0.36690974
43	0x3f55e932	0.8355895
44	0x3dcfbad4	0.101430565
45	0x3eca120e	0.394669
46	0x3e9529a2	0.29133326
47	0xbcd7a306	-0.026322853
48	0x3e8e6a62	0.2781554
49	0xbedafe79	-0.42772272
50	0x3f13f436	0.5779451
51	0xbc851fd5	-0.01625053
52	0x3f01cbbd	0.50701505
53	0x3e0cc5b5	0.13747294
54	0x3eb8d8bf	0.36102864
55	0xbde82a06	-0.1133614
56	0x3cd56a15	0.02605156
57	0x3ea9fad6	0.33199185
58	0x3f28f5e4	0.660002
59	0x3e98bebd	0.29833022
60	0xbde11105	-0.10989574
61	0x3e997834	0.2997452
62	0x3f3c93a7	0.736628
63	0x3eaf165b	0.34196743
64	0x3e67214c	0.22571295
65	0xbd49bd63	-0.04925288
66	0x3eeb7b19	0.45992354
67	0x3ead3631	0.33830407
68	0x3d367ff2	0.044555612
69	0x3ed62128	0.4182217
70	0x3f75ce55	0.9601796
71	0x3cce414d	0.025177622
72	0x3f2fd25c	0.6868036
73	0x3f74819c	0.9551027
74	0x3d96b2d8	0.073583305
75	0xbe81d3ca	-0.25356895
76	0x3e8abc67	0.27096865
77	0x3f089077	0.53345436
78	0xbe5e955d	-0.21736665
79	0x3ed71258	0.42006183
80	0xbe598ba4	-0.21244675
81	0x3f5b64fa	0.85700953
82	0x3ef69986	0.48164004
83	0x3e87cb21	0.26522163
84	0x3f01122c	0.50418353
85	0x3e87f685	0.26555267
86	0x3e3b9111	0.18317057
87	0x3eae6e0e	0.3406834
88	0xbef9508e	-0.4869427
89	0xbc8fb294	-0.017541207
90	0x3d6f9f7c	0.058501706
91	0xbd9afb40	-0.075674534
92	0xbe6b8af0	-0.23002219
93	0x3f292238	0.6606784
94	0x3dd23201	0.10263444
95	0xbe8c8f86	-0.2745325
96	0x3dd18c44	0.10231832
97	0x3ef6ba84	0.48189175
98	0x3e924e62	0.28575426
99	0xbec065b0	-0.3757758

layers.6.weight f4 [100, 100]
0	0x3e7391bd	0.23786063
1	0xbd6b5315	-0.05745228
2	0xba33ead7	-0.0006863302
3	0xb9560167	-0.00020409153
4	0xba463761	-0.00075613527
5	0xbca1b542	-0.01973975
6	0x3d97b9fd	0.07408521
7	0x3ca889ce	0.020573523
8	0xbbb937b0	-0.0056523904
9	0xbdbe89a2	-0.09303595
10	0xbbb005ec	-0.0053717997
11	0x3c6ec5bc	0.014573511
12	0xbda2ccfc	-0.07949254
13	0xbc6ba4a5	-0.014382516
14	0xbe193869	-0.14962925
15	0xbd275c30	-0.0408594
16	0x3c19b780	0.009382129
17	0x3bb2c153	0.005455175
18	0xbd1a8238	-0.037721843
19	0x3d31d1a6	0.043412827
20	0xbafd571a	-0.0019328326
21	0xbd236678	-0.039892644
22	0xbcea59ab	-0.02860721
23	0x36dc26fd	6.5610498e-06
24	0xbce4d281	-0.027932407
25	0x3f06448a	0.5244833
26	0xbd8bc54c	-0.06824741
27	0x3c01048c	0.007874619
28	0xbc0f4994	-0.00874557
29	0xbe456d0b	-0.19279878
30	0xb9f67f49	-0.0004701561
31	0xbc8f2158	-0.017471954
32	0x3d340776	0.043952428
33	0xbd01ad63	-0.031659495
34	0x3e0d29d3	0.13785486
35	0xbdabc592	-0.08387293
36	0xbb7222e0	-0.0036947057
37	0xbe053963	-0.13010173
38	0x3d0ce4fd	0.034398068
39	0x3952d8aa	0.00020107874
40	0xbdc41571	-0.09574402
41	0x3d94d8fb	0.07267948
42	0xbdf84326	-0.121221825
43	0x3b83152f	0.004000328
44	0xbd397007	-0.045272853
45	0xbdeba006	-0.115051314
46	0xbe0f4a2d	-0.1399314
47	0xbcced40e	-0.0252476
48	0xbdb60700	-0.08888054
49	0xbc82fce5	-0.01598973
50	0x3a518e4c	0.0007993921
51	0x37128f5f	8.735659e-06
52	0xbc37b7fd	-0.0112133
53	0xbd0412a0	-0.032244325
54	0x3d601487	0.054707076
55	0xbd5ccde0	-0.053907275
56	0xbe668e58	-0.22515237
57	0xbc77099f	-0.015077977
58	0x3d766fb0	0.060165107
59	0xb9f5c8be	-0.00046879606
60	0xbe5ecba3	-0.21757369
61	0x3cd77495	0.026300708
62	0xbd614d4a	-0.05500535
63	0xb9c79de2	-0.0003807387
64	0x3d2386c3	0.03992344
65	0xbd8c9640	-0.068645954
66	0xba19e030	-0.00058698934
67	0xbd262f5f	-0.04057252
68	0x3d7b55bc	0.06136106
69	0x3d69a0e2	0.057038195
70	0xbcce6c2a	-0.025198061
71	0xbcc33908	-0.023830906
72	0xbc8d52fa	-0.01725148
73	0x3de107d3	0.109878205
74	0x3d0206e8	0.031744868
75	0xbd764ed1	-0.06013376
76	0xbd87ab33	-0.066244505
77	0x3da85a35	0.082203306
78	0xbcad7db0	-0.021178097
79	0x3dddcd49	0.10830171
80	0xbda9dc89	-0.08294017
81	0x3cd8d811	0.026470216
82	0x3bc23dd8	0.0059277825
83	0xbca5c45d	-0.020235235
84	0xba3afa60	-0.00071326457
85	0xbe009c52	-0.12559631
86	0xbcdec7f9	-0.027194964
87	0xbda3b968	-0.07994348
88	0xbcb4d50f	-0.02207425
89	0x3a6ba101	0.000898853
90	0x3e46cbe1	0.19413711
91	0x36c8473b	5.968757e-06
92	0x3d910058	0.07080144
93	0x3d270a27	0.040781166
94	0x3c8ebc00	0.01742363
95	0xb83d4dc5	-4.513354e-05
96	0xbdf7c7d5	-0.12098662
97	0xbb33d19a	-0.0027438165
98	0xbd2bbc8a	-0.04192785
99	0xbe5919b5	-0.21201213
100	0xb7977c66	-1.805853e-05
101	0xb71c2206	-9.306246e-06
102	0x368d71b3	4.215364e-06
103	0xb7c8afa7	-2.3923652e-05
104	0xb6b9b50e	-5.534507e-06
105	0xb4fa005a	-4.6566385e-07
106	0xb78f07cb	-1.7050557e-05
107	0xb6f747fe	-7.3695546e-06
108	0xb72ef65e	-1.042857e-05
109	0xb734b94e	-1.0771981e-05
110	0x364429ff	2.923072e-06
111	0xb5a15e04	-1.2022797e-06
112	0x35b77bd1	1.3670598e-06
113	0xb73075de	-1.0517861e-05
114	0x37a40705	1.9553592e-05
115	0xb76cb071	-1.4107777e-05
116	0xb5cddd64	-1.5338123e-06
117	0x321378b9	8.583975e-09
118	0x3697c5f8	4.5231973e-06
119	0x3546b135	7.401862e-07
120	0x370a65f9	8.249183e-06
121	0x3543d28c	7.2949547e-07
122	0xb563e46d	-8.4896493e-07
123	0x36675fea	3.4477512e-06
124	0x377a71e5	1.4927679e-05
125	0x372cc600	1.0298099e-05
126	0x373c94ff	1.1240364e-05
127	0xb7144936	-8.838533e-06
128	0xb7759954	-1.46388375e-05
129	0x348307c3	2.44063e-07
130	0xb736fe13	-1.0907202e-05
131	0xb6923f67	-4.35852e-06
132	0xb6b0a24f	-5.264104e-06
133	0xb725d6f4	-9.884814e-06
134	0xb704515c	-7.886756e-06
135	0xb49b3593	-2.890998e-07
136	0xb73e9dfc	-1.1361666e-05
137	0x374ea546	1.23170375e-05
138	0x3652693c	3.1353693e-06
139	0x36911230	4.323454e-06
140	0xb79649a5	-1.7915687e-05
141	0x3776ab4c	1.4702626e-05
142	0xb70ce459	-8.397817e-06
143	0xb45551c9	-1.9866924e-07
144	0x374e5ee0	1.2300647e-05
145	0x36af8c06	5.2317073e-06
146	0x3665190f	3.4138245e-06
147	0x3798edb3	1.82305e-05
148	0x36a79968	4.9948467e-06
149	0xb74ef106	-1.23346745e-05
150	0xb71cb64e	-9.340771e-06
151	0x37998052	1.8298775e-05
152	0x36daefad	6.524808e-06
153	0xb65f199c	-3.3244496e-06
154	0xb6e9dac5	-6.9694092e-06
155	0xb6fd7fe0	-7.554874e-06
156	0x36485ac8	2.9855164e-06
157	0xb78bde4e	-1.667361e-05
158	0x36cdf8ea	6.1384535e-06
159	0xb68cf091	-4.2003307e-06
160	0xb6ccf25f	-6.1078895e-06
161	0xb68ae594	-4.139447e-06
162	0x37703516	1.4317475e-05
163	0xb63065a7	-2.6285213e-06
164	0x3791fa6f	1.7401964e-05
165	0xb687dc0c	-4.0489304e-06
166	0x378443dd	1.5767228e-05
167	0xb5b53e4b	-1.350368e-06
168	0xb6b4ac06	-5.384444e-06
169	0xb760d0dd	-1.340007e-05
170	0xb71a164e	-9.1843085e-06
171	0x35ac9c20	1.2860437e-06
172	0xb52b3794	-6.378334e-07
173	0x3746fcfb	1.1860621e-05
174	0xb7067622	-8.014527e-06
175	0x370947bb	8.182537e-06
176	0x360d0589	2.101386e-06
177	0x36810d0e	3.8460194e-06
178	0x34b5f735	3.3893744e-07
179	0xb74dad21	-1.2259262e-05
180	0xb7997064	-1.8291357e-05
181	0x372d59ca	1.0332509e-05
182	0x36047e9e	1.9743234e-06
183	0xb67b3257	-3.7431216e-06
184	0xb58305e4	-9.761975e-07
185	0xb6b24474	-5.3127824e-06
186	0x373f06b3	1.1386047e-05
187	0x36c5714a	5.884246e-06
188	0x3770b3fa	1.4347019e-05
189	0x371ef799	9.475182e-06
190	0xb2d6685d	-2.4960338e-08
191	0xb6aa38a6	-5.0729896e-06
192	0x3641fe35	2.890721e-06
193	0xb64ccccf	-3.0517583e-06
194	0x3408920d	1.271912e-07
195	0xb75e5322	-1.3251587e-05
196	0x36492651	2.9973637e-06
197	0xb5aa1659	-1.2672491e-06
198	0x369333eb	4.3869854e-06
199	0xb68c5420	-4.1821186e-06
200	0xbd314e49	-0.04328755
201	0xbc44969f	-0.0119988015
202	0xbbd0e840	-0.0063753426
203	0x3d98aaa7	0.07454424
204	0xb97f3a74	-0.0002434047
205	0xba5d9ef9	-0.000845417
206	0xba49d959	-0.0007699929
207	0x3a8a46cd	0.0010549665
208	0xbb9026b7	-0.0043991464
209	0x3d88ca12	0.06679167
210	0x3cb9d17c	0.022682898
211	0x37267c22	9.923273e-06
212	0x3cda2792	0.026630197
213	0xbcb1d74a	-0.021709103
214	0x3d9ff78b	0.07810887
215	0xb46f6515	-2.2295383e-07
216	0xbca98b9d	-0.020696456
217	0xb7bc3917	-2.2437931e-05
218	0x3cd4938b	0.02594926
219	0x3c56542a	0.01308159
220	0x3e00c908	0.12576687
221	0xbbe26627	-0.00690915
222	0x3d15cfef	0.036575254
223	0x36f6b60c	7.3525644e-06
224	0xbd1c1bff	-0.038112637
225	0x3e2d380d	0.16915913
226	0x3d89c775	0.067274965
227	0xba251321	-0.0006297101
228	0xbd27ed0c	-0.04099755
229	0x3c6e39a7	0.014540113
230	0xba1e74cd	-0.00060446264
231	0xbc8642b9	-0.016389238
232	0x3d653904	0.055962577
233	0x388c6d32	6.6960594e-05
234	0xbbadec76	-0.0053077294
235	0xbd3bf43b	-0.045887213
236	0xbd6cbf83	-0.057799827
237	0xbd8a8199	-0.06763
238	0xbc4c0793	-0.012452978
239	0xbd5b2732	-0.053504176
240	0xbcb9fdaf	-0.022703974
241	0x3b3cd918	0.0028815921
242	0xba2753c5	-0.0006383027
243	0xbd769e63	-0.060209643
244	0xba8a9406	-0.0010572679
245	0xb9e5291a	-0.00043708907
246	0x3a60b048	0.000857119
247	0xb93f446a	-0.00018240666
248	0xbd9aa40b	-0.0755082
249	0x3d31d7d1	0.04341871
250	0x39151267	0.00014216603
251	0xb3e31a9f	-1.05753536e-07
252	0x3abbb6d0	0.001432145
253	0x3c3c27c8	0.011484094
254	0xb9333de5	-0.00017093828
255	0xbc584f5c	-0.0132025145

layers.6.bias f4 [100]
0	0x3e111977	0.1416987
1	0xbd41ed82	-0.047345646
2	0x3c11f909	0.008909472
3	0x3e2df631	0.16988446
4	0x3e2b1869	0.1670853
5	0x3f13e113	0.5776531
6	0x3f196c8b	0.5993125
7	0xbdebb32d	-0.115087844
8	0x3ea6bcde	0.3256597
9	0x3ec39f48	0.3820746
10	0x3e642980	0.22281456
11	0x3e57616d	0.21033259
12	0x3ea347ef	0.31890818
13	0xbca72fb8	-0.020408496
14	0x3e22c0c3	0.15893845
15	0xbda20524	-0.07911137
16	0x3eb1840c	0.34671056
17	0x3e042b7b	0.12907211
18	0xbd079f36	-0.03311082
19	0x3edb275d	0.4280347
20	0x3e456d0f	0.19279884
21	0x3dba4e36	0.09096949
22	0xbd96e6ea	-0.07368262
23	0x3e672899	0.2257408
24	0x3edbedfb	0.42955002
25	0x3f359464	0.7092955
26	0xbd96a0ef	-0.073549144
27	0x3f2000f3	0.6250145
28	0xbd8a1499	-0.0674221
29	0x3eedf91b	0.46479115
30	0x3f25a8d0	0.6471071
31	0xbdada1fc	-0.08478162
32	0x3ea72b28	0.32650113
33	0x3ea2f5f7	0.3182828
34	0x3dff6dd9	0.12472124
35	0x3f410d88	0.7541127
36	0x3d4528ca	0.048134603
37	0x3eb09410	0.34487963
38	0xbc2514b4	-0.010075737
39	0x3f1521f0	0.5825491
40	0x3ec34643	0.38139543
41	0x3eaee65e	0.3416013
42	0x3e1e3b29	0.15452255
43	0x3e1be6b3	0.15224724
44	0x3ecf2492	0.40457588
45	0x3e22a0f5	0.15881713
46	0x3e985d2a	0.2975858
47	0x3f53b3d1	0.82696253
48	0x3e91117d	0.28333655
49	0x3ef3da0f	0.47627303
50	0x3ec7d636	0.39030617
51	0x3ee99f59	0.45629385
52	0xbcdc7ddb	-0.026915481
53	0x3e8b19fe	0.27168268
54	0x3f1b2d19	0.6061569
55	0x3ea64588	0.32474923
56	0x3e225b8b	0.15855233
57	0x3ede033d	0.43361846
58	0x3f000e62	0.50021946
59	0x3f0906d9	0.53526074
60	0x3e4e1038	0.20123374
61	0x3e3247d2	0.1741021
62	0xbc922eda	-0.017844606
63	0x3e7c5af3	0.2464407
64	0x3e2193dd	0.15779062
65	0x3cc72b53	0.02431265
66	0x3e73c6af	0.2380626
67	0x3e6b3ef4	0.22973233
68	0x3e15cc4a	0.14628711
69	0x3eada0f1	0.3391185
70	0xbc9d7af8	-0.019223675
71	0x3f025177	0.50905555
72	0x3da38357	0.079840355
73	0xbc857c57	-0.016294641
74	0xbd9dd4d9	-0.07706613
75	0x3e5e9be1	0.2173915
76	0x3d68760a	0.056753196
77	0x3ee8d4a0	0.4547472
78	0x3ee56549	0.44803837
79	0x3dc8e646	0.09809546
80	0x3f19083a	0.5977818
81	0x3e8ddcec	0.27707613
82	0x3eb084bf	0.34476277
83	0x3e70d2dd	0.23517938
84	0x3e903e61	0.2817259
85	0xbdd0527c	-0.10171983
86	0xbdf4dafc	-0.119558305
87	0x3ed3a504	0.41336834
88	0xbd0d3806	-0.034477256
89	0x3e8c10d5	0.27356592
90	0x3f1a832b	0.60356396
91	0x3e44ab2c	0.19205922
92	0x3f07d113	0.53053397
93	0x3f2a2eba	0.6647755
94	0x3e4cf517	0.2001537
95	0x3eeca889	0.46222332
96	0x3eb6491a	0.35602647
97	0x3e552301	0.20814134
98	0x3eb57db9	0.3544748
99	0x3ed20397	0.41018364

layers.8.weight f4 [10, 100]
0	0xbe014bee	-0.12626621
1	0xb72f7282	-1.0457474e-05
2	0x3ddfb623	0.10923412
3	0xbd04f648	-0.032461435
4	0x3d85a6aa	0.06525929
5	0x3d340431	0.04394931
6	0xbd231a77	-0.03982016
7	0x3d22d06d	0.03974955
8	0x3db83c69	0.08995897
9	0x3dc928fb	0.098222695
10	0x3cc5c5ba	0.024142135
11	0xbb7475b2	-0.0037301597
12	0xbe1f9a9a	-0.1558632
13	0x39e25956	0.0004317264
14	0xbecba525	-0.39774433
15	0xb6fe80c6	-7.584781e-06
16	0xbef0af19	-0.4700859
17	0x3b25d1d7	0.0025302076
18	0xb78438c0	-1.5762052e-05
19	0xbd1caf9f	-0.038253423
20	0xbf0b0f53	-0.5432026
21	0xbc1627bd	-0.009164748
22	0x3e6a0f81	0.22857477
23	0x3dfc99a2	0.12333991
24	0x39d6896d	0.0004091965
25	0xbb236717	-0.0024933273
26	0xb73e0dc8	-1.1328091e-05
27	0x3d2fe676	0.042944394
28	0xbe270358	-0.1630987
29	0xbdc59f88	-0.09649569
30	0x3db096ca	0.08622511
31	0xb5a4af03	-1.2269887e-06
32	0xbdf2366a	-0.11826785
33	0xbf1558a5	-0.58338386
34	0xbe2ddd0f	-0.16978858
35	0x3e0a0b78	0.13480937
36	0xbdc62942	-0.09675838
37	0x3e90b3e3	0.28262243
38	0x3699999c	4.577638e-06
39	0xbe542311	-0.20716502
40	0xbef59555	-0.47965494
41	0xbe6d5bcd	-0.2317955
42	0xbe68e933	-0.22745208
43	0x3e99d087	0.30041906
44	0x3db9dfa5	0.0907586
45	0xbdaf4d88	-0.0855971
46	0x3e1a9873	0.15097217
47	0xbe4e4816	-0.20144686
48	0xbedffbf1	-0.43746904
49	0x3e52fc09	0.20603956
50	0x3dab2c97	0.08358114
51	0x3e922873	0.28546485
52	0xbd35ce3a	-0.044386126
53	0xbf1480de	-0.58009136
54	0xbeba8302	-0.36428076
55	0x3dc0cff9	0.09414668
56	0xbedcaf3f	-0.43102452
57	0xbbcbd94e	-0.006220973
58	0x3e3a6aa0	0.18204737
59	0x3de55273	0.111973666
60	0xbe32a226	-0.17444667
61	0x3dcc1844	0.09965566
62	0xb6607ce2	-3.3451292e-06
63	0xbec530c9	-0.38513783
64	0x3d8be9a6	0.06831674
65	0x3bdf8dca	0.0068223225
66	0x3ec44958	0.38337207
67	0x3db8c464	0.090218335
68	0xbe91b735	-0.28460088
69	0xbe82241b	-0.2541817
70	0x3732bd65	1.0653724e-05
71	0x3e2674d8	0.1625551
72	0xbcca4968	-0.024693206
73	0xbed655bd	-0.41862288
74	0xb4791284	-2.3196668e-07
75	0x3e0ae0df	0.13562344
76	0xbeb6b6f8	-0.3568647
77	0xbedd5e5c	-0.43236053
78	0xbed76d2c	-0.4207548
79	0xba00cd9c	-0.00049134507
80	0x3dc61550	0.09672034
81	0xbdb5337f	-0.08847713
82	0xbc3c1f3d	-0.011482057
83	0xbd9bb3fc	-0.07602689
84	0x3d18a98d	0.03727107
85	0x371f957e	9.511945e-06
86	0xb6b2c892	-5.328163e-06
87	0x3d2ea0f1	0.042633954
88	0x360708db	2.0121722e-06
89	0xbccafc9c	-0.024778657
90	0x3a54aa3d	0.00081125257
91	0xbcbe5368	-0.02323313
92	0x3eab13f2	0.33413655
93	0x3dfc4437	0.123176984
94	0x3e76fe65	0.24120481
95	0x3d0c0a6a	0.03418962
96	0x3d847b9f	0.06468891
97	0x3dc7afa5	0.097502984
98	0x3e268519	0.1626171
99	0xbeb51ce4	-0.35373604
100	0x3a2394ca	0.0006240128
101	0xb6974979	-4.508704e-06
102	0xbda2c2c1	-0.079473026
103	0xbcf48183	-0.029846912
104	0x3e8bea56	0.27327222
105	0x3ac5cd00	0.0015091002
106	0x3ea8050c	0.3281635
107	0x3c852bde	0.016256269
108	0xb98017fd	-0.00024431935
109	0xbe4f09f3	-0.20218639
110	0xba0c19d8	-0.0005344427
111	0xbd1dbc03	-0.03850938
112	0xbe834e36	-0.25645608
113	0x3d9261be	0.07147549
114	0xba74cbc2	-0.00093382236
115	0x37320e34	1.0612934e-05
116	0x3daf3bb1	0.08556307
117	0xbee6efc3	-0.451048
118	0xb7ec5ca5	-2.8176533e-05
119	0x3e755bb8	0.23960769
120	0xbce92dab	-0.028464159
121	0x3e1c58af	0.15268205
122	0x3e0d4973	0.1379755
123	0x3e675465	0.22590788
124	0xbe82091b	-0.25397572
125	0x3dac59ea	0.08415587
126	0x378072cf	1.5312251e-05
127	0xbe592584	-0.21205717
128	0xbd531ac5	-0.0515392
129	0xbd41ba41	-0.047296766
130	0xbf3014d7	-0.687818
131	0xb6af67f6	-5.227509e-06
132	0x3da445f1	0.08021153
133	0xbe2bce05	-0.16777809
134	0xbb5bbfbf	-0.0033531038
135	0x3f17109a	0.59009707
136	0x3ca4fa65	0.020138929
137	0x3c854119	0.016266393
138	0xb6dff95b	-6.6749467e-06
139	0xbd991694	-0.074750096
140	0x3ba967a6	0.0051698266
141	0xbe5c3786	-0.21505556
142	0x3d05a55a	0.032628395
143	0xbec63756	-0.38714093
144	0x3c6acb89	0.014330753
145	0xbecfe4df	-0.40604302
146	0xbda99679	-0.082806535
147	0x3e24b796	0.16085657
148	0x3cb95576	0.022623759
149	0xbd0ff3fa	-0.035144784
150	0xbf24abe8	-0.6432481
151	0x3cf560e0	0.02995342
152	0xbe97205f	-0.29516885
153	0xbe94ccd4	-0.2906252
154	0x37983e52	1.8148832e-05
155	0x3e077926	0.13229808
156	0xbb5a293a	-0.0033288733
157	0xbf367c0a	-0.7128302
158	0x3e18adf1	0.14910103
159	0xbd497c30	-0.0491907
160	0xbcdfb6cc	-0.027308844
161	0x3e05de5a	0.13073102
162	0x3727bfce	9.998634e-06
163	0xbe1eb5c0	-0.1549902
164	0x3c71cbb4	0.014758039
165	0x3d14219e	0.036164872
166	0xbee4c89b	-0.446843
167	0x3c1f1ff8	0.009712212
168	0xbdbbd0cd	-0.09170685
169	0xbe8fe75c	-0.281062
170	0x365a8866	3.2563926e-06
171	0x3ec62a8e	0.38704342
172	0xbeab5141	-0.3346043
173	0xbd879331	-0.066198714
174	0xb717061e	-9.001726e-06
175	0xbef5834e	-0.4795174
176	0x3e276b9f	0.16349648
177	0x3e1235fa	0.14278403
178	0xbe8083bb	-0.25100502
179	0xbd08ff91	-0.033446852
180	0x3d244a64	0.040110007
181	0xbe042556	-0.12904868
182	0xb9be6d4d	-0.0003632106
183	0x3dad3884	0.08458045
184	0x3c85447d	0.01626801
185	0x378555d3	1.58948e-05
186	0x36c4af25	5.8616447e-06
187	0xbf202cdd	-0.62568456
188	0x33af899a	8.174102e-08
189	0xbefec9d1	-0.4976335
190	0xbbac5867	-0.005259562
191	0x3e82954e	0.25504535
192	0xbe437b90	-0.19090104
193	0xbd148437	-0.036258902
194	0x3d9e7938	0.077379644
195	0x3ef9494b	0.4868873
196	0x3e2feae6	0.1717945
197	0xbe28cd0c	-0.16484469
198	0xbd16b63b	-0.036794882
199	0xbd6be737	-0.05759355
200	0x3e9473a1	0.28994468
201	0x367fe339	3.8130222e-06
202	0x3d81a6f1	0.0633067
203	0x3df76b92	0.12081064
204	0x3e1b1989	0.1514646
205	0xbe1865b9	-0.14882554
206	0x3dd9317b	0.10605141
207	0x3daab1de	0.08334707
208	0x3ddbb5d3	0.107280396
209	0xbe50c30c	-0.20386904
210	0x3dc663b1	0.096869834
211	0xbc94c65e	-0.018160995
212	0xbe9ebabc	-0.31001842
213	0xbd99db22	-0.075124994
214	0x3d0c3cb8	0.034237593
215	0xb65b1279	-3.2644296e-06
216	0x3e2b1497	0.16707073
217	0xbe612ca8	-0.21989691
218	0xb55426fb	-7.903288e-07
219	0xbe60308f	-0.21893524
220	0xbdc1c97e	-0.0946226
221	0xbc181e9a	-0.00928464
222	0xbea40ffe	-0.3204345
223	0xbbe311a6	-0.006929594
224	0x3e9e8670	0.30961943
225	0x3eb93afa	0.36177808
226	0xb60cf978	-2.1006836e-06
227	0x3da8b1ae	0.08237015
228	0x3dbeef87	0.0932303
229	0xbe9318b8	-0.28729796
230	0xbd89e66a	-0.06733401
231	0xb50cd894	-5.2469227e-07
232	0xbdbbca56	-0.09169452
233	0x3d40eb81	0.047099594
234	0x3d8939d1	0.06700481
235	0xbd288c55	-0.041149456
236	0x3dc30d02	0.095239654
237	0x3dadbd10	0.084833264
238	0x36debc48	6.6380344e-06
239	0x3dcbb3e9	0.099464245
240	0xbe84c6a1	-0.25932792
241	0x3ed99ff4	0.42504847
242	0x3e18503f	0.14874361
243	0x3be2bf96	0.0069198115
244	0x3e3c6289	0.18396963
245	0xbd07f8da	-0.033196308
246	0x3d3b05e9	0.045659933
247	0xbe325a47	-0.1741725
248	0x3bee32de	0.0072692474
249	0xbda8f695	-0.08250157
250	0xbdc4dab5	-0.096120276
251	0xbe35310d	-0.17694493
252	0x3e127618	0.14302862
253	0xbdb99c86	-0.090630576
254	0xbea74224	-0.3266765
255	0x3e20162a	0.15633455

layers.8.bias f4 [10]
0	0xbd82dafe	-0.06389426
1	0xbc84196b	-0.016125401
2	0xbe26ffaa	-0.16308466
3	0xbdc5c912	-0.09657492
4	0x3d5e281d	0.054237474
5	0x3e244d4d	0.16045113
6	0x3d4dcc49	0.05024365
7	0x3bdd2dc1	0.006749839
8	0xbd701fb4	-0.058623984
9	0xbddec1fe	-0.10876845
