mnist_nets/fc6.pt (torch, 442837 bytes, 10 tensors)

layers.2.weight f4 [100, 784]
0	0xb8a19a6e	-7.705843e-05
1	0xb8abd61b	-8.193796e-05
2	0xb8a12abe	-7.6850396e-05
3	0xb8abd95a	-8.1944e-05
4	0xb8a1de79	-7.718517e-05
5	0xb89d21d2	-7.492643e-05
6	0xb8ac7eb4	-8.2251994e-05
7	0xb8a06ac4	-7.649281e-05
8	0xb8a131ce	-7.686355e-05
9	0xb8aca23d	-8.231818e-05
10	0xb8abde3a	-8.195308e-05
11	0xb89cb66a	-7.472637e-05
12	0xb89f6cd1	-7.6019795e-05
13	0xb85a60e5	-5.206549e-05
14	0xb8a06717	-7.6485965e-05
15	0xb89ceb5a	-7.482497e-05
16	0xb8abde75	-8.195351e-05
17	0xb8a1e399	-7.7194716e-05
18	0xb8a139a7	-7.687817e-05
19	0xb89ba8dc	-7.4224285e-05
20	0xb8a0969c	-7.657448e-05
21	0xb8a0926b	-7.656667e-05
22	0xb8a02ece	-7.6381126e-05
23	0xb8a3fa7c	-7.819102e-05
24	0xb8a14f66	-7.691867e-05
25	0xb8ab4bd5	-8.16804e-05
26	0xb8a13ae7	-7.68805e-05
27	0xb8ac27ad	-8.208989e-05
28	0xb8abde25	-8.195293e-05
29	0xb8a54c11	-7.8819816e-05
30	0xb8abf146	-8.198856e-05
31	0xb8a14cb7	-7.6913675e-05
32	0xb8ab769f	-8.17601e-05
33	0xb89b8c86	-7.4171505e-05
34	0xb89bff19	-7.4384916e-05
35	0xb8947a30	-7.079949e-05
36	0xb8aa8b51	-8.1321814e-05
37	0xb89c7d36	-7.461982e-05
38	0xb8abaa7d	-8.185671e-05
39	0xb89f8355	-7.606173e-05
40	0xb89e145f	-7.5378215e-05
41	0xb893bf56	-7.045145e-05
42	0xb881e18c	-6.193211e-05
43	0xb963acb0	-0.00021712738
44	0xb85cc15b	-5.2632164e-05
45	0xb8989913	-7.276437e-05
46	0xb89b8c15	-7.417068e-05
47	0xb896cd5b	-7.190808e-05
48	0xb89b45be	-7.4039664e-05
49	0xb8a57103	-7.888863e-05
50	0xb8b4f4cf	-8.628668e-05
51	0xb8a406c1	-7.8213874e-05
52	0xb8a14ee0	-7.69177e-05
53	0xb8a14604	-7.69012e-05
54	0xb89d330e	-7.495853e-05
55	0xb8ab47f1	-8.1673155e-05
56	0xb8a098a3	-7.657825e-05
57	0xb8a126ec	-7.684328e-05
58	0xb8a52481	-7.8746125e-05
59	0xb8a04b52	-7.643424e-05
60	0xb89c46b8	-7.451832e-05
61	0xb89d7681	-7.5084165e-05
62	0xb8a0188c	-7.633967e-05
63	0xb893ccd2	-7.047657e-05
64	0xb873b5f3	-5.8105168e-05
65	0xb822a17b	-3.87742e-05
66	0xb84cf973	-4.8869708e-05
67	0x399392c4	0.00028147374
68	0xb721c8db	-9.643113e-06
69	0x39f0cf0d	0.00045930632
70	0x3a9edbc8	0.0012119943
71	0xb7ce8267	-2.4617837e-05
72	0xb704cd57	-7.9156225e-06
73	0x37819d15	1.5451145e-05
74	0xb84e9e6d	-4.9261773e-05
75	0xb78963ae	-1.637809e-05
76	0xb8878211	-6.4615284e-05
77	0xb849a4d7	-4.8075653e-05
78	0xb8b77e16	-8.749605e-05
79	0xb8b460a4	-8.6010696e-05
80	0xb89b4560	-7.403898e-05
81	0xb8a52d6c	-7.8762736e-05
82	0xb89ce023	-7.4804084e-05
83	0xb8ac7408	-8.2232116e-05
84	0xb8a1ccfb	-7.715259e-05
85	0xb8abe026	-8.195666e-05
86	0xb8a8f5af	-8.0566264e-05
87	0xb8988150	-7.272011e-05
88	0xb8aa39c5	-8.116992e-05
89	0xb8bbaad5	-8.948675e-05
90	0xb8a6d6ac	-7.9554826e-05
91	0xb7eec1a5	-2.8461984e-05
92	0xb719f173	-9.175727e-06
93	0xb819cd35	-3.6669157e-05
94	0xb64a7f39	-3.01744e-06
95	0x3916731c	0.00014347996
96	0xb7e03a6d	-2.6730087e-05
97	0x39db3dfc	0.00041817117
98	0x3a5893a5	0.0008261747
99	0xb9fe934e	-0.00048556406
100	0xb737faf7	-1.0966082e-05
101	0x3a8e4d96	0.0010856863
102	0xb968b335	-0.00022192004
103	0xb918f361	-0.00014586515
104	0x38276fff	3.9920207e-05
105	0x37bb23ee	2.2308868e-05
106	0xb8683402	-5.5361546e-05
107	0xb88443ba	-6.3068655e-05
108	0xb8a2bbe9	-7.759763e-05
109	0xb8a668b9	-7.935003e-05
110	0xb89ba5cc	-7.421858e-05
111	0xb8abf586	-8.199648e-05
112	0xb8a07af8	-7.652299e-05
113	0xb8a577fd	-7.890163e-05
114	0xb8a0db04	-7.6701894e-05
115	0xb8a6080e	-7.916997e-05
116	0xb8a21aaa	-7.7297285e-05
117	0xb8ad367f	-8.2594335e-05
118	0xb84cf0b6	-4.886157e-05
119	0xb6fd3425	-7.546058e-06
120	0x371fc848	9.52377e-06
121	0x3b4f6866	0.003164792
122	0x387decad	6.0540322e-05
123	0xb885c342	-6.378304e-05
124	0xba8b8dd3	-0.0010647125
125	0xbd5a3eca	-0.053282537
126	0x369b83e9	4.6347163e-06
127	0xbbd154bf	-0.0063882763
128	0xb8fa7eae	-0.00011944525
129	0x3a073849	0.00051582285
130	0x3a02b41c	0.0004985945
131	0x3a1b37c8	0.0005921093
132	0x38c62549	9.4483206e-05
133	0xb80ce71c	-3.359384e-05
134	0xbb9f6f17	-0.004865538
135	0xb89098e9	-6.894937e-05
136	0xb86e5a0f	-5.6827495e-05
137	0xb8b14e1e	-8.454568e-05
138	0xb89d9576	-7.514183e-05
139	0xb8a13bd9	-7.688226e-05
140	0xb8a13ff7	-7.6889926e-05
141	0xb8a13fae	-7.6889395e-05
142	0xb8a6f8f6	-7.9618694e-05
143	0xb8b902b2	-8.8219895e-05
144	0xb7faa7ee	-2.988052e-05
145	0xb810ef3d	-3.4555083e-05
146	0xb7843651	-1.576092e-05
147	0xb81d3b52	-3.7486963e-05
148	0xb9079874	-0.00012931396
149	0x3673b2c1	3.631387e-06
150	0x3c97b90e	0.018520858
151	0xb90eae77	-0.00013607169
152	0xbaa798c1	-0.0012786613
153	0xb9c0b069	-0.0003675253
154	0xbd4a7a19	-0.049432848
155	0xba84ed95	-0.0010141606
156	0xbbdccc13	-0.0067381947
157	0xba696e94	-0.0008904722
158	0x389e5627	7.550074e-05
159	0x3a2e264d	0.00066432805
160	0x39eeaf54	0.00045525527
161	0xb8461e12	-4.7234884e-05
162	0xb7d84ad6	-2.5784055e-05
163	0xb8384682	-4.3934684e-05
164	0xb98e343e	-0.00027123274
165	0xb8bf6bd1	-9.127672e-05
166	0xb8a7a004	-7.992986e-05
167	0xb8abd6db	-8.193935e-05
168	0xb89db040	-7.5191725e-05
169	0xb8a14ed6	-7.6917626e-05
170	0xb89b6b20	-7.4109295e-05
171	0xb8849227	-6.3214735e-05
172	0xb7d968b2	-2.5917168e-05
173	0xb892b226	-6.995005e-05
174	0xba3a78f5	-0.0007113361
175	0xbaa6d5cc	-0.0012728511
176	0xba9456bb	-0.0011317352
177	0xb9880629	-0.0002594453
178	0xba2c20e4	-0.00065661804
179	0xba0480b2	-0.00050545775
180	0xbda17f32	-0.07885589
181	0x39144c8f	0.000141429
182	0xbcb9b1d4	-0.022667803
183	0xbd5a1787	-0.053245094
184	0xba04cec8	-0.0005066213
185	0xb9bbb8ce	-0.0003580511
186	0x375ed39f	1.3281503e-05
187	0x39fae55b	0.000478546
188	0xbba6ec5b	-0.0050940937
189	0xb7afc43b	-2.0953003e-05
190	0xb6d79285	-6.4245564e-06
191	0xb922d26c	-0.00015527912
192	0xb96a51d1	-0.00022346458
193	0xb8890b36	-6.534757e-05
194	0xb8a58272	-7.8921104e-05
195	0xb8ab58a9	-8.17043e-05
196	0xb8a1e5e9	-7.719902e-05
197	0xb8a06ebf	-7.6500226e-05
198	0xb8a15c8f	-7.6943186e-05
199	0xb8f6fd6b	-0.00011777397
200	0xb841c652	-4.6199486e-05
201	0xba417946	-0.0007380437
202	0xba7fe9c4	-0.0009762312
203	0xbac7c980	-0.0015242547
204	0xbad3b1a3	-0.0016150962
205	0xbb26b822	-0.0025439342
206	0xba992f22	-0.001168702
207	0xba4c7925	-0.00078000344
208	0xb93dbc76	-0.00018094652
209	0x39d7b90d	0.0004114587
210	0xbc96ca54	-0.018407024
211	0xba031652	-0.00050005794
212	0xbd37c658	-0.04486689
213	0xb9ece2f8	-0.00045182533
214	0xbdc50d9d	-0.09621737
215	0xbdbff055	-0.093720116
216	0xba87a5ba	-0.0010349073
217	0xbd7b9fc9	-0.06143168
218	0xbe0cd052	-0.13751343
219	0xbcd4daa3	-0.02598316
220	0xb88fd38a	-6.8581736e-05
221	0x3972ac25	0.00023143047
222	0xb895a414	-7.1354356e-05
223	0xb8ae21ac	-8.3032384e-05
224	0xb8a54fcd	-7.882677e-05
225	0xb8ab4e01	-8.168445e-05
226	0xb8a6eb4f	-7.9593265e-05
227	0xb919973c	-0.00014647556
228	0xb867a2e4	-5.5226395e-05
229	0x36184ffb	2.269632e-06
230	0xb9adccdf	-0.00033149772
231	0xba3971bf	-0.00070741394
232	0xba7c47f8	-0.0009623761
233	0xba8bbe29	-0.001066153
234	0x382be2da	4.098085e-05
235	0xb88f783b	-6.841166e-05
236	0xb7b37ee9	-2.139756e-05
237	0x3a4dd9af	0.0007852567
238	0xb9fbaf93	-0.00048005264
239	0xba2e062a	-0.0006638492
240	0xbe002d0c	-0.12517184
241	0xbda2ccc4	-0.07949212
242	0xb9db2f4c	-0.00041806174
243	0x37de5b28	2.650691e-05
244	0x392b52b6	0.00016338643
245	0x37d886f5	2.581205e-05
246	0xbd763722	-0.060111172
247	0xba30c3fe	-0.00067430723
248	0xbc4faab3	-0.012674975
249	0x35ceba30	1.5402384e-06
250	0xb8a79526	-7.9909616e-05
251	0xb8ab4d7b	-8.168347e-05
252	0xb89da5c6	-7.517221e-05
253	0xb89a28be	-7.350881e-05
254	0xb899ffb4	-7.343237e-05
255	0xb8c669f9	-9.461115e-05

layers.2.bias f4 [100]
0	0x3b859e11	0.004077681
1	0xbc9f7c83	-0.019468552
2	0xbe029271	-0.12751175
3	0xbc3fa2fe	-0.011696575
4	0xbe3ea41c	-0.1861729
5	0xbd39f7e5	-0.045402426
6	0xbe48fabe	-0.196269
7	0xbd9d1c7a	-0.07671447
8	0xbe4beb40	-0.1991396
9	0xbcc76646	-0.02434076
10	0xbc7ae392	-0.015313046
11	0x3e49c85a	0.19705334
12	0xbdd89a77	-0.10576337
13	0xbc94903d	-0.018135184
14	0xbca1cd89	-0.019751327
15	0xbd98b3a4	-0.07456139
16	0x3c96a75b	0.018390348
17	0xbc597ed7	-0.01327487
18	0x3e964686	0.2935068
19	0x3e673a56	0.22580847
20	0x3d329f45	0.043608923
21	0xbb36237b	-0.0027792144
22	0x3e030798	0.12795866
23	0xbdc24720	-0.09486222
24	0xbc4589db	-0.012056793
25	0x3db64c63	0.08901288
26	0x3d6caf85	0.057784576
27	0xbd80a5b1	-0.06281603
28	0xbbcaa258	-0.0061839037
29	0xbd76919c	-0.060197458
30	0x396db45b	0.00022669269
31	0x3cd32c02	0.02577782
32	0x3c5b3af7	0.0133807575
33	0xbbabbdc8	-0.0052411295
34	0x3e3a7c6e	0.18211529
35	0x3e0f9b04	0.14023978
36	0xbbc91cc4	-0.0061374623
37	0x3e87851f	0.2646875
38	0xbe4e9a97	-0.20176159
39	0x3a2c27a4	0.0006567186
40	0x3cdc2e01	0.026877405
41	0xbe5f3822	-0.21798757
42	0xbc1c0e1b	-0.009524847
43	0xbe1ad02c	-0.15118474
44	0xbdd4e8c4	-0.10395959
45	0xbd832fbf	-0.06405591
46	0xbec4d927	-0.38446924
47	0xbb2bb21d	-0.0026198693
48	0xbd97be81	-0.074093826
49	0xbe566358	-0.20936334
50	0xbe0a73d7	-0.13520752
51	0xbe8273f7	-0.254791
52	0x3e0e5757	0.13900505
53	0xbe2b950e	-0.16756079
54	0x3cac24f0	0.021013707
55	0xbe24eca5	-0.16105898
56	0xbcc6b1bd	-0.024254674
57	0x3cad53a8	0.021158054
58	0x3d799e3e	0.060941927
59	0xbdc72276	-0.0972337
60	0xbb456056	-0.0030117235
61	0x3e899ea8	0.26878858
62	0xbbc89786	-0.0061215786
63	0xbd60bcd8	-0.054867595
64	0xbe1ea04d	-0.15490837
65	0x3ebb3687	0.3656504
66	0xbb3d19fd	-0.0028854602
67	0xbe191a62	-0.1495147
68	0xbd4e416e	-0.050355367
69	0x3e2af841	0.16696264
70	0x3e22ebf3	0.1591032
71	0xbc4e94f4	-0.012608755
72	0x3cd15a69	0.025555806
73	0xbd1d96a8	-0.038473755
74	0xbe2ac05f	-0.16674946
75	0x3d785598	0.060628504
76	0xbd4aa26b	-0.0494713
77	0x3e5dbbd6	0.21653685
78	0x3e329099	0.17437972
79	0xb9ad8587	-0.00033096617
80	0xbd01aac1	-0.031656984
81	0xbd189046	-0.037246965
82	0xbdfea8b1	-0.12434519
83	0xbd5b0e61	-0.05348051
84	0xbbb98011	-0.0056610187
85	0xbd29f77c	-0.041495785
86	0xbe01289f	-0.12613152
87	0xbb3d6bdf	-0.0028903408
88	0xbcf2a1e4	-0.029618211
89	0xbd61a12b	-0.055085342
90	0xbc6f2886	-0.014597064
91	0xbdb41843	-0.0879369
92	0xbd020410	-0.031742156
93	0xbcc4f8de	-0.02404445
94	0x3ddaa699	0.10676307
95	0x3ea3ee7a	0.3201788
96	0xbd4cca27	-0.049997475
97	0xbdb999ee	-0.09062563
98	0xbe20e445	-0.15712078
99	0xbe6860f7	-0.22693239

layers.4.weight f4 [100, 100]
0	0xb7729280	-1.4458434e-05
1	0xb758e64a	-1.2928222e-05
2	0x36dcbd43	6.578544e-06
3	0x37c7c857	2.381594e-05
4	0x3593e850	1.1019965e-06
5	0xb7d23291	-2.5057498e-05
6	0xb807bd1b	-3.2362626e-05
7	0xb5605bbb	-8.357999e-07
8	0xb739e322	-1.1079743e-05
9	0xb7924bf9	-1.7439934e-05
10	0x376bf048	1.4063036e-05
11	0xb65c1b87	-3.2798578e-06
12	0x3716ec90	8.995776e-06
13	0xb62327c7	-2.4312046e-06
14	0xb797f458	-1.8114384e-05
15	0xb665351e	-3.4154577e-06
16	0xb50a30ef	-5.1480214e-07
17	0x36e0f8f3	6.7047017e-06
18	0xb6ab5117	-5.1056372e-06
19	0xb7006326	-7.652479e-06
20	0x37174f42	9.018755e-06
21	0xb72b1f5b	-1.0199695e-05
22	0xb6fdc6ce	-7.5631315e-06
23	0xb50d63e0	-5.267193e-07
24	0xb68c1599	-4.1748394e-06
25	0x3716dd8d	8.9922805e-06
26	0x35e28416	1.6876754e-06
27	0x368a49a9	4.1212957e-06
28	0x36effb08	7.151979e-06
29	0xb60b4eab	-2.0758405e-06
30	0xb69028b7	-4.2962743e-06
31	0xb73e3d75	-1.1339192e-05
32	0x3505a7e2	4.979066e-07
33	0xb75febe7	-1.3346761e-05
34	0xb66e7d81	-3.5537817e-06
35	0x3797ca8c	1.8094921e-05
36	0xb67d4cce	-3.7744644e-06
37	0x3739cdcf	1.1074778e-05
38	0x36f23c95	7.2192147e-06
39	0xb4efe1a9	-4.4681408e-07
40	0x36db036b	6.5271065e-06
41	0xb70c4659	-8.361029e-06
42	0x35c67bb0	1.4788147e-06
43	0xb673e97d	-3.634573e-06
44	0x3603d57a	1.964478e-06
45	0xb7dbeed2	-2.6218044e-05
46	0x378e1a4e	1.6939968e-05
47	0x375c4912	1.3130035e-05
48	0x37191324	9.123967e-06
49	0x37c969ff	2.4010425e-05
50	0x37079ad0	8.082672e-06
51	0x32a49b56	1.9162751e-08
52	0x36ee494b	7.101485e-06
53	0xb4524c0b	-1.9585438e-07
54	0x36be3c2b	5.6694457e-06
55	0xb2ccf1c8	-2.3858675e-08
56	0x35a76731	1.2472502e-06
57	0xb6ba6a13	-5.5555806e-06
58	0x36f9fe94	7.450415e-06
59	0xb7946793	-1.7691205e-05
60	0x36d03c68	6.2059153e-06
61	0x370800ee	8.106448e-06
62	0x3408f70f	1.2755866e-07
63	0xb72d7e44	-1.0341002e-05
64	0xb69f0392	-4.738985e-06
65	0xb588a103	-1.017965e-06
66	0x3714a12f	8.859016e-06
67	0x3614221d	2.2073575e-06
68	0xb6c1128a	-5.7540065e-06
69	0x378d68de	1.6857342e-05
70	0xb54eeb62	-7.708351e-07
71	0xb54a6ff9	-7.5413806e-07
72	0x3789f73e	1.6446804e-05
73	0xb704021d	-7.868305e-06
74	0xb6cf6505	-6.180841e-06
75	0xb6eb167e	-7.006164e-06
76	0xb60a7067	-2.062903e-06
77	0xb77919dc	-1.4847577e-05
78	0xb653a11d	-3.153523e-06
79	0xb6e7f06d	-6.9123257e-06
80	0xb7313aff	-1.0563758e-05
81	0x3669f56a	3.4862555e-06
82	0xb57f5d28	-9.513046e-07
83	0x3582bca7	9.74066e-07
84	0x3669b69c	3.4825998e-06
85	0xb7235dc4	-9.737389e-06
86	0xb5dfba69	-1.6669047e-06
87	0x376154dd	1.3430804e-05
88	0x366baca9	3.511823e-06
89	0xb70e614f	-8.486516e-06
90	0xb71d97cf	-9.393275e-06
91	0x3519adb0	5.724969e-07
92	0x3708c1bf	8.151342e-06
93	0xb42d6e85	-1.6152087e-07
94	0xb73a9382	-1.1120808e-05
95	0x3727e056	1.0006208e-05
96	0x341f51b4	1.4837752e-07
97	0xb6570026	-3.2037583e-06
98	0xb6684c65	-3.4615161e-06
99	0xb7212196	-9.604168e-06
100	0xb9acb291	-0.0003293944
101	0xb72757c1	-9.9744075e-06
102	0xbdafeac0	-0.08589697
103	0xb6e250a9	-6.744715e-06
104	0x3a53cff8	0.0008080001
105	0xbed1cce3	-0.4097663
106	0x3c5f7cd7	0.013640604
107	0x38700eaf	5.7234134e-05
108	0x3e8c6e5b	0.27427945
109	0x3d13026c	0.03589098
110	0xb5bcd578	-1.4069219e-06
111	0x3d9d6860	0.076859236
112	0x3dfc25d8	0.123119056
113	0x33989d65	7.1066815e-08
114	0x367389bb	3.6289991e-06
115	0xb9b4c096	-0.00034475763
116	0xbedf2550	-0.43583155
117	0xb70fb7e2	-8.566278e-06
118	0x3d3439ed	0.044000555
119	0xbe14989f	-0.14511345
120	0xba8505f6	-0.0010148871
121	0x3735a088	1.0825817e-05
122	0xb9e0f740	-0.00042908825
123	0xb945b2aa	-0.00018853942
124	0xb6d61c45	-6.380988e-06
125	0x3e57ca4f	0.21073268
126	0x3844fc49	4.6965e-05
127	0x36d478a8	6.3321386e-06
128	0xb63f5adc	-2.8514105e-06
129	0x353539a2	6.751162e-07
130	0x39585fc4	0.0002063504
131	0xb6991248	-4.5618835e-06
132	0x3ca1ed18	0.019766375
133	0x367f4d92	3.8043113e-06
134	0x39d9ce02	0.00041542953
135	0x3db79c27	0.089653306
136	0x36b45471	5.3742483e-06
137	0xbe11f6bc	-0.14254278
138	0x3df1ac99	0.118004985
139	0x3a075745	0.00051628455
140	0x381a577e	3.6797945e-05
141	0xba2e863e	-0.0006657577
142	0x372d0617	1.0313021e-05
143	0xb7aa5107	-2.030331e-05
144	0x3d1d3462	0.038380034
145	0x3567e644	8.6389286e-07
146	0x3dc3e7f1	0.09565724
147	0x376458b3	1.3610511e-05
148	0x3e21487a	0.15750304
149	0xb765c943	-1.3696324e-05
150	0x3e39b3a3	0.18134932
151	0xb966c1e6	-0.00022006742
152	0x3e16a732	0.14712217
153	0x3e1a3aeb	0.15061538
154	0x3813b329	3.5214387e-05
155	0x3e199dec	0.15001649
156	0x34e6592c	4.290572e-07
157	0x391fb1d5	0.00015229669
158	0xbe7d4a1b	-0.247353
159	0x3704f753	7.925398e-06
160	0x36320146	2.6524808e-06
161	0xb99a04ed	-0.0002937684
162	0x35b2658e	1.329159e-06
163	0xb6373e02	-2.7305218e-06
164	0x38904e0a	6.880991e-05
165	0x39e97c2b	0.00044533735
166	0x378ca2d6	1.6765127e-05
167	0x3e497e5f	0.19677113
168	0xb712e73e	-8.756118e-06
169	0xbda3b8fd	-0.07994268
170	0xbc8f7ad8	-0.017514631
171	0xbe16472b	-0.14675586
172	0x3600497c	1.911626e-06
173	0xb76f6679	-1.4269369e-05
174	0xb8e836b2	-0.0001107281
175	0xb8ba472d	-8.882429e-05
176	0x37085ef7	8.128342e-06
177	0xbd3d79f8	-0.046258897
178	0xb9e3f56d	-0.0004347967
179	0x3c007fd7	0.007842979
180	0x3d4fad16	0.050702177
181	0xb6554285	-3.1778193e-06
182	0x3dfc9a83	0.12334158
183	0x3e6fc2a6	0.23414096
184	0x3718dbdd	9.111097e-06
185	0xb76b3cb7	-1.4021228e-05
186	0x389fbd27	7.616943e-05
187	0xb747fd2b	-1.192027e-05
188	0x36c95618	6.0002894e-06
189	0x3dfda57a	0.12385078
190	0xb940baa1	-0.00018380072
191	0x36c6a863	5.9204626e-06
192	0x367d2cd0	3.7726022e-06
193	0xbe09559b	-0.13411562
194	0xb99c8f9e	-0.00029861642
195	0x38fe9f27	0.00012141308
196	0xb9a12e27	-0.000307427
197	0xb8945607	-7.073214e-05
198	0xba2e8dca	-0.00066587015
199	0x3cefd5e8	0.029276803
200	0x36ed378b	7.0696165e-06
201	0x3572ba9f	9.0423595e-07
202	0x3773bae4	1.45274425e-05
203	0xb6665744	-3.4323466e-06
204	0xb7c70e7c	-2.3729393e-05
205	0xb7090eb0	-8.169256e-06
206	0xb617357e	-2.253189e-06
207	0xb787a265	-1.6168875e-05
208	0xb6600b66	-3.3385236e-06
209	0xb760412a	-1.3366613e-05
210	0x36976565	4.5119546e-06
211	0x34160637	1.39721e-07
212	0xb704739b	-7.89473e-06
213	0xb5e9b358	-1.7412049e-06
214	0xb68aab86	-4.1326884e-06
215	0x36e69741	6.8721424e-06
216	0xb6dfbf8d	-6.6682173e-06
217	0x373f993d	1.1420166e-05
218	0xb56456ae	-8.5062754e-07
219	0xb76cb9a3	-1.4109918e-05
220	0xb6b6ff31	-5.453731e-06
221	0xb62f0185	-2.6077917e-06
222	0xb3c35c6e	-9.097208e-08
223	0xb7023ae4	-7.762315e-06
224	0xb626c382	-2.4849728e-06
225	0x35b3e354	1.34027e-06
226	0xb7782657	-1.4790879e-05
227	0xb7183448	-9.072079e-06
228	0xb6eaa29a	-6.9926728e-06
229	0xb756ab57	-1.2795287e-05
230	0xb6969f17	-4.488869e-06
231	0x35822964	9.697801e-07
232	0xb733b5f8	-1.0711599e-05
233	0xb6d0158d	-6.201392e-06
234	0x378598c2	1.5925969e-05
235	0x3649148c	2.9963294e-06
236	0xb6b283b5	-5.320146e-06
237	0xb7190026	-9.119545e-06
238	0x3102f023	1.9053992e-09
239	0x3713aafa	8.801691e-06
240	0x376bc618	1.4053214e-05
241	0x3799d638	1.8338775e-05
242	0x32c4cee5	2.2911488e-08
243	0xb7947603	-1.7697928e-05
244	0x3704b8b3	7.910817e-06
245	0xb7718c8b	-1.4397442e-05
246	0x3777e885	1.4776485e-05
247	0xb6e2ac82	-6.7554074e-06
248	0x361c9c27	2.3336704e-06
249	0xb70037e9	-7.642412e-06
250	0x3725d3c0	9.884068e-06
251	0xb6783b9f	-3.6989584e-06
252	0x37637af0	1.3558878e-05
253	0x375be11f	1.3105832e-05
254	0x364439ad	2.9239848e-06
255	0x358c08c6	1.0433366e-06

layers.4.bias f4 [100]
0	0xbd94410e	-0.07238971
1	0x3dbceb02	0.09224512
2	0xbc8e520e	-0.017373111
3	0xba760df3	-0.0009386234
4	0x3dc39875	0.09550563
5	0xbd259d42	-0.040433176
6	0x3d06a07e	0.0328679
7	0x3e8ea0ed	0.27857152
8	0xbb5c911b	-0.0033655826
9	0xbace8d3f	-0.0015758647
10	0x3e65e49f	0.22450493
11	0xbb80604d	-0.00391773
12	0xbb33e990	-0.0027452447
13	0x3e0b089d	0.13577504
14	0x3dd3dec1	0.10345221
15	0x3d6f7f7c	0.058471188
16	0x3e179cbe	0.14805886
17	0xbde2a7c2	-0.110671535
18	0x3e967009	0.2938235
19	0x3d18f674	0.03734441
20	0x3d137916	0.03600415
21	0xbbd438f1	-0.0064765145
22	0xbadb94cf	-0.0016752722
23	0xbb1eb870	-0.002421882
24	0x3cf6bba1	0.030118765
25	0x3cfe7379	0.031060921
26	0x3e7f0771	0.24905182
27	0x3ded419c	0.115847796
28	0x3e35c6f7	0.1775168
29	0xbb5a53a2	-0.003331401
30	0xbc69a956	-0.014261564
31	0x3ceff1dd	0.029290134
32	0xbdb4ee0d	-0.08834467
33	0xbd40223e	-0.046907656
34	0x3cebc8a0	0.028782189
35	0xbcd37a15	-0.02581505
36	0xbdcdbec7	-0.100461535
37	0xbd0388d7	-0.032112923
38	0x3e3d9d48	0.1851703
39	0xbc16c0ff	-0.009201287
40	0x3ea100e0	0.3144598
41	0x3e344ca3	0.1760736
42	0x3cfe4497	0.031038566
43	0x3e73372c	0.23751515
44	0xbdd09aa2	-0.10185744
45	0x3d6f8917	0.05848035
46	0xbd40d866	-0.047081374
47	0x3ed83ef4	0.4223553
48	0x3e8d5732	0.27605587
49	0xbd99364b	-0.07481059
50	0xbe2b78fd	-0.16745372
51	0xbcd8ee0e	-0.0264807
52	0x3dc6eaa4	0.09712723
53	0xbdd82fe9	-0.10556013
54	0x3d983d2d	0.07433543
55	0xbe619e28	-0.22032988
56	0xbdecd6b7	-0.11564391
57	0x3e07a7fb	0.13247673
58	0x3e226908	0.15860379
59	0xbde880c2	-0.113526836
60	0x3d1d00e8	0.038330942
61	0xbd83cfde	-0.06436132
62	0x3e269a28	0.16269743
63	0xbe00ad2d	-0.12566061
64	0x3e710fdd	0.23541208
65	0x3e1e006f	0.15429853
66	0x3e3ba866	0.18325958
67	0x3dce2995	0.10066525
68	0xbe202e6a	-0.15642706
69	0x3d8c3a1a	0.068470195
70	0x3e060185	0.13086517
71	0xbe553d07	-0.20824061
72	0xbe398387	-0.1811658
73	0x3ce07afe	0.027402397
74	0xbc44ca67	-0.012011147
75	0x3c327907	0.010893113
76	0x3e29354b	0.16524236
77	0x3cfd4437	0.030916316
78	0xbc02e3f8	-0.007988922
79	0xbbda76a0	-0.0066669732
80	0x3cf618df	0.030041156
81	0xbb7df5bf	-0.0038751212
82	0xbdee37a4	-0.11631706
83	0xbd963081	-0.0733347
84	0xbb743a47	-0.0037266181
85	0x3d99110d	0.07473955
86	0xbc9c2528	-0.019060686
87	0x3e89e721	0.2693415
88	0x3eb4bdd5	0.3530108
89	0x3c109ac3	0.008825961
90	0xbda57354	-0.08078638
91	0xbe1a4280	-0.1506443
92	0x3d09a73c	0.033606753
93	0xbded7a73	-0.11595621
94	0x3d545851	0.051842038
95	0x3ddc94f9	0.10770602
96	0xbc2bce48	-0.010486193
97	0xbdc981b8	-0.09839195
98	0xbbd3ee1c	-0.006467594
99	0xbe1802ed	-0.14844866

layers.6.weight f4 [100, 100]
0	0x3718a8f2	9.099242e-06
1	0x36d4206d	6.321867e-06
2	0x3709c366	8.211331e-06
3	0x3791df87	1.7389435e-05
4	0x36a728e0	4.9817463e-06
5	0x36aad733	5.0914473e-06
6	0x368a5083	4.1220933e-06
7	0xb76f0cb0	-1.4248464e-05
8	0xb69c864d	-4.664797e-06
9	0xb74e5da9	-1.2300364e-05
10	0x3764a144	1.3627407e-05
11	0x37322dab	1.062026e-05
12	0xb746a729	-1.184064e-05
13	0xb7ed1963	-2.8264423e-05
14	0x37523c86	1.2531067e-05
15	0xb5798d52	-9.2965377e-07
16	0xb6fd8628	-7.5556054e-06
17	0x37100535	8.584281e-06
18	0x37049904	7.90344e-06
19	0x375c4efe	1.3131414e-05
20	0xb716589c	-8.961328e-06
21	0xb5877b0a	-1.0094093e-06
22	0xb49bfcfc	-2.905507e-07
23	0x35f5ea49	1.8322108e-06
24	0xb5860829	-9.986153e-07
25	0x3406b273	1.2544642e-07
26	0x36bdabed	5.6526537e-06
27	0xb74f8310	-1.2368677e-05
28	0xb6427597	-2.89767e-06
29	0x35d5e6b5	1.5936881e-06
30	0xb6198445	-2.2875768e-06
31	0x3679add8	3.7205082e-06
32	0x36d3861a	6.3039015e-06
33	0x36ab6782	5.108247e-06
34	0x34e60976	4.2847722e-07
35	0xb6dd8eb8	-6.602928e-06
36	0xb6f1a715	-7.2018106e-06
37	0xb6ce78c3	-6.153337e-06
38	0xb5f0e5e5	-1.7948302e-06
39	0xb36f01b9	-5.564809e-08
40	0x36217535	2.4059093e-06
41	0x374df264	1.2275388e-05
42	0xb675e528	-3.6641231e-06
43	0xb6f46de4	-7.2845596e-06
44	0xb61dd81f	-2.3520622e-06
45	0x37198915	9.151428e-06
46	0x378631d8	1.5997255e-05
47	0xb488f7b4	-2.5512202e-07
48	0xb6974125	-4.5077345e-06
49	0x37041771	7.873271e-06
50	0xb7226dd3	-9.681523e-06
51	0x36a0f6a8	4.797086e-06
52	0x365e5b0c	3.3133574e-06
53	0x3728eab9	1.0068231e-05
54	0x35bba30a	1.3980036e-06
55	0x36c64992	5.9094245e-06
56	0x37280e17	1.0016861e-05
57	0x37876b93	1.6143347e-05
58	0x3800fe09	3.0754167e-05
59	0xb6d02712	-6.2034314e-06
60	0xb6ca0152	-6.020223e-06
61	0xb72d5f98	-1.0333861e-05
62	0xb641bf08	-2.8870436e-06
63	0xb68370a4	-3.9172173e-06
64	0x362c2ae7	2.565497e-06
65	0xb5464b6c	-7.38705e-07
66	0xb7db791e	-2.6163234e-05
67	0x376bdd8e	1.4058676e-05
68	0x35da8caf	1.628321e-06
69	0xb631035c	-2.637701e-06
70	0xb6640d18	-3.398227e-06
71	0x3754f82b	1.2693966e-05
72	0x3706c8b9	8.033757e-06
73	0xb5da1c3a	-1.6250481e-06
74	0x3661677d	3.358785e-06
75	0xb74af245	-1.2096546e-05
76	0x36cd0919	6.110535e-06
77	0xb4324c54	-1.660531e-07
78	0x36c3b654	5.8326787e-06
79	0x362d127f	2.5789775e-06
80	0x37374369	1.0923345e-05
81	0x3530b5e2	6.5829784e-07
82	0x359442d7	1.1046312e-06
83	0xb636ba94	-2.7228716e-06
84	0xb72d2f07	-1.0322553e-05
85	0xb764ef04	-1.3645509e-05
86	0x37a656a0	1.982908e-05
87	0x3705127a	7.93172e-06
88	0xb530cfa0	-6.5867243e-07
89	0x372fbde9	1.047503e-05
90	0xb61867a2	-2.2710087e-06
91	0xb726aaea	-9.934165e-06
92	0x37247227	9.80174e-06
93	0x369d6fa6	4.691962e-06
94	0xb457f667	-2.0113076e-07
95	0xb655914e	-3.1824052e-06
96	0x359002fb	1.0729703e-06
97	0xb6df8ad4	-6.6620796e-06
98	0xb64706cd	-2.965727e-06
99	0x36456f7c	2.942018e-06
100	0x37963c91	1.7909597e-05
101	0xb7e69345	-2.7486714e-05
102	0x358b6021	1.0384284e-06
103	0xb761f20c	-1.3467401e-05
104	0x375bb7d2	1.3096216e-05
105	0xb55bb284	-8.184363e-07
106	0x370cb447	8.386624e-06
107	0xb534a88f	-6.730051e-07
108	0xb6756e36	-3.6571996e-06
109	0xb401cfdd	-1.2089681e-07
110	0x35f4bfbc	1.8235219e-06
111	0x36ec1f94	7.0370243e-06
112	0x3715b39e	8.9229125e-06
113	0x36b3c23b	5.357227e-06
114	0x37e77025	2.7589567e-05
115	0xb7058915	-7.959335e-06
116	0xb68a9492	-4.1300164e-06
117	0x3716d076	8.989233e-06
118	0x3705b036	7.968445e-06
119	0x3717f68b	9.057704e-06
120	0xb6804960	-3.8232392e-06
121	0xb6e5a20a	-6.8435957e-06
122	0xb63cbaba	-2.8122872e-06
123	0x368933b9	4.0889395e-06
124	0x375ceb42	1.3167797e-05
125	0xb73634d1	-1.0860343e-05
126	0xb5c56fc3	-1.4710171e-06
127	0x36a59709	4.934966e-06
128	0x356ccbf8	8.8213665e-07
129	0x363ff83c	2.860571e-06
130	0xb5365fcc	-6.7939686e-07
131	0xb67fe500	-3.8131257e-06
132	0xb65c7414	-3.285012e-06
133	0x37992e03	1.8260447e-05
134	0xb689565c	-4.0929717e-06
135	0x362bc2d3	2.5594388e-06
136	0x35a2ee4a	1.2139292e-06
137	0x36089ff9	2.0358696e-06
138	0xb682a3d8	-3.893376e-06
139	0xb64bc728	-3.0365281e-06
140	0xb6bcee0c	-5.630549e-06
141	0xb6cb304f	-6.0554953e-06
142	0xb7ca4b8e	-2.411546e-05
143	0xb6cb9c3d	-6.06806e-06
144	0xb6588fd7	-3.2270234e-06
145	0xb76297c4	-1.3505985e-05
146	0xb627447a	-2.4924798e-06
147	0xb65ca41c	-3.2878079e-06
148	0x341b1be1	1.4445642e-07
149	0xb6575a99	-3.2090231e-06
150	0x3760a258	1.3389239e-05
151	0x36a84274	5.0145263e-06
152	0xb62b1f57	-2.5499228e-06
153	0x37dc3164	2.6249043e-05
154	0xb7932d49	-1.7544853e-05
155	0xb7718ce5	-1.4397524e-05
156	0x362e0593	2.5931265e-06
157	0x364b4c36	3.0293718e-06
158	0x36246e8f	2.4502258e-06
159	0x3754de86	1.2687995e-05
160	0xb6352ca5	-2.6997088e-06
161	0xb648b65e	-2.9908474e-06
162	0xb69f1f2f	-4.7421995e-06
163	0xb73e34b7	-1.1337156e-05
164	0xb6cf925a	-6.1861183e-06
165	0xb6ce54a5	-6.1491323e-06
166	0xb72da155	-1.0349167e-05
167	0xb7812bc4	-1.5398378e-05
168	0xb80bf40e	-3.3367476e-05
169	0xb6bc4164	-5.610449e-06
170	0x36d306df	6.28909e-06
171	0xb364a5d9	-5.3236224e-08
172	0xb6fbf870	-7.509305e-06
173	0x37067ef6	8.016583e-06
174	0x34c84e5a	3.730991e-07
175	0x360b5cf9	2.0766731e-06
176	0x37775bfe	1.4743766e-05
177	0xb723dbd7	-9.766743e-06
178	0x366451ea	3.4022328e-06
179	0x357ce8e2	9.4216205e-07
180	0x3510fc50	5.4011343e-07
181	0x3778a076	1.4819312e-05
182	0xb5ed8f8f	-1.7699657e-06
183	0x36c2a4fb	5.800857e-06
184	0xb6fb2170	-7.4842756e-06
185	0xb66c6985	-3.522816e-06
186	0xb715374c	-8.893967e-06
187	0x37987a92	1.8176888e-05
188	0xb7484155	-1.193614e-05
189	0xb7514944	-1.2474429e-05
190	0xb5937083	-1.0985099e-06
191	0x36073fae	2.0153634e-06
192	0xb68c9679	-4.1898425e-06
193	0xb6771eb0	-3.682373e-06
194	0xb59b8121	-1.1585981e-06
195	0x3682b9b4	3.8959206e-06
196	0xb73b0bbb	-1.11488e-05
197	0x3717ffb3	9.059836e-06
198	0x37e8ff7b	2.7775523e-05
199	0x37e7d8ed	2.763836e-05
200	0x36d955a3	6.4770734e-06
201	0xbcc4cbb0	-0.024022907
202	0xb660dcd5	-3.3507142e-06
203	0xb7231d7d	-9.722423e-06
204	0x3704935c	7.902123e-06
205	0xb770e821	-1.43591615e-05
206	0xb82c68ac	-4.110548e-05
207	0xbe124d1f	-0.14287232
208	0x3713b86e	8.804824e-06
209	0xb716ac37	-8.980794e-06
210	0x38b7a9d9	8.7577566e-05
211	0x35344d6e	6.71679e-07
212	0x3e500287	0.20313464
213	0x3e1a9a0b	0.15097825
214	0xb5ba05c4	-1.3859758e-06
215	0x3eb05e94	0.34447157
216	0x3c93637b	0.017991772
217	0xba1e86ca	-0.0006047307
218	0x39763b36	0.00023482446
219	0x3dc2b005	0.09506229
220	0xbce0e722	-0.027453963
221	0xb6f34b43	-7.250726e-06
222	0xb6b9d29b	-5.5379473e-06
223	0xb7276fcf	-9.980008e-06
224	0x384dd544	4.9074428e-05
225	0x38a5070c	7.869126e-05
226	0x3d5ac938	0.053414553
227	0xb9ac2952	-0.00032837183
228	0x3e53401d	0.20629926
229	0x37b89fbc	2.2008891e-05
230	0x3658755c	3.225482e-06
231	0x37a381a1	1.9491477e-05
232	0x365ba055	3.2726869e-06
233	0xb91b28d1	-0.00014797157
234	0x37fd6aa6	3.0209612e-05
235	0x36cc7a3a	6.093903e-06
236	0x370150c8	7.7078075e-06
237	0xba09fb8d	-0.0005263619
238	0xbb97205c	-0.004612012
239	0x36b328c2	5.3393605e-06
240	0xbd8c1297	-0.06839483
241	0x3ed99e95	0.425038
242	0xb73f6ea7	-1.141025e-05
243	0x3ee4dd05	0.44699875
244	0x3755f81d	1.2753558e-05
245	0x3846c66c	4.7391673e-05
246	0x379ba0fa	1.85524e-05
247	0x3e836fe4	0.25671303
248	0x3914a079	0.0001417416
249	0xb66f22ea	-3.5634098e-06
250	0x389dbfb1	7.522049e-05
251	0x37429b4c	1.1599459e-05
252	0xbdc70285	-0.097172774
253	0xb5e23131	-1.6852629e-06
254	0x3a49a6cd	0.0007692397
255	0x39ae93f7	0.0003329811

layers.6.bias f4 [100]
0	0xbd9a4672	-0.075329676
1	0xbd51b002	-0.051193245
2	0x3ddfc13a	0.10925527
3	0xbccaac30	-0.024740309
4	0xbc59d1a6	-0.013294613
5	0x3e3a79ac	0.18210477
6	0xba90a617	-0.0011035827
7	0x3da74f12	0.08169378
8	0x3d8d8545	0.06910185
9	0x3dd68c93	0.10476031
10	0x3d75e772	0.060035177
11	0xbbe5472f	-0.006997011
12	0x3d7ff3f0	0.062488496
13	0x3dde66de	0.10859464
14	0xbb37270f	-0.0027946865
15	0xbd9b688a	-0.075882986
16	0xbb770e5e	-0.0037697772
17	0x3ed58d42	0.41709334
18	0xbccb3631	-0.024806114
19	0x3eb5f1cf	0.35536048
20	0x3ea24273	0.31691322
21	0xbd67db2d	-0.056605507
22	0xbdba5724	-0.09098652
23	0x3ab1756e	0.0013539025
24	0x3de100a7	0.109864525
25	0x3d811f30	0.06304777
26	0xbc992d91	-0.018698486
27	0x3d966a55	0.073445
28	0xbd6a4b2c	-0.057200596
29	0x3d7b823b	0.061403494
30	0x3d7a1afa	0.061060883
31	0xbcf36369	-0.029710488
32	0x3ea1a0a3	0.3156787
33	0x3de2801e	0.11059593
34	0x3d745b2c	0.05965726
35	0x3d82d8c4	0.06389001
36	0x3e2031ac	0.15643948
37	0x3e8befc1	0.27331355
38	0x3e3eb74f	0.18624614
39	0x3d7bbe67	0.06146088
40	0x3c6ba6ba	0.014383012
41	0xbd648c70	-0.055797994
42	0xbca56d1b	-0.020193627
43	0x3d7cdbbc	0.061732993
44	0xbe13830a	-0.14405456
45	0x3d9821bf	0.074283116
46	0x3f042959	0.5162559
47	0x3ea339df	0.3188009
48	0x3d79c87a	0.060982205
49	0xbd31c44b	-0.04340009
50	0x3d74c12b	0.05975453
51	0x3d82d4be	0.063882336
52	0x3d7827c3	0.060584795
53	0xbda19610	-0.0788995
54	0xbb97b08b	-0.0046292
55	0x3d7f8a37	0.06238767
56	0xbdae87a0	-0.08521962
57	0xbce75e19	-0.028243111
58	0x3dff3a8c	0.12462339
59	0x3e835c8d	0.25656548
60	0xbd0e38ef	-0.034722265
61	0x3db6e78d	0.089308836
62	0xbd0cc1dc	-0.034364566
63	0xbe3395ca	-0.17537609
64	0x3e41d8a1	0.18930294
65	0x3e88c80b	0.2671512
66	0xbdd26647	-0.10273414
67	0xbe3e4152	-0.18579605
68	0xbdd8373c	-0.1055741
69	0xbdb6ec8c	-0.089318365
70	0xbca1f6d0	-0.01977101
71	0xbcad4f11	-0.021155866
72	0xbda40d86	-0.08010392
73	0x3dc593d3	0.09647336
74	0xbd8d376d	-0.06895337
75	0xbd5288b9	-0.05139992
76	0x3e98b8c9	0.2982848
77	0x3de808d8	0.11329812
78	0x3de613a8	0.11234218
79	0xbd09cf42	-0.033644922
80	0x3d7cd8f7	0.06173035
81	0x3d7808c4	0.060555235
82	0xbda970a2	-0.08273436
83	0x3d745ee3	0.059660804
84	0xbde5ed46	-0.11226897
85	0xbdd14796	-0.10218732
86	0xbe38f3a3	-0.1806169
87	0xbb6c2c54	-0.0036037164
88	0xbd0d4841	-0.034492735
89	0xbd158cbd	-0.03651117
90	0xbb82e3e8	-0.0039944537
91	0x3d7d83c7	0.06189325
92	0xbe0cbd9d	-0.13744207
93	0xbcb6ec3f	-0.022329448
94	0x3ecf3a86	0.40474337
95	0xbcdcfce6	-0.02697606
96	0x3d7d2150	0.061799347
97	0x3d6c7791	0.057731215
98	0x3d71ae8e	0.05900436
99	0xbc399bb9	-0.011328631

layers.8.weight f4 [100, 100]
0	0xb6e5fa33	-6.853859e-06
1	0xb570769f	-8.9579584e-07
2	0xb8a5c893	-7.905173e-05
3	0xb88c1ed1	-6.68146e-05
4	0xb508c0af	-5.094434e-07
5	0x39dd6c53	0.00042233113
6	0x3694eb36	4.438126e-06
7	0xb7d8db3d	-2.5851297e-05
8	0x37a6b14c	1.9871302e-05
9	0xb98711fb	-0.00025762603
10	0x37941e11	1.7656976e-05
11	0xb502af9a	-4.868431e-07
12	0x37a7999d	1.9979483e-05
13	0x378ab6f2	1.6536073e-05
14	0xb6dbf3e3	-6.5551008e-06
15	0xb80bd0cd	-3.3334643e-05
16	0xb5af86f6	-1.3077795e-06
17	0x3928b7ec	0.00016090245
18	0x3744fce1	1.1741388e-05
19	0x3e1e16ba	0.15438357
20	0xb8443acc	-4.67848e-05
21	0xb70c164e	-8.3498435e-06
22	0x37389a6f	1.10032115e-05
23	0xb6ef2ac0	-7.127732e-06
24	0x3717ad8e	9.04071e-06
25	0x377e167c	1.5144815e-05
26	0xb74a7d6c	-1.206934e-05
27	0x38d87993	0.000103223276
28	0xb60c9041	-2.0945592e-06
29	0xb71952fe	-9.138834e-06
30	0x37985125	1.8157598e-05
31	0xb749a038	-1.2017837e-05
32	0xb9101ca7	-0.00013743584
33	0x3690040e	4.2920065e-06
34	0x3783258d	1.5633903e-05
35	0xb858029c	-5.1500843e-05
36	0xb88b40dd	-6.640118e-05
37	0xb7b5adaf	-2.165776e-05
38	0x3f17d3fe	0.5930785
39	0x36e4fe45	6.8245304e-06
40	0xb6c930bf	-5.9959416e-06
41	0x37d1c660	2.5007117e-05
42	0xb6b0d78d	-5.270302e-06
43	0xb524fcc2	-6.146257e-07
44	0x3f2c3d56	0.6728109
45	0xb64b4a55	-3.0292624e-06
46	0x3e49f664	0.19722897
47	0x3811c525	3.47543e-05
48	0x35ce444a	1.5368071e-06
49	0x361f2c33	2.3718574e-06
50	0xb595371e	-1.1117406e-06
51	0x366a7433	3.4936354e-06
52	0xb783fbc2	-1.573365e-05
53	0x3d6fdc42	0.058559664
54	0x37798046	1.48714225e-05
55	0xb74f52c4	-1.2357432e-05
56	0x36d420fd	6.3219327e-06
57	0xb8275d2f	-3.9902687e-05
58	0xb51674c3	-5.6049265e-07
59	0xbd405fbf	-0.04696631
60	0xb764bf07	-1.3634336e-05
61	0xb5a53df4	-1.2311489e-06
62	0x38f1de8d	0.00011533229
63	0x3f2bb44d	0.6707199
64	0xbe37607b	-0.17907898
65	0x385970ea	5.184199e-05
66	0x36b97590	5.5271157e-06
67	0x39f2768a	0.00046246155
68	0x38d6a819	0.00010235626
69	0x3e277bb3	0.16355781
70	0x35b3b93e	1.3390452e-06
71	0x370bbba5	8.328735e-06
72	0xb6e03dd0	-6.682916e-06
73	0xb8cacd6b	-9.670373e-05
74	0xb67d9f68	-3.7792724e-06
75	0xb632d82a	-2.664989e-06
76	0xbe0ce642	-0.13759711
77	0x39358c59	0.00017313789
78	0x3709b031	8.206859e-06
79	0x3720dd77	9.588307e-06
80	0x37b1413d	2.1130423e-05
81	0x37ce5f1e	2.4601406e-05
82	0x3725b476	9.876783e-06
83	0x35e01d9c	1.6697918e-06
84	0x36dfb53c	6.6670164e-06
85	0xb717cacf	-9.047521e-06
86	0x3e60ba34	0.21946031
87	0x353c7b86	7.021521e-07
88	0x3514d20f	5.543997e-07
89	0x351de252	5.8816397e-07
90	0x3636058a	2.7123338e-06
91	0xb63ca658	-2.8111008e-06
92	0xb326f988	-3.8876834e-08
93	0xb3b09e22	-8.224403e-08
94	0xb971c8c5	-0.00023058344
95	0x3918f41b	0.00014586786
96	0x376ba72b	1.4046013e-05
97	0x37150d8f	8.884249e-06
98	0x3753ad62	1.2616949e-05
99	0xb74648b5	-1.1818648e-05
100	0xb71cfede	-9.3576655e-06
101	0xb762d0fc	-1.3519308e-05
102	0x36aedf52	5.211602e-06
103	0x3712a649	8.740994e-06
104	0xb711519e	-8.6616765e-06
105	0x33f6c1b4	1.1490502e-07
106	0x3719add5	9.159984e-06
107	0xb613d2e2	-2.2027457e-06
108	0xb70c56dc	-8.364874e-06
109	0x3708a103	8.14372e-06
110	0xb62e9dff	-2.6019986e-06
111	0xb65ba447	-3.2729165e-06
112	0x3739d764	1.1077009e-05
113	0x37400c98	1.1447024e-05
114	0x37416c39	1.1528894e-05
115	0x3619dcc7	2.2927286e-06
116	0xb4bf4d76	-3.5632883e-07
117	0x36d640aa	6.385225e-06
118	0x3638584d	2.7469534e-06
119	0x36f0a2e4	7.1715203e-06
120	0x3599a926	1.1448617e-06
121	0x37655a23	1.367045e-05
122	0x3535cff4	6.7730366e-07
123	0xb7755a6c	-1.4624191e-05
124	0x372d0b86	1.0314287e-05
125	0xb64f08f8	-3.0850624e-06
126	0xb71818b6	-9.0656595e-06
127	0xb6a247bb	-4.8363268e-06
128	0xb5a629fc	-1.2380183e-06
129	0x37167cf2	8.969788e-06
130	0x369b2ded	4.6247064e-06
131	0xb6f89b21	-7.4090353e-06
132	0xb75e6a43	-1.3256972e-05
133	0xb5d05c22	-1.5524022e-06
134	0xb666f568	-3.4415516e-06
135	0xb55206ce	-7.8241e-07
136	0xb692682c	-4.3632663e-06
137	0x36cafacd	6.049266e-06
138	0xb63795ae	-2.735625e-06
139	0x3678ae59	3.7056363e-06
140	0x373c3604	1.121825e-05
141	0xb763c960	-1.3577141e-05
142	0xb513024f	-5.4765127e-07
143	0x379232dd	1.7428241e-05
144	0xb76fada4	-1.4285939e-05
145	0x369137d0	4.327834e-06
146	0x3740bc49	1.148793e-05
147	0x35adbe68	1.294492e-06
148	0x355f1bbb	8.3114327e-07
149	0xb7241023	-9.778919e-06
150	0xb78f2bc5	-1.706731e-05
151	0x34fd9bc9	4.723827e-07
152	0xb668d5ea	-3.4695208e-06
153	0xb6830648	-3.9048355e-06
154	0x368bb48c	4.1635412e-06
155	0x3722522f	9.675087e-06
156	0xb79b426a	-1.8508366e-05
157	0xb6e08c9e	-6.69209e-06
158	0xb6878bc0	-4.0395826e-06
159	0x371ee8ee	9.471767e-06
160	0x358638d4	1.0000317e-06
161	0x3687e12b	4.0495265e-06
162	0xb726bcad	-9.9383005e-06
163	0x3386ff51	6.286303e-08
164	0xb6861b0d	-3.9966603e-06
165	0x3687099f	4.0244336e-06
166	0x35314c7b	6.604893e-07
167	0xb6b17927	-5.289115e-06
168	0x367a7d6c	3.7325908e-06
169	0x366257d7	3.3727754e-06
170	0x353da357	7.064568e-07
171	0xb71ae98a	-9.23349e-06
172	0x357b7dc6	9.368781e-07
173	0xb6f7e513	-7.3878414e-06
174	0xb326ac16	-3.8806398e-08
175	0x36927c6a	4.3656228e-06
176	0x352337bc	6.0803336e-07
177	0xb76b0085	-1.40072125e-05
178	0xb784baf6	-1.5822687e-05
179	0x3795a176	1.783737e-05
180	0xb73844d6	-1.0983282e-05
181	0x36d196f5	6.246259e-06
182	0x3739f494	1.1083805e-05
183	0xb2f54f92	-2.8557938e-08
184	0xb6bb76ab	-5.586849e-06
185	0x36a0b21f	4.7891076e-06
186	0xb46fcbb5	-2.2332718e-07
187	0xb5962ef6	-1.1189538e-06
188	0x359d61d9	1.1725889e-06
189	0x36e1ec61	6.7330407e-06
190	0x3565bf9f	8.5587993e-07
191	0xb683c691	-3.9272204e-06
192	0x36880eeb	4.0548525e-06
193	0xb7cb56f7	-2.4239982e-05
194	0xb78f6465	-1.7093678e-05
195	0x365d58c9	3.2983246e-06
196	0x35bd00ee	1.4081868e-06
197	0xb73861d1	-1.0990029e-05
198	0x3781f1c3	1.5490577e-05
199	0xb763069b	-1.3531792e-05
200	0xb72796e4	-9.989108e-06
201	0x36b32152	5.3384947e-06
202	0xb6b48d30	-5.3808544e-06
203	0xb7077542	-8.073928e-06
204	0x36899bdd	4.101063e-06
205	0xb60f8d28	-2.1390824e-06
206	0x36dde088	6.612452e-06
207	0xb66c375b	-3.5198962e-06
208	0xb6b922dd	-5.5174883e-06
209	0x3683d861	3.929294e-06
210	0xb6fda4ba	-7.5591643e-06
211	0xb61c9d71	-2.3337454e-06
212	0xb6c02577	-5.7264074e-06
213	0x36c9e004	6.0163457e-06
214	0xb751ca7b	-1.2504514e-05
215	0xb5d42eb5	-1.5808824e-06
216	0xb70a93ae	-8.259825e-06
217	0x379b6547	1.85246e-05
218	0x36f57fad	7.3164324e-06
219	0x36b12715	5.279561e-06
220	0x3690178b	4.294275e-06
221	0x366e7b12	3.55364e-06
222	0x3618976b	2.2737902e-06
223	0xb7b9834c	-2.2114858e-05
224	0x36fe9f9d	7.5883713e-06
225	0xb6905685	-4.3016066e-06
226	0xb607b1a5	-2.021997e-06
227	0x369e5f61	4.7198705e-06
228	0xb55b023e	-8.158712e-07
229	0x36b903e0	5.5138808e-06
230	0x36a16db5	4.8109455e-06
231	0x3774273a	1.45526665e-05
232	0x36a756f6	4.9871114e-06
233	0x3676a786	3.6754368e-06
234	0x371ec7c0	9.464042e-06
235	0xb7049aba	-7.903838e-06
236	0xb7609e77	-1.3388336e-05
237	0xb6cdd6eb	-6.134496e-06
238	0xb6819d02	-3.8627777e-06
239	0x35b98ee4	1.3825161e-06
240	0xb74ce380	-1.22123165e-05
241	0x3742f5e7	1.1620555e-05
242	0xb72447dc	-9.791893e-06
243	0x376e1dea	1.419287e-05
244	0xb6d153d3	-6.238444e-06
245	0xb70c4a48	-8.361945e-06
246	0x368c1efd	4.1759326e-06
247	0x35bf0303	1.4231485e-06
248	0x372649e8	9.911579e-06
249	0x35fe56ab	1.8949698e-06
250	0xb685144a	-3.966071e-06
251	0x3710f1d1	8.639371e-06
252	0xb67daf16	-3.7801851e-06
253	0x364a68ba	3.0161304e-06
254	0x3517258f	5.630654e-07
255	0x360947f6	2.0456478e-06

layers.8.bias f4 [100]
0	0xbd380c12	-0.044933386
1	0xbd5fb829	-0.05461899
2	0x3dae144b	0.08499964
3	0xbcc07890	-0.023494989
4	0x3e4e0c02	0.20121768
5	0xbc56623f	-0.013084947
6	0x3ec3519d	0.38148203
7	0xbd0a02ac	-0.033693954
8	0x3d44a7b8	0.04801151
9	0xbd48b0c6	-0.04899671
10	0xbb8da382	-0.00432247
11	0x3d81246c	0.06305775
12	0x3e8ddcda	0.2770756
13	0xbdaf6943	-0.08564999
14	0x3ded6ea0	0.11593366
15	0xbdb3f1a9	-0.087863274
16	0x3d4e665d	0.05039059
17	0xbd8c38f2	-0.06846799
18	0xbe0f6b96	-0.14005885
19	0x3e022cdc	0.12712425
20	0x3ecdb5ae	0.40177673
21	0xbd628233	-0.05529995
22	0x3d3c37a2	0.045951493
23	0xbe2cda38	-0.16880119
24	0x3d62b100	0.05534458
25	0x3e325d21	0.17418338
26	0xbc3365fe	-0.01094961
27	0x3e9f9250	0.31166315
28	0x3e82e81d	0.25567713
29	0x3eaea286	0.3410837
30	0x3ed8e230	0.42360067
31	0x3ee0658d	0.43827477
32	0x3e6476f6	0.22311005
33	0x3eb9f9bb	0.36323342
34	0x3ecfe9a2	0.40607935
35	0xbd85a189	-0.06524951
36	0x3e999c5f	0.30002114
37	0xbd13b7a7	-0.036063816
38	0xbd7f4b43	-0.062327635
39	0x3e9ad662	0.30241686
40	0xbd67bfcf	-0.056579407
41	0xbbfbadbe	-0.007680624
42	0x3d26dfbc	0.040740713
43	0x3da5b252	0.080906525
44	0x3f01749b	0.5056855
45	0xbde29ff4	-0.11065665
46	0xbdc548e7	-0.09633046
47	0xbd8491b2	-0.06473102
48	0x3e924e41	0.28575328
49	0x3e0492ef	0.12946676
50	0x3e161f4d	0.14660378
51	0xbd50c3fe	-0.050968163
52	0xbe3a214f	-0.18176769
53	0x3e97fa1c	0.29683006
54	0x3d9df645	0.07712988
55	0x3e961532	0.29313046
56	0x3b02028c	0.0019837944
57	0xbdca5c4e	-0.09880887
58	0x3e1a70dd	0.15082116
59	0xbd5906e8	-0.052985102
60	0xbda52384	-0.08063415
61	0x3e88a394	0.266873
62	0x3f115cae	0.5678204
63	0x3e36d311	0.17853953
64	0xbbac58f2	-0.0052596265
65	0x3d4cfdac	0.050046608
66	0xbe2c01e7	-0.167976
67	0x3ec2ff15	0.38085237
68	0x3e8135e4	0.25236428
69	0x3d4232e8	0.04741183
70	0xbdbd3400	-0.09238434
71	0xbd3f2bc8	-0.046672612
72	0x3e25bb53	0.1618474
73	0x3d3dce49	0.046339307
74	0x3e9ad4f7	0.30240604
75	0xbc9df49d	-0.01928168
76	0xbdddb9fd	-0.1082649
77	0x3cb5b62d	0.022181595
78	0x3c5b0201	0.013367177
79	0xbb3e931d	-0.0029079386
80	0xbd8a958c	-0.06766805
81	0xbe3355fa	-0.17513266
82	0x3e3dcfe8	0.18536341
83	0x3d35dfee	0.04440301
84	0x3d4c9bed	0.04995339
85	0xbb873658	-0.0041263513
86	0x3e018adb	0.12650625
87	0x3ce7aa73	0.028279519
88	0x3cf14d3f	0.02945578
89	0xbae8d2c1	-0.0017763005
90	0xbbcebda9	-0.0063092303
91	0xbe036e24	-0.12834984
92	0xbda5c3f6	-0.08094017
93	0x3f008007	0.50195354
94	0x3e506ba1	0.20353557
95	0x3d350a3d	0.044199217
96	0x3badfa08	0.005309347
97	0xbd53ada0	-0.051679254
98	0xbdabd408	-0.08390051
99	0xbb7d4ca0	-0.0038650408

layers.10.weight f4 [10, 100]
0	0xbed6ce01	-0.41954044
1	0x37b30713	2.1341757e-05
2	0x3782230d	1.551353e-05
3	0xb66494bb	-3.406122e-06
4	0x39a89a46	0.000321584
5	0xb7bf9905	-2.284023e-05
6	0x397d878e	0.00024178458
7	0x35ff4477	1.9018906e-06
8	0x3f2613e2	0.6487409
9	0x33e58cbf	1.0689245e-07
10	0x35a9762b	1.2625873e-06
11	0xbe9b1651	-0.30290464
12	0x3e708fb2	0.23492315
13	0x373c9506	1.124037e-05
14	0xbf0337cb	-0.5125701
15	0xb6c61534	-5.903328e-06
16	0x37965c63	1.7924414e-05
17	0xbe741062	-0.23834375
18	0x3876e664	5.886554e-05
19	0x3930b6e4	0.000168528
20	0x39194c64	0.00014619675
21	0xb6f4e958	-7.2989315e-06
22	0xb6cbe45d	-6.0764564e-06
23	0xbe59a719	-0.21255149
24	0x36ebd7ce	7.0286687e-06
25	0x39d57d55	0.00040719906
26	0xbf09b751	-0.53795344
27	0x3997576b	0.00028866096
28	0x3f1d6a23	0.61490077
29	0x39341b6b	0.00017176352
30	0x391bebf7	0.00014869856
31	0x3967c3f2	0.00022102872
32	0xbe99c9c7	-0.30036756
33	0xb822ac7e	-3.8784456e-05
34	0xb914f3f1	-0.00014205255
35	0xb78a3872	-1.6477166e-05
36	0x38aaa4d3	8.1369326e-05
37	0x3982f9cc	0.00024981645
38	0xb6a6a443	-4.966308e-06
39	0x3e12fe3d	0.14354797
40	0xb64323eb	-2.9078171e-06
41	0x371b96f8	9.27387e-06
42	0x3e9a003b	0.300783
43	0x3e14c661	0.145288
44	0x3865f948	5.4830016e-05
45	0x3d42ffac	0.04760711
46	0x370559d8	7.948336e-06
47	0x36b65c4b	5.434767e-06
48	0xbb1f8ead	-0.0024346516
49	0xb8735e19	-5.802335e-05
50	0x38d7f474	0.00010297532
51	0xb725ebeb	-9.889695e-06
52	0x372887fe	1.00452435e-05
53	0xbe3b74ca	-0.1830627
54	0xbe42fb03	-0.19041066
55	0xb7566027	-1.2777781e-05
56	0x3e8854dd	0.26627246
57	0xb5f727be	-1.8414501e-06
58	0xbd2a1e1e	-0.04153263
59	0x362f3310	2.6106754e-06
60	0xb6ea6930	-6.985989e-06
61	0x3915e5cc	0.00014295353
62	0x3942015e	0.00018501791
63	0xba760eba	-0.00093863497
64	0x373dd0a1	1.1313853e-05
65	0x383bd952	4.478667e-05
66	0xb5a81c1d	-1.2525157e-06
67	0xbddcf0c6	-0.107881114
68	0xbc3157b7	-0.0108241355
69	0x37877d4a	1.6151596e-05
70	0xb7390915	-1.1028974e-05
71	0x3f1e3d24	0.61812043
72	0x38f8bdd8	0.00011860923
73	0x36a168d8	4.8103793e-06
74	0xb86b2b31	-5.606859e-05
75	0xb5b86970	-1.3739755e-06
76	0x36063099	1.9995844e-06
77	0xbedd7c14	-0.43258727
78	0x3d9663a6	0.07343225
79	0x38a08164	7.6534954e-05
80	0xb6a86004	-5.017968e-06
81	0xbeb79354	-0.3585459
82	0x38dc8c69	0.00010516571
83	0xb6ba3d03	-5.5503347e-06
84	0x388db231	6.756595e-05
85	0x37733b19	1.4497688e-05
86	0x3916fdd8	0.00014399679
87	0xbf07b7c7	-0.53014797
88	0x3dd0b4bb	0.101907216
89	0xb4f618bc	-4.5839067e-07
90	0xb65150ad	-3.1190386e-06
91	0xb5f33a38	-1.8121855e-06
92	0xb7e8209a	-2.7671736e-05
93	0xbf50480e	-0.81359947
94	0x3e63c82c	0.22244328
95	0xb6a5035a	-4.9177734e-06
96	0x3e77eb55	0.24210866
97	0xb7045523	-7.887636e-06
98	0xb6cee710	-6.1661776e-06
99	0x370a1c3a	8.232013e-06
100	0x3dc0a728	0.094068825
101	0xb5f3f51b	-1.8176246e-06
102	0x36c582f9	5.8863047e-06
103	0x35f1141b	1.7961751e-06
104	0xbea37001	-0.3192139
105	0xbe8343f4	-0.25637782
106	0x36079a53	2.0206396e-06
107	0x34ae0c7f	3.2419118e-07
108	0x390231d3	0.00012416327
109	0xb7885e50	-1.6256381e-05
110	0xb71a6d57	-9.204573e-06
111	0x3f1652e2	0.5872022
112	0xbf014abd	-0.50504667
113	0xb69dd5e8	-4.7038666e-06
114	0x3cde4b16	0.027135413
115	0xb5c1a16d	-1.4426602e-06
116	0x370c6214	8.367486e-06
117	0x3e3b594c	0.18295783
118	0xbe3c5698	-0.18392408
119	0xb7903da5	-1.7194843e-05
120	0xbeab24ac	-0.33426416
121	0x371568af	8.905466e-06
122	0x3729b9de	1.01164605e-05
123	0x3ebdc585	0.37064758
124	0x374b7129	1.212609e-05
125	0xbda5c6e6	-0.080945775
126	0x3e45ac1e	0.19303939
127	0xb98e5551	-0.00027147916
128	0xba37068b	-0.0006981871
129	0x385642c5	5.108376e-05
130	0xbf58f512	-0.8474895
131	0xbe996df7	-0.2996671
132	0x3e018954	0.12650043
133	0xb9216ec1	-0.00015395416
134	0x3d8b3c39	0.06798596
135	0x368ad973	4.138035e-06
136	0xb8260f53	-3.9591756e-05
137	0x37de7438	2.651858e-05
138	0x37531aea	1.25828465e-05
139	0xbdd06f92	-0.1017753
140	0xb70b15af	-8.290094e-06
141	0x35704d26	8.9519233e-07
142	0xbec96594	-0.3933531
143	0x3d5dbfaa	0.054137863
144	0xbf261f57	-0.6489157
145	0xbf1ae330	-0.6050291
146	0xb46e5561	-2.2196538e-07
147	0x35bae38f	1.3924308e-06
148	0x387da224	6.0470906e-05
149	0x3e392e1b	0.18083994
150	0x36bd52fd	5.6423e-06
151	0xb52d8629	-6.464275e-07
152	0x36da82f6	6.512152e-06
153	0x3e7c2143	0.24622063
154	0x3de8673b	0.11347815
155	0x3dd9a6e0	0.10627532
156	0x3656b302	3.1992681e-06
157	0x36906478	4.3032305e-06
158	0xba45e422	-0.0007548948
159	0x36cfec5c	6.1965966e-06
160	0x38982308	7.25445e-05
161	0x38455885	4.70509e-05
162	0xbf3c65d0	-0.73592854
163	0x3ad44b28	0.0016196715
164	0xb6c21e1a	-5.785155e-06
165	0xb6adc2b2	-5.1784673e-06
166	0x3697b8cd	4.5216643e-06
167	0xb7d52330	-2.5407964e-05
168	0x398a9792	0.0002643434
169	0xb6c13722	-5.7582665e-06
170	0x33ff12df	1.18777955e-07
171	0xb6f744fe	-7.3692054e-06
172	0x37f66441	2.937217e-05
173	0xb75b1d10	-1.3060184e-05
174	0x3ebbcac7	0.36678144
175	0xb71de562	-9.411337e-06
176	0x32bfe057	2.2337344e-08
177	0x3e560a3f	0.20902346
178	0x397e3677	0.00024243617
179	0xbdb6cf61	-0.08926273
180	0x36e74f17	6.8935437e-06
181	0x3e91e805	0.2849733
182	0x380d2008	3.364685e-05
183	0xb671a431	-3.600737e-06
184	0xb733ed51	-1.0724486e-05
185	0x36b24199	5.31245e-06
186	0x36b6d78e	5.4491165e-06
187	0x3decf694	0.115704685
188	0x3c2c5926	0.0105193015
189	0x37e3a3c3	2.7136766e-05
190	0xb607d5a5	-2.0240925e-06
191	0x3771bfe6	1.4409399e-05
192	0x371e7117	9.443865e-06
193	0xbe7ead8e	-0.24870893
194	0x3890e7fc	6.9096655e-05
195	0xb5ba308a	-1.3872207e-06
196	0xbf0759da	-0.5287148
197	0xb51ef369	-5.9213795e-07
198	0x3688423e	4.0608275e-06
199	0xb48a915a	-2.581026e-07
200	0xbe632b12	-0.22184399
201	0x36bd97aa	5.650295e-06
202	0x378900e0	1.633208e-05
203	0x36a7e26d	5.0033473e-06
204	0x3e3af5b3	0.1825779
205	0xbe601bef	-0.21885656
206	0x3ef38796	0.4756438
207	0x3708ce6b	8.154292e-06
208	0xbec73d5c	-0.38914
209	0x368caf71	4.192749e-06
210	0xb488e60c	-2.5499355e-07
211	0xb93d3468	-0.00018043967
212	0x3e10a7aa	0.14126459
213	0xb662f569	-3.3819472e-06
214	0x3ed4474e	0.4146065
215	0xb6b64680	-5.43223e-06
216	0xb7052caf	-7.9378215e-06
217	0x3994f4ac	0.00028411055
218	0xb9fee968	-0.00048620556
219	0xb8213446	-3.8434075e-05
220	0xb9b08e52	-0.00033675373
221	0xb68b4fea	-4.151826e-06
222	0x3730e691	1.05441e-05
223	0xbebf2b48	-0.37337708
224	0xb7e4cac6	-2.7274142e-05
225	0x3c1d43fc	0.009598728
226	0xb993ed27	-0.00028214717
227	0x38e68e8b	0.00010993805
228	0x3eae960f	0.3409886
229	0xb9879dab	-0.00025866678
230	0x37f93db0	2.9711839e-05
231	0x39587ce2	0.00020645888
232	0xb99987d4	-0.00029283634
233	0x38eef074	0.00011393512
234	0x3e2f9947	0.17148314
235	0x3711e094	8.694962e-06
236	0x3da46268	0.08026582
237	0xb98aa85c	-0.0002644685
238	0xb787bbab	-1.6180644e-05
239	0x3ec4e8de	0.38458914
240	0x35ded9eb	1.6603711e-06
241	0xb6dd40bd	-6.59385e-06
242	0xb8c16fbb	-9.2237686e-05
243	0xb7b60b23	-2.1701277e-05
244	0xba120ffc	-0.000557184
245	0xbeee32bd	-0.46523085
246	0x36ddd1ad	6.6107227e-06
247	0x37072470	8.055111e-06
248	0xbdbb0c9f	-0.09133267
249	0xb96fecb6	-0.00022880998
250	0xb835f520	-4.3382053e-05
251	0xb6b26ae9	-5.3172594e-06
252	0x37071dac	8.053536e-06
253	0x393ad36b	0.00017817102
254	0xbe9d19e7	-0.30683824
255	0xbf74cb5b	-0.95622796

layers.10.bias f4 [10]
0	0x3d521226	0.05128684
1	0xbe70495b	-0.23465483
2	0x3e8db351	0.2767587
3	0xbc46c9f2	-0.012133108
4	0xbe145b70	-0.14488006
5	0xbe40c49e	-0.18825004
6	0xbe58f764	-0.21188122
7	0xbde25ede	-0.11053251
8	0x3ed195b3	0.40934524
9	0x3deb2536	0.11481707
