mnist_nets/fc7.pt (torch, 483803 bytes, 12 tensors)

layers.2.weight f4 [100, 784]
0	0xb7b66504	-2.174313e-05
1	0xb7a43241	-1.9573725e-05
2	0x384cab9c	4.8797214e-05
3	0x384a8d15	4.8291946e-05
4	0xb7b61920	-2.170779e-05
5	0xb7842b1c	-1.57557e-05
6	0xb7b77db9	-2.1873844e-05
7	0x37bca143	2.248644e-05
8	0xb7b8ab0c	-2.201416e-05
9	0xb7bac239	-2.226337e-05
10	0xb7a9940b	-2.0215308e-05
11	0x3853887c	5.043343e-05
12	0xb7a51098	-1.967726e-05
13	0xb7a42141	-1.9565809e-05
14	0x3846e4a2	4.741981e-05
15	0xb70bea2b	-8.339567e-06
16	0x380209b6	3.100346e-05
17	0xb7ae8116	-2.0802527e-05
18	0xb6d3b5ed	-6.309469e-06
19	0xb7a98e0b	-2.0212514e-05
20	0x3801e462	3.0968695e-05
21	0x3803d792	3.14336e-05
22	0xb7aeb048	-2.0824504e-05
23	0xb6d684f6	-6.3931757e-06
24	0xb7a405c1	-1.9553003e-05
25	0xb7076b3a	-8.071593e-06
26	0xb7ae8256	-2.0803109e-05
27	0xb7b6fcf1	-2.1813876e-05
28	0x384a770e	4.827143e-05
29	0x384b162c	4.841962e-05
30	0xb7aea316	-2.081836e-05
31	0x384a8075	4.8280188e-05
32	0xb7ea157f	-2.7904984e-05
33	0x38468013	4.7326157e-05
34	0x3846eb5f	4.7426085e-05
35	0x37bca6e4	2.2489061e-05
36	0xb7bceea1	-2.2522467e-05
37	0xb7afed4b	-2.0972124e-05
38	0x38715d7a	5.7545934e-05
39	0xb7935949	-1.7565342e-05
40	0xb7bf00d1	-2.2769354e-05
41	0xb798f49f	-1.8233723e-05
42	0xb715a1ce	-8.918765e-06
43	0x382672d9	3.9684444e-05
44	0xb71833a0	-9.071926e-06
45	0xb7cf2ea0	-2.4698034e-05
46	0xb705dbc1	-7.978583e-06
47	0x380396d8	3.1373318e-05
48	0xb7a40405	-1.9552195e-05
49	0xb7c16fa8	-2.3059387e-05
50	0xb7cb343a	-2.4223806e-05
51	0xb7a4282b	-1.9569028e-05
52	0xb7ae65e8	-2.078987e-05
53	0x384b89c3	4.8527272e-05
54	0xb711a5d1	-8.681281e-06
55	0xb6f473ec	-7.2852617e-06
56	0xb7b776b7	-2.187058e-05
57	0xb6d3480f	-6.2966787e-06
58	0xb7b8bf0c	-2.2023472e-05
59	0xb7bc158d	-2.2421382e-05
60	0xb7cbdb4c	-2.4301604e-05
61	0x37bf4e97	2.280557e-05
62	0xb7ca6f4b	-2.4132101e-05
63	0xb7c05525	-2.2927832e-05
64	0x38c1c7f8	9.240204e-05
65	0xb7722aa3	-1.4434251e-05
66	0xb69f9fdf	-4.7571807e-06
67	0xb6f77740	-7.375056e-06
68	0xb7d5d71f	-2.5491752e-05
69	0x3818fae6	3.647329e-05
70	0x383826b0	4.390505e-05
71	0xb54810ea	-7.453042e-07
72	0x393627ec	0.00017371745
73	0x37bb39cb	2.231905e-05
74	0xb722d45f	-9.705399e-06
75	0xb6ff067b	-7.6003466e-06
76	0x384cfcb3	4.8872735e-05
77	0xb73dc26b	-1.1310544e-05
78	0x37f38d29	2.903359e-05
79	0xb7d51b34	-2.5404246e-05
80	0xb7b5e2d3	-2.1682505e-05
81	0xb7054c7a	-7.945224e-06
82	0x37be8d69	2.2715614e-05
83	0xb784631c	-1.5781778e-05
84	0x3801f722	3.0986157e-05
85	0xb7eb4e5b	-2.805067e-05
86	0x384709f3	4.7454563e-05
87	0xb7857d50	-1.5913189e-05
88	0x38792d99	5.9408692e-05
89	0xb704e80a	-7.921839e-06
90	0x38234ec5	3.893559e-05
91	0x38c5b911	9.428163e-05
92	0x38e7cb8a	0.000110528505
93	0x38e05018	0.00010696071
94	0xb5b4e6ee	-1.3478254e-06
95	0x38bcd6fd	9.004583e-05
96	0xb7947d0e	-1.7701208e-05
97	0x38213946	3.843873e-05
98	0x3789036a	1.6333262e-05
99	0x38131196	3.506391e-05
100	0x38c157de	9.219324e-05
101	0xb637c9e3	-2.7386639e-06
102	0x38688c95	5.5444038e-05
103	0x37ce06cf	2.4560284e-05
104	0xb71618f3	-8.946506e-06
105	0xb797bcd7	-1.8088538e-05
106	0x38447209	4.6836245e-05
107	0x384ce05c	4.884634e-05
108	0x38105fa4	3.4421348e-05
109	0xb7a27621	-1.9366913e-05
110	0xb7aea073	-2.0817131e-05
111	0x384bb5d6	4.856832e-05
112	0x384bb24f	4.8565034e-05
113	0xb7926555	-1.7451743e-05
114	0xb6d78664	-6.4231444e-06
115	0x3842e98d	4.6470715e-05
116	0xb712371c	-8.715109e-06
117	0xb742da9c	-1.16142e-05
118	0x3952d5ae	0.00020106763
119	0x382e6d47	4.1586605e-05
120	0xb88b059b	-6.6290806e-05
121	0xb69cf715	-4.6779264e-06
122	0xb907b2c5	-0.000129412
123	0xb8c546ca	-9.4068775e-05
124	0xb815340f	-3.557285e-05
125	0x391c06ff	0.00014879926
126	0x3835eaf2	4.3372573e-05
127	0x38a5a2fa	7.89817e-05
128	0x38f3a9a7	0.00011618743
129	0x392f3733	0.00016709864
130	0x38c7dde5	9.5303905e-05
131	0xb71bb576	-9.28097e-06
132	0x37cb0e54	2.4206158e-05
133	0x3839ba49	4.428093e-05
134	0x383f1bb1	4.556374e-05
135	0xb6efda76	-7.1481873e-06
136	0xb74eb38d	-1.2320362e-05
137	0x3849d033	4.8116035e-05
138	0xb7afbdb5	-2.0949965e-05
139	0xb6f3eb85	-7.2693824e-06
140	0xb7ae88d3	-2.080613e-05
141	0xb7ae8d48	-2.0808206e-05
142	0x38527665	5.0178165e-05
143	0xb7be5cf3	-2.2693048e-05
144	0xb7848870	-1.579916e-05
145	0xb7daa07a	-2.6062353e-05
146	0xb7283df1	-1.0028002e-05
147	0xb84d16cc	-4.889704e-05
148	0xb88b21e4	-6.634349e-05
149	0xb87f478d	-6.0863375e-05
150	0xb9846565	-0.00025252547
151	0xb8e243ba	-0.00010789135
152	0xb925c5d2	-0.0001580932
153	0xb95dfd98	-0.00021170673
154	0xb9092a7b	-0.00013081163
155	0xb938de03	-0.00017630313
156	0xb90cbb59	-0.00013421233
157	0xb9828803	-0.0002489687
158	0xb884b14d	-6.327275e-05
159	0x37372731	1.0916775e-05
160	0x38b9098a	8.823264e-05
161	0x379a8591	1.8420427e-05
162	0x3959fe70	0.00020789518
163	0x3813419f	3.5108646e-05
164	0x38e708c6	0.000110165725
165	0x382e8ce6	4.1616055e-05
166	0xb7cd24b5	-2.4454997e-05
167	0xb7b0ef2d	-2.109221e-05
168	0xb7b55f0d	-2.1621143e-05
169	0xb711fe6a	-8.701909e-06
170	0x37f8faa3	2.9680616e-05
171	0x37bf2155	2.2784496e-05
172	0xb7725059	-1.4443031e-05
173	0x392d3404	0.00016517943
174	0x39f34376	0.00046398834
175	0x39de4643	0.0004239549
176	0x39e910ae	0.0004445365
177	0x3987165f	0.00025765874
178	0x39525b5a	0.00020061192
179	0x390e37f9	0.00013563027
180	0xb86b37a5	-5.608019e-05
181	0xb96bdd68	-0.00022493827
182	0xb99f4829	-0.00030380607
183	0xb9c3a7f0	-0.00037318422
184	0xb99570ae	-0.00028503448
185	0xb9ab61ce	-0.00032688532
186	0xb9627f75	-0.00021600521
187	0x37befc97	2.2767386e-05
188	0x38e61fc0	0.000109731685
189	0x3634b2c8	2.6926155e-06
190	0xb77c89cd	-1.5052455e-05
191	0x3872cec3	5.7889858e-05
192	0x39007df7	0.00012253957
193	0x37edf799	2.8367898e-05
194	0x3908b42d	0.00013037091
195	0xb5272253	-6.2262296e-07
196	0x383044eb	4.2025855e-05
197	0x384cd75d	4.8837963e-05
198	0xb7ecb065	-2.8215532e-05
199	0xb5c62045	-1.4761541e-06
200	0x3a28684a	0.00064242317
201	0x3a2eb29a	0.0006664187
202	0x39d0c6db	0.0003982101
203	0x3a152850	0.0005689906
204	0x3834530f	4.29927e-05
205	0x38b19706	8.468148e-05
206	0x388fa7e8	6.850046e-05
207	0xb815b64c	-3.5694145e-05
208	0xb809bf47	-3.2841486e-05
209	0x37cb0d4a	2.4205674e-05
210	0x38b2174f	8.492043e-05
211	0x39b0163c	0.00033585902
212	0x39b25e33	0.0003402099
213	0x39ff907c	0.0004874504
214	0x3a13e904	0.0005642327
215	0x39d58fca	0.00040733657
216	0x39a7ecca	0.00032029144
217	0x38c9c1c6	9.62052e-05
218	0xb8001e46	-3.0545772e-05
219	0x39030006	0.00012493142
220	0x38a71618	7.967296e-05
221	0xb6428053	-2.8982947e-06
222	0xb84a703c	-4.826508e-05
223	0xb70dadba	-8.444704e-06
224	0xb7a411b4	-1.9558567e-05
225	0xb788df21	-1.6316366e-05
226	0x38957545	7.126717e-05
227	0x38cf7b0f	9.8934506e-05
228	0x3a2da0c3	0.00066233816
229	0x3a878278	0.0010338565
230	0x3a547467	0.00081045035
231	0x3ac10a5f	0.0014727822
232	0x3be5656d	0.0070006163
233	0x3c2883ec	0.010285359
234	0x3c8c858e	0.017153528
235	0x3986072f	0.00025563824
236	0x38eb4d56	0.00011220078
237	0x399f41a1	0.0003037574
238	0x3cf715bd	0.030161733
239	0x3a49fa66	0.0007704854
240	0x39abde30	0.00032781204
241	0x3babff8a	0.0052489685
242	0x3c64b40d	0.013958943
243	0x3b64039e	0.0034792195
244	0x3b253ca5	0.002521315
245	0x3b08851b	0.002083129
246	0x39f616a2	0.0004693764
247	0xb814487d	-3.535346e-05
248	0xb717a38e	-9.038382e-06
249	0x3938517d	0.00017577964
250	0x37b85a2a	2.1976495e-05
251	0x3852c2cd	5.0249324e-05
252	0x38319e50	4.234753e-05
253	0x3692c4b5	4.374039e-06
254	0x37f8a366	2.9639992e-05
255	0xb78e0a09	-1.6932392e-05

layers.2.bias f4 [100]
0	0x3f80e8ca	1.0071042
1	0x3f7b5b3f	0.98186105
2	0xc00a2da2	-2.1590352
3	0xbfdcb5d8	-1.7242994
4	0xbfbe0f0c	-1.4848342
5	0xbef84396	-0.48489064
6	0xbf2cee68	-0.6755128
7	0xbfb7f360	-1.4371147
8	0xbfb8307f	-1.43898
9	0xc0017a33	-2.0230834
10	0xbf0a3389	-0.53984886
11	0xbfa03303	-1.2515568
12	0x3f8fa429	1.1221973
13	0xbd949dfa	-0.07256694
14	0xbfceff68	-1.6171694
15	0xbf9752bd	-1.1822125
16	0xbd60da08	-0.05489543
17	0xbd88209e	-0.06646846
18	0x3fd0a8f3	1.6301559
19	0xbd8e1c0c	-0.06938943
20	0xbff0461d	-1.8771397
21	0xbf84cc15	-1.0374781
22	0xbd106f05	-0.035262126
23	0x3fb415c2	1.406914
24	0xbd0ea78b	-0.03482775
25	0x3f8f7197	1.120654
26	0xc002930a	-2.0402246
27	0xbfa1679d	-1.2609745
28	0xbee36cc0	-0.44418907
29	0xbda0c456	-0.07849948
30	0xc014fd66	-2.3279662
31	0xc01f1e32	-2.486218
32	0x3f3540b1	0.70801836
33	0xbfbec2da	-1.4903214
34	0xbd1ae0d3	-0.037812065
35	0xbfd43c75	-1.658095
36	0xc01c2330	-2.4396477
37	0xbd3c7a40	-0.046015024
38	0xbfd4215c	-1.657268
39	0xbd5acacf	-0.05341607
40	0xbf026c30	-0.5094633
41	0xbf79b916	-0.97548044
42	0x3f6e5ba5	0.9310859
43	0xc002bb6b	-2.042689
44	0xbd110249	-0.03540257
45	0xbda55aee	-0.08073984
46	0xbff41e28	-1.9071703
47	0xbf9133cf	-1.1343936
48	0xbf659f6c	-0.89696383
49	0xbf67c11e	-0.9052905
50	0xbfd07efa	-1.628875
51	0xbd2e971b	-0.042624574
52	0xc026e8f2	-2.6079679
53	0xbf88df5e	-1.0693166
54	0x3f049886	0.5179523
55	0xbe152a17	-0.14566837
56	0xbd7f8773	-0.062385034
57	0x3f8bddfe	1.0927122
58	0xc002cae8	-2.0436344
59	0xbd542b73	-0.05179925
60	0xbfaa29cb	-1.3294004
61	0xbee0e097	-0.43921348
62	0xbfe71a00	-1.805481
63	0x3f8d568a	1.1042035
64	0xbfad4e6b	-1.3539556
65	0xbf121be2	-0.57073796
66	0xc0131d9f	-2.298683
67	0xc00d85e0	-2.211296
68	0xbf877b95	-1.0584589
69	0xbe2e363a	-0.17012873
70	0x3ee3c8dd	0.44489184
71	0xbd0d2cfc	-0.03446673
72	0xbd176cad	-0.036968876
73	0xbd0c6282	-0.034273632
74	0xbdc80260	-0.09766078
75	0xbd682b6c	-0.056682035
76	0xbf92842a	-1.1446583
77	0xbcfe5db3	-0.031050539
78	0xbf4f54ed	-0.8098896
79	0xbf4513ca	-0.7698332
80	0x3f8f8fe0	1.1215782
81	0xbd0f722d	-0.035020996
82	0xbff1f891	-1.8903981
83	0x3f32759e	0.6971072
84	0xbfadbddf	-1.3573569
85	0xc006878b	-2.102023
86	0xbd146fb6	-0.03623935
87	0xbed90b24	-0.42391312
88	0xbf315287	-0.6926655
89	0xbfee2a0a	-1.8606579
90	0xbcad6e8b	-0.021170875
91	0xbf1e7715	-0.61900455
92	0xc00c8b7e	-2.196014
93	0xbfd32f87	-1.6498879
94	0xbfea835a	-1.8321335
95	0xbe5213a1	-0.205153
96	0xbf7d13de	-0.9885844
97	0xc00abf78	-2.1679363
98	0xbff9d44f	-1.9517916
99	0xbfec55a5	-1.8463637

layers.4.weight f4 [100, 100]
0	0xb64f348f	-3.0875997e-06
1	0xb813f80a	-3.5278536e-05
2	0x378287d7	1.5560463e-05
3	0x354121fb	7.194755e-07
4	0x37a05cc0	1.9116676e-05
5	0xb78d2930	-1.682769e-05
6	0x32e6ec72	2.6883047e-08
7	0x370020a3	7.636993e-06
8	0xb7707ffa	-1.4334912e-05
9	0xb7e1d772	-2.6922415e-05
10	0xb78e1c83	-1.6940996e-05
11	0xb6b08224	-5.260359e-06
12	0xb7c71c9d	-2.3735973e-05
13	0x37f5a693	2.9283843e-05
14	0x35e03204	1.6703857e-06
15	0x37b01771	2.099175e-05
16	0x373e3abb	1.1338557e-05
17	0xb6cb6e22	-6.0626926e-06
18	0x374c17d3	1.21648945e-05
19	0x3599ee06	1.1468662e-06
20	0x374625d4	1.1810527e-05
21	0x3723120a	9.719757e-06
22	0xb741c339	-1.154915e-05
23	0xb8164f31	-3.583654e-05
24	0xb763dd85	-1.3581831e-05
25	0x36b085f1	5.2608016e-06
26	0x384e8f9f	4.9247985e-05
27	0xb7629107	-1.35044165e-05
28	0xb7382c77	-1.0977607e-05
29	0xb7903720	-1.7191807e-05
30	0x35102292	5.3694487e-07
31	0xb74a4c2f	-1.2057876e-05
32	0x37797a6a	1.4870058e-05
33	0x371fe75c	9.531006e-06
34	0x35fbae6e	1.8751723e-06
35	0xb72dec2b	-1.0366591e-05
36	0xb753c324	-1.2622015e-05
37	0x38873efb	6.449033e-05
38	0xb7cabeee	-2.4169185e-05
39	0xb72d992c	-1.0347267e-05
40	0xb6319cbe	-2.6466291e-06
41	0xb6b78573	-5.4693605e-06
42	0xb680b7c5	-3.836091e-06
43	0xb8169aea	-3.5907062e-05
44	0xb7e985e6	-2.7838116e-05
45	0x35ab1f78	1.2749651e-06
46	0x3627512e	2.4932192e-06
47	0xb5d502d3	-1.5870559e-06
48	0x36a087ce	4.7841813e-06
49	0xb6bee6d3	-5.6893127e-06
50	0x37647197	1.3616306e-05
51	0x35b49783	1.3455141e-06
52	0xb784840e	-1.5797119e-05
53	0x35f1ea6b	1.8024124e-06
54	0xb8014cb6	-3.082744e-05
55	0xb76d1009	-1.4130034e-05
56	0x37b8e454	2.2040833e-05
57	0xb633307c	-2.67013e-06
58	0x3623b5f0	2.4394794e-06
59	0xb7881dc4	-1.6226324e-05
60	0x37809e6c	1.533256e-05
61	0xb781364e	-1.5403286e-05
62	0xb74be3d8	-1.2152792e-05
63	0xb7516745	-1.2481415e-05
64	0x3658a4c0	3.2282405e-06
65	0x343c374b	1.752898e-07
66	0x38265a71	3.9661714e-05
67	0x368a3aae	4.1195517e-06
68	0xb55fb1fb	-8.333297e-07
69	0x3615ff7f	2.2351448e-06
70	0x36ddfe4e	6.615918e-06
71	0xb61cc87e	-2.3362513e-06
72	0x36e8650b	6.9259017e-06
73	0xb79ec08d	-1.8924731e-05
74	0x373d6002	1.1287631e-05
75	0x383bc211	4.4765013e-05
76	0xb820f460	-3.8374565e-05
77	0xb7201f02	-9.543963e-06
78	0xb3ab968f	-7.9901945e-08
79	0xb55f114b	-8.309914e-07
80	0xb7fdabbf	-3.0239926e-05
81	0xb6607fdf	-3.3453032e-06
82	0x364c2df2	3.0425113e-06
83	0x3682d994	3.8996313e-06
84	0xb768c11d	-1.387324e-05
85	0xb6a94e36	-5.0456974e-06
86	0x371ccbb5	9.345754e-06
87	0x37400572	1.144536e-05
88	0xb55b050c	-8.15912e-07
89	0x33a7b460	7.8093535e-08
90	0xb5020fe0	-4.8451875e-07
91	0x3747743c	1.1888387e-05
92	0x381613a3	3.5781075e-05
93	0x380d3184	3.3663135e-05
94	0xb6ea6e72	-6.986601e-06
95	0xb6b531dc	-5.4000247e-06
96	0x387a8c70	5.9735437e-05
97	0x370a8764	8.256964e-06
98	0x384b6daa	4.8501104e-05
99	0xb8137fe1	-3.5166628e-05
100	0x38bf8c94	9.1337744e-05
101	0x39071f0c	0.00012886169
102	0xba176439	-0.0005775127
103	0x38a2da84	7.765464e-05
104	0xbdc56b0c	-0.09639558
105	0xba2bd9a3	-0.0006555563
106	0xb84adb9d	-4.8365084e-05
107	0xb909a2e7	-0.00013126024
108	0xbe18d8ce	-0.14926454
109	0x39f146b3	0.00046019777
110	0x37e1a254	2.689768e-05
111	0x38799512	5.950506e-05
112	0x3693037f	4.3813484e-06
113	0x3790bc90	1.7253944e-05
114	0xbd206eee	-0.03916829
115	0x3c2ac129	0.0104220295
116	0xb783e7f5	-1.572443e-05
117	0xb83c219c	-4.4853994e-05
118	0xba2d32c1	-0.0006606989
119	0xbc56e153	-0.013115245
120	0x397dbb17	0.00024197657
121	0xbcbfd87f	-0.023418663
122	0x3700b99d	7.672611e-06
123	0xb92998de	-0.00016174043
124	0xb78e9949	-1.6999098e-05
125	0xb907ffa6	-0.0001296984
126	0xbd0ad5e1	-0.033895377
127	0xba27a3bf	-0.00063949445
128	0xb8963097	-7.161608e-05
129	0xbe01b2bd	-0.1266584
130	0xbab17d13	-0.0013541303
131	0xbe074436	-0.13209614
132	0xbebd9800	-0.3703003
133	0xbae66486	-0.0017577566
134	0xb7c39141	-2.331345e-05
135	0xba22674c	-0.0006195202
136	0x39db870e	0.0004187156
137	0x3662e003	3.3807016e-06
138	0xb694fc60	-4.440124e-06
139	0x35b4cea0	1.3471181e-06
140	0x39d61ef8	0.00040840334
141	0x39828ae4	0.00024899014
142	0xbf32bc9b	-0.6981904
143	0x38599f1f	5.1885025e-05
144	0xbe7ff967	-0.24997483
145	0xb58fa4ad	-1.0702257e-06
146	0xb74e212f	-1.2286283e-05
147	0xbd7f87cc	-0.062385365
148	0xb9a50a96	-0.0003147914
149	0xbcd96f55	-0.026542345
150	0xb9973819	-0.0002884276
151	0x34e36296	4.2353776e-07
152	0xb8c65c1a	-9.458531e-05
153	0x381aa834	3.6873113e-05
154	0x3a40f608	0.000736088
155	0xb7003b82	-7.64325e-06
156	0x37c63852	2.3629666e-05
157	0x38d38c6c	0.0001008742
158	0xbc7cf1dc	-0.015438523
159	0xb7018932	-7.720942e-06
160	0x38a039b3	7.640142e-05
161	0xbd9a9619	-0.0754816
162	0xba998703	-0.001171321
163	0x379cf04f	1.8708552e-05
164	0x3dff9043	0.124786876
165	0xb9a7463a	-0.00031905045
166	0xbaa35365	-0.0012460767
167	0xbd8bc226	-0.0682414
168	0xbdf9de87	-0.12200647
169	0xbd5f12ae	-0.054461174
170	0xb99329b9	-0.0002806911
171	0xb7dde7ad	-2.6453135e-05
172	0x3754bf4a	1.2680723e-05
173	0xb6c235d7	-5.7879183e-06
174	0x36f3ca9f	7.2655525e-06
175	0x380ef86d	3.4086803e-05
176	0x3e4eebcc	0.20207137
177	0xb747e67d	-1.1914989e-05
178	0x3a1ab464	0.0005901514
179	0x38113beb	3.4626497e-05
180	0xbd3b3fc3	-0.045715105
181	0xb50b7bc9	-5.1961666e-07
182	0xb8a3db84	-7.813334e-05
183	0xb8a1fb1a	-7.7238496e-05
184	0xbb01cb20	-0.001980491
185	0xbd58831f	-0.05285942
186	0x36442c30	2.9231996e-06
187	0x38daa40a	0.00010425605
188	0xbda7bd8d	-0.08190451
189	0xb8db11eb	-0.00010446071
190	0x37989630	1.8189749e-05
191	0x376087a2	1.338302e-05
192	0x3f16621d	0.5874346
193	0x38f2812b	0.00011563519
194	0xbe2885b6	-0.16457257
195	0x3888cd67	6.5232445e-05
196	0xb714dda3	-8.873091e-06
197	0x3a23af84	0.00062441104
198	0x3a0c1acb	0.00053445686
199	0xb8563b82	-5.1076997e-05
200	0xb714c4d1	-8.867312e-06
201	0x363b4760	2.7906717e-06
202	0xb717d262	-9.049285e-06
203	0x375c1ae0	1.3119279e-05
204	0x35910ff9	1.080799e-06
205	0x35a60527	1.2369463e-06
206	0x370b6afe	8.309957e-06
207	0xb77bd329	-1.500993e-05
208	0xb7adbd20	-2.0711275e-05
209	0x36c00652	5.7227817e-06
210	0x37be8fdc	2.2716755e-05
211	0xb7fdf9a6	-3.0276202e-05
212	0x3782e104	1.5601989e-05
213	0xb55ee4b0	-8.303423e-07
214	0x373367f2	1.0693433e-05
215	0xb6317851	-2.6445089e-06
216	0xb7c30eaf	-2.3252649e-05
217	0xb76dd698	-1.4176265e-05
218	0x35554c7d	7.945999e-07
219	0xb7acab3d	-2.0583737e-05
220	0xb78e4719	-1.6960827e-05
221	0xb5ce2765	-1.5359661e-06
222	0xb6a29fd4	-4.8465827e-06
223	0xb805f6c4	-3.193949e-05
224	0x373a7c28	1.1115371e-05
225	0x366ef349	3.5606374e-06
226	0xb727fdd7	-1.0013077e-05
227	0x38625080	5.395757e-05
228	0x37feeb65	3.0388774e-05
229	0x37a08a4f	1.9137891e-05
230	0x378c49c3	1.6723649e-05
231	0x374134f8	1.1516029e-05
232	0x380f5eae	3.4182034e-05
233	0x35866008	1.0011727e-06
234	0xb739e4f3	-1.1080166e-05
235	0x377be91e	1.5015043e-05
236	0x383b00d8	4.458506e-05
237	0x348e8a18	2.6550038e-07
238	0xb71b930a	-9.272955e-06
239	0xb7b918a4	-2.2065193e-05
240	0x36472b14	2.9678386e-06
241	0xb7bd62df	-2.2576596e-05
242	0xb78b01f1	-1.6570995e-05
243	0xb7ad8770	-2.0686275e-05
244	0x369fb4b2	4.759605e-06
245	0xb69e5ecc	-4.7198027e-06
246	0x37be0d26	2.2655888e-05
247	0x37b0f32f	2.1094076e-05
248	0xb603b901	-1.9628208e-06
249	0x385455d6	5.062468e-05
250	0xb7173348	-9.012241e-06
251	0x36993c60	4.566784e-06
252	0x37c4ec7b	2.347514e-05
253	0x37dc9209	2.6294047e-05
254	0x368de34c	4.2285883e-06
255	0x3808e330	3.263651e-05

layers.4.bias f4 [100]
0	0xbd94f233	-0.07272758
1	0x3e1a61ed	0.15076418
2	0xbd9dc1d0	-0.077029824
3	0x3eb92866	0.36163634
4	0xbc85d1fd	-0.016335482
5	0x3d064d68	0.032788664
6	0xbc3f7cf1	-0.011687503
7	0xbe00c417	-0.12574802
8	0xbed63f1d	-0.41845027
9	0xbd73f4a3	-0.059559476
10	0xbc714714	-0.014726419
11	0xbe02764b	-0.12740438
12	0xbe47f6b3	-0.19527702
13	0xbcfb3738	-0.030665979
14	0xbdad68aa	-0.08467229
15	0xbe453e00	-0.19261932
16	0xbccd0f60	-0.025031745
17	0xbdeb31a3	-0.11484077
18	0x3f11edc2	0.57003415
19	0xbc844c07	-0.016149534
20	0xbc939da0	-0.018019497
21	0xbe0e33b4	-0.1388691
22	0xbc8c8f3d	-0.017158145
23	0xbafc0ea4	-0.0019230437
24	0xbccd0879	-0.025028454
25	0xbc8157ea	-0.015788991
26	0xbc84bf27	-0.01620443
27	0xbc62e99f	-0.013849645
28	0x3ebc5f15	0.36791292
29	0xbd4bf6bb	-0.049795847
30	0xbc821eb2	-0.015883777
31	0xbc8cc293	-0.017182624
32	0xbe53454a	-0.206319
33	0xbd91154a	-0.07084139
34	0xbe107115	-0.14105637
35	0xbb09c931	-0.002102446
36	0xbc98a559	-0.018633531
37	0xbd82af75	-0.06381122
38	0xbea35f0d	-0.31908455
39	0x3f6f670e	0.93516624
40	0xbbea5c4b	-0.0071521155
41	0xbec29014	-0.38000548
42	0xbf040a49	-0.51578194
43	0xbc8eb608	-0.017420784
44	0xbdcf36a9	-0.101178475
45	0xbdf21d9d	-0.118220545
46	0x3f16d6ff	0.5892181
47	0xbd0346da	-0.03204999
48	0xbccc3a0d	-0.024930025
49	0xbce291bf	-0.027657388
50	0xbded4dea	-0.115871266
51	0xbcd06612	-0.025439296
52	0xbcc25f7e	-0.023727175
53	0xbbda4bcc	-0.0066618677
54	0x3ec244c3	0.37943086
55	0xbdbe9cf7	-0.093072824
56	0xbdc76449	-0.09735925
57	0x3ec32d86	0.3812067
58	0xbc3ff654	-0.011716444
59	0xbd8c03df	-0.06836676
60	0xb9cb06cb	-0.00038724238
61	0xbdb1c9fd	-0.08681104
62	0xbc5cd2ce	-0.013477994
63	0xbc8a250f	-0.016863374
64	0xbca0e12c	-0.01963862
65	0xbd4fd1f2	-0.05073733
66	0xbc87e5ad	-0.01658901
67	0x3f6535d8	0.89535284
68	0xbc82ff56	-0.015990894
69	0xbcece6b5	-0.028918603
70	0xbbe59d73	-0.007007295
71	0xbdbf733a	-0.093481496
72	0x3f093fea	0.5361315
73	0xbb607ea7	-0.0034255178
74	0x3f01d406	0.5071415
75	0xbd9a9c4e	-0.07549344
76	0xbd0a4ffa	-0.033767678
77	0x3f272315	0.65287906
78	0xbdcddc35	-0.10051767
79	0xbcbaa448	-0.022783414
80	0xbc860e4e	-0.016364243
81	0xbc8891fe	-0.016671177
82	0xbb9291e8	-0.00447296
83	0xbec46cf8	-0.38364387
84	0xbd507c04	-0.05089952
85	0xbbada5bc	-0.005299298
86	0xbd140866	-0.036140822
87	0xbd80c5b8	-0.06287712
88	0xbc847761	-0.016170206
89	0x3e88b3f4	0.26699793
90	0xbd287ab5	-0.041132648
91	0xbd74c0ab	-0.059754055
92	0xbe0c9ce5	-0.13731726
93	0xbd9d16d8	-0.07670373
94	0xbcb8ecd3	-0.022573864
95	0xbdb2a941	-0.08723689
96	0xbce9741e	-0.028497752
97	0x3f5d3d3e	0.86421573
98	0xbc8395aa	-0.016062576
99	0xbd9b58de	-0.075853094

layers.6.weight f4 [100, 100]
0	0xb76f684a	-1.4269792e-05
1	0xb521a990	-6.022392e-07
2	0xb7691beb	-1.3894382e-05
3	0x38dca98b	0.00010521997
4	0x374ac132	1.208512e-05
5	0x384b7aa3	4.8513186e-05
6	0x3686d6ad	4.0185028e-06
7	0xb7b595c6	-2.1646625e-05
8	0xb6a1528c	-4.8077836e-06
9	0x37c9a012	2.4035606e-05
10	0xb622ab97	-2.423976e-06
11	0xb73c554b	-1.1225532e-05
12	0xb70c3777	-8.357564e-06
13	0xb6f03333	-7.1585177e-06
14	0xbec9dafb	-0.3942488
15	0x37e9127f	2.7784377e-05
16	0xb777c8e2	-1.4769119e-05
17	0xb7458046	-1.1771981e-05
18	0xb7f3673d	-2.9015931e-05
19	0xb480bee9	-2.3980763e-07
20	0x36a36c65	4.8703973e-06
21	0xb5c2e826	-1.452169e-06
22	0x37b54d1b	2.1612786e-05
23	0x3793ac67	1.7604047e-05
24	0xb788b270	-1.6295555e-05
25	0x36d60917	6.378755e-06
26	0xb6ed12e1	-7.065348e-06
27	0xb75a319e	-1.3005365e-05
28	0xba13e172	-0.0005641199
29	0x38b09982	8.420927e-05
30	0x36c47d7e	5.8558644e-06
31	0x37c068fe	2.2937074e-05
32	0x38358ad7	4.3283067e-05
33	0x37dd55f8	2.6385285e-05
34	0x363938b2	2.760015e-06
35	0xb8194beb	-3.6548747e-05
36	0x372469c5	9.799788e-06
37	0xb785d67e	-1.5954716e-05
38	0xb80352b3	-3.1309854e-05
39	0xbf8d454a	-1.103677
40	0x3611ae52	2.1708152e-06
41	0xb78be32a	-1.6675873e-05
42	0xb79bbe03	-1.8565921e-05
43	0x35aa2006	1.2675307e-06
44	0xb827426f	-3.9877774e-05
45	0x37631b13	1.3536558e-05
46	0xb7fb84f5	-2.9983445e-05
47	0xbefef64c	-0.49797285
48	0xb5325a59	-6.644164e-07
49	0x3f583191	0.8445063
50	0xb7194fc5	-9.138083e-06
51	0x36edc29d	7.0858064e-06
52	0x36bb4550	5.5811033e-06
53	0x3a4b3c55	0.00077528256
54	0xb77746a3	-1.4738794e-05
55	0x37a3b961	1.9517438e-05
56	0x37726670	1.4448175e-05
57	0x3973eac9	0.0002326175
58	0xb82fd2a1	-4.1919415e-05
59	0x374e4f22	1.2296981e-05
60	0xb8073734	-3.223792e-05
61	0xb986a4d5	-0.0002568128
62	0xb940999a	-0.00018367768
63	0x37e5d584	2.7398353e-05
64	0x35fc8cf9	1.8816492e-06
65	0x37e75a45	2.7579381e-05
66	0xb59571eb	-1.113452e-06
67	0x379c37e9	1.8622684e-05
68	0x384c3cbc	4.8693953e-05
69	0x3649b9ae	3.0059414e-06
70	0xb93209bb	-0.00016979028
71	0x38615238	5.3720752e-05
72	0xb897e280	-7.24243e-05
73	0xbe6e20cb	-0.23254697
74	0x3f9caabf	1.2239608
75	0xb71983bf	-9.150185e-06
76	0xb7c9d608	-2.4060733e-05
77	0x3a3d6fa4	0.00072264136
78	0xb6510b56	-3.1150025e-06
79	0xb7b16f91	-2.1151996e-05
80	0x36e73576	6.89056e-06
81	0xb87b23a8	-5.987627e-05
82	0xb8a1d905	-7.717501e-05
83	0xb9a81a78	-0.00032063178
84	0x3738c0eb	1.1012172e-05
85	0x3819cbd5	3.6667876e-05
86	0xb8234eac	-3.8935497e-05
87	0xb761128f	-1.3415366e-05
88	0xb84b3e36	-4.845691e-05
89	0xb93990c1	-0.000176969
90	0x38015fdb	3.084527e-05
91	0xb6bb7219	-5.586317e-06
92	0xb8ba1fbc	-8.875082e-05
93	0x37d292b0	2.5102257e-05
94	0x380c9ac3	3.3522734e-05
95	0xba3cf1d6	-0.0007207667
96	0xb76404cf	-1.3590979e-05
97	0x38ba4e89	8.8837995e-05
98	0x37a6e08b	1.9893303e-05
99	0x36985d21	4.5407946e-06
100	0x3712d561	8.751959e-06
101	0xb78766bf	-1.6141099e-05
102	0x374e6254	1.2301451e-05
103	0xbe4893c9	-0.19587626
104	0x36a317c9	4.8605475e-06
105	0x3a809587	0.0009810188
106	0x3f8beb0b	1.0931104
107	0x37c9400b	2.399089e-05
108	0xb6e7b7e7	-6.9057455e-06
109	0xb6c2c5bb	-5.8046694e-06
110	0xb78b03fd	-1.6571948e-05
111	0xb5d052e0	-1.5521327e-06
112	0x351c19fb	5.8152335e-07
113	0xb6d3a358	-6.3073057e-06
114	0xbda1ec35	-0.07906381
115	0x3938b6d7	0.0001761572
116	0xb71b427b	-9.254199e-06
117	0xb601334e	-1.9252361e-06
118	0x37ecc1a7	2.8223569e-05
119	0xb684ee33	-3.9616366e-06
120	0x37936fa7	1.7575758e-05
121	0x371d0b7c	9.360603e-06
122	0xb79b4fd0	-1.8514605e-05
123	0x37a6c520	1.9880536e-05
124	0x37877e9d	1.6152213e-05
125	0x378b57d0	1.6610982e-05
126	0x37e53338	2.7322778e-05
127	0xb7fca504	-3.0117582e-05
128	0xbb20baa5	-0.0024525311
129	0xb7f12393	-2.8746004e-05
130	0xb75401f1	-1.2636637e-05
131	0xb7b5925d	-2.1645037e-05
132	0xb7cbdae2	-2.4301411e-05
133	0xbacb8da8	-0.0015529888
134	0xb346daa1	-4.629931e-08
135	0x38958a09	7.130585e-05
136	0xb71e87fb	-9.449194e-06
137	0xb7a14748	-1.9225889e-05
138	0x396636a9	0.00021954872
139	0xba79e039	-0.0009532008
140	0xb7af51dd	-2.0899746e-05
141	0x366f40ad	3.5651422e-06
142	0xb8ff8a2b	-0.00012185083
143	0xb72b062a	-1.0193829e-05
144	0x364249ae	2.895114e-06
145	0xb7059cad	-7.963897e-06
146	0xb9a3bb72	-0.0003122944
147	0xbce47feb	-0.027893027
148	0x371563d4	8.904335e-06
149	0x39eebe10	0.00045536505
150	0x36961245	4.472475e-06
151	0x36bee909	5.68957e-06
152	0xb757dac7	-1.2865937e-05
153	0x38ccf983	9.773953e-05
154	0xb9b4879f	-0.0003443332
155	0x359eca30	1.1830762e-06
156	0xb69b73e0	-4.6328496e-06
157	0xb7c95fd0	-2.4005683e-05
158	0x359e4c48	1.1794118e-06
159	0x370552e5	7.946718e-06
160	0xb7d5222d	-2.5407493e-05
161	0x3819570e	3.655912e-05
162	0x3a1041bb	0.00055029587
163	0xb836f221	-4.361768e-05
164	0x36bb1ccc	5.5763867e-06
165	0x38154f63	3.5598303e-05
166	0x363d89a8	2.8243321e-06
167	0xb9aab9ff	-0.00032563505
168	0xb75cb3dc	-1.3154899e-05
169	0xb6eebf2d	-7.1152085e-06
170	0x373c1677	1.1210904e-05
171	0x36812781	3.8490984e-06
172	0x39a7427d	0.0003190226
173	0x37aa7ab2	2.0322714e-05
174	0x392e5fdb	0.00016629642
175	0x371faff4	9.518106e-06
176	0x3790836d	1.7227338e-05
177	0x3973729a	0.00023216978
178	0xb776af76	-1.4703595e-05
179	0xb86451b0	-5.4435513e-05
180	0x37a355f7	1.9471145e-05
181	0x353b8126	6.9850864e-07
182	0xb9b23173	-0.00033987648
183	0xb91dc862	-0.00015047335
184	0xb7cb5e7a	-2.424348e-05
185	0x382b0ecc	4.0783358e-05
186	0x3f8bb5e9	1.091489
187	0xb79fa258	-1.9029874e-05
188	0x37a5c149	1.9759538e-05
189	0x3a0e930f	0.00054387836
190	0xb880dbb7	-6.144441e-05
191	0xb6d867c7	-6.449383e-06
192	0xb93b4216	-0.00017858329
193	0xb7a3123a	-1.9439602e-05
194	0xb755d8b1	-1.2746242e-05
195	0xb8eb8670	-0.00011230714
196	0x37bdcf91	2.2627211e-05
197	0x39f69cc7	0.00047037585
198	0xb80b352d	-3.3189706e-05
199	0xb79085b8	-1.7228405e-05
200	0x375aeeba	1.3049395e-05
201	0x36f85bf3	7.4016803e-06
202	0xb68673f1	-4.0070086e-06
203	0xb6bc7347	-5.6162567e-06
204	0xb801b01d	-3.0920015e-05
205	0x36de2319	6.6202015e-06
206	0xb6996c3f	-4.572357e-06
207	0x37d84289	2.578019e-05
208	0x340b002d	1.2945448e-07
209	0x3781b088	1.5460202e-05
210	0xb7e53051	-2.7321426e-05
211	0x382f3d3b	4.1780277e-05
212	0x365acdd4	3.260434e-06
213	0x36cd8c60	6.125818e-06
214	0xb59c031b	-1.162381e-06
215	0xb69d657d	-4.6907794e-06
216	0xb79f2350	-1.897072e-05
217	0xb665c87c	-3.4240356e-06
218	0x3727d351	1.0003177e-05
219	0xb8469ce2	-4.7352987e-05
220	0x3690b01c	4.3120363e-06
221	0x3783cdc0	1.5712227e-05
222	0xb6139372	-2.1990531e-06
223	0x37bcaebe	2.2492717e-05
224	0xb7044a59	-7.8851235e-06
225	0xb74d93fe	-1.2253409e-05
226	0xb774b405	-1.4585447e-05
227	0xb888e38e	-6.527371e-05
228	0xb707e2cb	-8.099431e-06
229	0xb59c0b44	-1.1626184e-06
230	0xb783ffc1	-1.5735512e-05
231	0xb6cdb3b6	-6.130397e-06
232	0xb829ff14	-4.05303e-05
233	0xb64796b6	-2.9741036e-06
234	0xb7241345	-9.779648e-06
235	0xb77581be	-1.4633346e-05
236	0xb524f468	-6.145042e-07
237	0xb6cf2d63	-6.1743644e-06
238	0xb71a89ed	-9.211229e-06
239	0xb6d913ff	-6.469432e-06
240	0xb6e732e6	-6.890262e-06
241	0xb5df5fb5	-1.6642649e-06
242	0x37375a0a	1.0928614e-05
243	0x370950d5	8.1846565e-06
244	0x368f9807	4.2794304e-06
245	0xb70195c0	-7.723866e-06
246	0x36f67f3e	7.3461842e-06
247	0xb679a629	-3.720061e-06
248	0xb7ebf99b	-2.8130415e-05
249	0xb6aa7c66	-5.0808767e-06
250	0x37615748	1.3431367e-05
251	0x3680cb95	3.8383973e-06
252	0x3745c827	1.1788717e-05
253	0xb7433ba1	-1.1636789e-05
254	0x370bde39	8.336786e-06
255	0x373c50f2	1.122452e-05

layers.6.bias f4 [100]
0	0x3f25ba78	0.64737654
1	0xbbaadef6	-0.0052145673
2	0xbbb1eb96	-0.0054296954
3	0xbd3950dd	-0.045243133
4	0xbc871370	-0.01648876
5	0xbcd526b6	-0.026019435
6	0xbb555b63	-0.0032555691
7	0xbc253c0c	-0.010085117
8	0xbc0d1865	-0.008611773
9	0xbc9569f5	-0.018239
10	0xbc59bac6	-0.013289159
11	0xbb86b607	-0.004111055
12	0xbc0352b8	-0.008015327
13	0xbdb3cc80	-0.0877924
14	0x3afaa09d	0.0019121353
15	0xbd9f9d31	-0.07793654
16	0xbc6b8782	-0.014375569
17	0xbd848fbe	-0.06472729
18	0xbcefcc1b	-0.02927213
19	0xbc006bd8	-0.007838212
20	0x3f12cf9e	0.5734805
21	0xbac16e9c	-0.0014757696
22	0x3e97adde	0.29624838
23	0xbaba1114	-0.0014195764
24	0xbbfaeada	-0.007657391
25	0xbd3869e2	-0.045022853
26	0xbd56aa76	-0.052408658
27	0x3f438144	0.7636912
28	0xbaa16305	-0.0012312835
29	0xbc04b3a6	-0.008099472
30	0x3a8b30c8	0.0010619396
31	0xbd65adb6	-0.056073867
32	0x3e9a92e6	0.301902
33	0x3f44c170	0.7685766
34	0xbbffd365	-0.0078071826
35	0xbc017229	-0.007900753
36	0xbc1e6059	-0.009666526
37	0xbdb4456e	-0.08802305
38	0x3ef4b2c3	0.47792634
39	0xbcc18843	-0.023624545
40	0xbdb13d9a	-0.08654328
41	0xbce3a8a7	-0.02779038
42	0x3efca8e0	0.4934759
43	0xbdb17a52	-0.08665909
44	0xbc13778a	-0.009000668
45	0x3f1a43fe	0.6026
46	0xbd428191	-0.047486845
47	0x3d1d41bb	0.038392764
48	0xbbfee041	-0.007778198
49	0xbd6a329c	-0.05717717
50	0xbc954511	-0.01822141
51	0xbbb2085b	-0.005433125
52	0xbcb29d9c	-0.02180367
53	0xbb90fbab	-0.0044245324
54	0x3d47d8ec	0.048790857
55	0xbbf798d9	-0.0075560627
56	0xbb4dd63e	-0.0031408216
57	0xbc08db81	-0.008353115
58	0xbab031b3	-0.0013442546
59	0xbbadb6c1	-0.005301327
60	0xbc0f1c18	-0.008734725
61	0xbc9ce1a2	-0.019150559
62	0xbbfe6fc5	-0.007764789
63	0xbb10bb2b	-0.0022084217
64	0xbe0a6b16	-0.13517413
65	0xba9b89a5	-0.0011866583
66	0xbdcdce0f	-0.10049068
67	0xba5be93f	-0.00083889434
68	0xbdf72ae9	-0.12068731
69	0xbbc85936	-0.0061141504
70	0xbcae0597	-0.0212429
71	0xbd9ba2de	-0.07599424
72	0xbbcb1661	-0.006197736
73	0x3fce57ed	1.6120583
74	0xbd9f2f13	-0.077726506
75	0xbcb711e7	-0.022347404
76	0x3f0d25e7	0.5513596
77	0xbd4f7f17	-0.05065831
78	0xbcbc090c	-0.022953533
79	0xbd0ddd5a	-0.034634925
80	0x3e368cea	0.17827192
81	0xbc0b5039	-0.008503013
82	0xbc0f6f66	-0.008754587
83	0xbd2a8156	-0.04162725
84	0xbbf35cbc	-0.0074268263
85	0xbd0c2176	-0.0342116
86	0xbd1a8675	-0.037725884
87	0xbceafd3d	-0.028685207
88	0xbcb9df31	-0.022689434
89	0xbcbd4e8e	-0.023108747
90	0xbc3fc144	-0.011703793
91	0xbc0b40e2	-0.008499356
92	0x3ef2fb13	0.4745718
93	0x3f141a30	0.5785246
94	0x3ee75477	0.4518163
95	0x3ecf646a	0.40506297
96	0x3f15ecd5	0.585645
97	0x3d737122	0.059434064
98	0xbbbda22e	-0.0057871556
99	0xba9e4533	-0.0012075066

layers.8.weight f4 [100, 100]
0	0x3741957b	1.15385e-05
1	0x379108e4	1.7289487e-05
2	0xb5189b3d	-5.6850314e-07
3	0x36ff608f	7.610833e-06
4	0x377437d0	1.4556528e-05
5	0x36b09f77	5.263773e-06
6	0xb6e02d43	-6.6809894e-06
7	0x34fa96b4	4.667578e-07
8	0xb7bb370e	-2.2317774e-05
9	0xb70bab71	-8.324962e-06
10	0x35c91b50	1.4983616e-06
11	0x371b10db	9.242644e-06
12	0xb692fcb9	-4.38056e-06
13	0x36a9092d	5.0376607e-06
14	0x390a6e20	0.0001320173
15	0xb734d8db	-1.0779327e-05
16	0xb65e193d	-3.3095268e-06
17	0x36be7b30	5.676782e-06
18	0x36abfe98	5.1258357e-06
19	0x35abde38	1.2805167e-06
20	0xba2c89f0	-0.00065818336
21	0x34eb7e8a	4.386423e-07
22	0x38f90578	0.00011874264
23	0xb787d352	-1.6191658e-05
24	0x3515c2a8	5.579009e-07
25	0x38bf8e3a	9.1340815e-05
26	0xb7809e43	-1.5332485e-05
27	0xbac55cfd	-0.001505762
28	0x38ad695b	8.268907e-05
29	0x37a61fd4	1.9803563e-05
30	0x391fa65d	0.00015225397
31	0xb681e084	-3.8706366e-06
32	0xb8adaaa7	-8.281069e-05
33	0x38cd171e	9.779468e-05
34	0x371ed1e4	9.466403e-06
35	0xb71fffbf	-9.536684e-06
36	0xb7b64886	-2.1729862e-05
37	0x3781ef49	1.5489424e-05
38	0xba24b188	-0.0006282558
39	0xb603562e	-1.9570684e-06
40	0xb72a7b0e	-1.01614405e-05
41	0xb6bda923	-5.652329e-06
42	0xbf91967b	-1.1374048
43	0x3830823c	4.208296e-05
44	0xb5866091	-1.0011883e-06
45	0xb7a5cafb	-1.9764053e-05
46	0x350f38d2	5.3354336e-07
47	0x38b06a0f	8.412089e-05
48	0x38019eb0	3.0903786e-05
49	0x390a8a83	0.00013212305
50	0xb79c3862	-1.8622904e-05
51	0xb48457a1	-2.4650674e-07
52	0x36a8b68b	5.028041e-06
53	0x38262c11	3.9618524e-05
54	0x391559f0	0.00014243252
55	0xb733178d	-1.0674715e-05
56	0x37409916	1.1479735e-05
57	0x38458cd8	4.709963e-05
58	0x3901f861	0.00012394927
59	0x37e7075b	2.7540771e-05
60	0x373787c5	1.0939261e-05
61	0x37ba0f49	2.2180046e-05
62	0xb73bd76f	-1.1196228e-05
63	0x371cf27a	9.354781e-06
64	0xb7912f3f	-1.7307348e-05
65	0x3801f499	3.0983796e-05
66	0x3784230d	1.5751948e-05
67	0x38fbd558	0.00012008351
68	0x375021aa	1.2405604e-05
69	0xb54bffd6	-7.5995683e-07
70	0x37256047	9.857183e-06
71	0xb729a607	-1.0111841e-05
72	0xb7c38717	-2.3308718e-05
73	0x3dc15fff	0.09442138
74	0xb70be94e	-8.339366e-06
75	0x372e84e5	1.040215e-05
76	0xba26b709	-0.0006359672
77	0x38455bfc	4.7054127e-05
78	0x37210052	9.596422e-06
79	0x3495e3fb	2.791929e-07
80	0x39787e0a	0.00023698076
81	0xb6df7dfc	-6.6605844e-06
82	0xb603cdb1	-1.964025e-06
83	0x388d5daa	6.74085e-05
84	0xb7ad43b8	-2.0654741e-05
85	0xb70b2f07	-8.295995e-06
86	0x36bd9988	5.6505123e-06
87	0xb6d55b9f	-6.3585608e-06
88	0x369dd789	4.704056e-06
89	0xb746fd11	-1.1860641e-05
90	0x36082bb2	2.0291013e-06
91	0xb732a3ad	-1.06477355e-05
92	0x3fa6a842	1.3020098
93	0xb9a02b79	-0.00030549968
94	0x3f9574a2	1.1676219
95	0xb9eb95c9	-0.00044934292
96	0x3f5dca7f	0.8663711
97	0xb7c4a895	-2.3443523e-05
98	0xb6008aae	-1.9154209e-06
99	0x39275762	0.00015958914
100	0xb669be95	-3.483064e-06
101	0x37cc8b19	2.4383467e-05
102	0xb802b36e	-3.1161522e-05
103	0x363589c6	2.7051296e-06
104	0x37a69f71	1.9862988e-05
105	0xb7a60b87	-1.979411e-05
106	0x37722bfb	1.4434564e-05
107	0xb755cfb2	-1.2744147e-05
108	0x359221f0	1.0887725e-06
109	0xb7e48fc1	-2.7246659e-05
110	0xb4029936	-1.2162931e-07
111	0x36be275b	5.667023e-06
112	0xb6855275	-3.973308e-06
113	0xb4c8f0c6	-3.742809e-07
114	0x377b68f9	1.4985207e-05
115	0x37a1f0bf	1.9304802e-05
116	0x36a627c5	4.9518153e-06
117	0xb79b0d1a	-1.848354e-05
118	0xb7848680	-1.5798258e-05
119	0xb70c9459	-8.37919e-06
120	0xb6769dcd	-3.6748709e-06
121	0xb85d05d4	-5.2695934e-05
122	0xb560c4af	-8.3732715e-07
123	0x37380996	1.09694865e-05
124	0x3796c915	1.797503e-05
125	0x384f6a3b	4.945158e-05
126	0xb60ab284	-2.0667512e-06
127	0x37bd73fb	2.2584563e-05
128	0xb6459b36	-2.9445632e-06
129	0x37a39fc5	1.9505513e-05
130	0xb5e0f0ce	-1.6759384e-06
131	0xb7167816	-8.968656e-06
132	0x36c6ab0c	5.9207723e-06
133	0xb68f194c	-4.264677e-06
134	0x373b9cbf	1.1182564e-05
135	0xb8787202	-5.9233986e-05
136	0xb7f7684e	-2.9493265e-05
137	0x36eb571d	7.013687e-06
138	0x3721f3f2	9.653146e-06
139	0xb7275b1f	-9.9751915e-06
140	0xb6fd92a0	-7.557057e-06
141	0x3708b155	8.14752e-06
142	0x36ba8222	5.5583814e-06
143	0xb6b39ab8	-5.3526273e-06
144	0xb64d05fe	-3.0550868e-06
145	0xb5b689bd	-1.3600144e-06
146	0xb5c1938b	-1.4422561e-06
147	0x37ef92fe	2.8559469e-05
148	0x365218ae	3.1306804e-06
149	0x37596209	1.29570335e-05
150	0xb6222b37	-2.4165035e-06
151	0x376137aa	1.3424005e-05
152	0x3703dc39	7.859483e-06
153	0x3805d6c8	3.19097e-05
154	0xb791f6ef	-1.7400334e-05
155	0xb79fc827	-1.904748e-05
156	0xb644b0c7	-2.9309174e-06
157	0xb60f7a71	-2.137993e-06
158	0x3633182d	2.668715e-06
159	0x380ecc9d	3.4046e-05
160	0xb5c6cf27	-1.4812439e-06
161	0x35835330	9.784471e-07
162	0x38097b89	3.2778396e-05
163	0xb80cff73	-3.3616507e-05
164	0xb6afeff7	-5.243342e-06
165	0xb4156d42	-1.3916454e-07
166	0xb63f64df	-2.8519933e-06
167	0x37860d91	1.5980362e-05
168	0xb68e1d1a	-4.2353176e-06
169	0xb727d5dc	-1.0003769e-05
170	0x37ff2d4a	3.0419458e-05
171	0x37c807da	2.3845514e-05
172	0xb72fefa7	-1.0486611e-05
173	0x378e6352	1.6973969e-05
174	0x37fa5920	2.9843824e-05
175	0x378d43c9	1.6840075e-05
176	0x375f6a42	1.3316576e-05
177	0xb6fa65ac	-7.4624168e-06
178	0xb700c254	-7.67464e-06
179	0x37de1bba	2.6477373e-05
180	0x36483a36	2.9836206e-06
181	0x370423d5	7.876156e-06
182	0x366508c9	3.4128773e-06
183	0x3727d859	1.0004348e-05
184	0x37415342	1.1523081e-05
185	0x3703af52	7.849028e-06
186	0x37ad7ddf	2.068182e-05
187	0xb7bea34c	-2.2725806e-05
188	0xb72b3d5a	-1.0206679e-05
189	0xb731f3b2	-1.0606762e-05
190	0x374712d3	1.1865707e-05
191	0x35660dd5	8.5701805e-07
192	0x378ddd83	1.691166e-05
193	0x36fc83a8	7.525512e-06
194	0xb78fcd49	-1.7142522e-05
195	0x37da4153	2.6018044e-05
196	0x371865be	9.083595e-06
197	0xb8288fd6	-4.018828e-05
198	0x37b2b89c	2.1305219e-05
199	0xb6659c0c	-3.421449e-06
200	0xb908b06f	-0.00013035697
201	0x399dddaf	0.0003011054
202	0xb7474cec	-1.1879234e-05
203	0xb68ffa96	-4.290904e-06
204	0x38317327	4.2307332e-05
205	0x3803b282	3.1399082e-05
206	0x36bd81d2	5.647752e-06
207	0x36f6d7da	7.3564997e-06
208	0xb6f4dd6b	-7.297543e-06
209	0xb88fbf7a	-6.854437e-05
210	0xb5666eb8	-8.5842794e-07
211	0xb6c0398c	-5.7287452e-06
212	0x3679c8a4	3.722068e-06
213	0xb85a8675	-5.2100473e-05
214	0x381f89dd	3.803695e-05
215	0xb7659b58	-1.3685632e-05
216	0xb6a6ebc2	-4.9746313e-06
217	0x380a777a	3.3013035e-05
218	0x3807a074	3.233594e-05
219	0x348831eb	2.5368294e-07
220	0x3abf7dee	0.0014609674
221	0x339d3b6c	7.321691e-08
222	0xb921d5c2	-0.00015433787
223	0x35ef6f74	1.7839325e-06
224	0x373481be	1.0759044e-05
225	0xb95ec15e	-0.00021243605
226	0xb7842dde	-1.5756985e-05
227	0x3b0cc7ff	0.0021481512
228	0xb983b59e	-0.00025121582
229	0xb746dc3c	-1.1852997e-05
230	0xb8f91c08	-0.000118784665
231	0x380f394d	3.4147222e-05
232	0x383fa1e8	4.5688736e-05
233	0xb90a26cf	-0.00013175163
234	0xb6591358	-3.234678e-06
235	0x36741540	3.6371202e-06
236	0xb63a3371	-2.7746103e-06
237	0xb699040b	-4.560226e-06
238	0x38cdada8	9.807508e-05
239	0xb7bf7def	-2.2827617e-05
240	0xb72a2f64	-1.0143824e-05
241	0x373a78e7	1.1114614e-05
242	0x3f532f0d	0.8249367
243	0x3746309a	1.1813036e-05
244	0xb886f49f	-6.435182e-05
245	0x39202cda	0.00015275498
246	0x376c9b1b	1.41028095e-05
247	0xb8e6db99	-0.00011008158
248	0x37346e00	1.0754447e-05
249	0xb91d5fdf	-0.00015008402
250	0xb36dc379	-5.5358644e-08
251	0x37cae8ae	2.4188626e-05
252	0x35c6a0d4	1.4798957e-06
253	0x37a2355c	1.9336752e-05
254	0xb907f368	-0.00012965279
255	0x35e23f39	1.6856712e-06

layers.8.bias f4 [100]
0	0x3f3e4ce3	0.7433607
1	0xbbfe4957	-0.0077602076
2	0x3d8c1ae5	0.06841067
3	0xbbbe8384	-0.0058140177
4	0xbc203efb	-0.009780641
5	0x3f46303e	0.7741736
6	0x3ec991ef	0.3936915
7	0xbd9974d4	-0.07492986
8	0x3c24d4af	0.010060473
9	0x3f146522	0.57966816
10	0xbbf3f8f7	-0.0074454504
11	0xbbd39598	-0.006457042
12	0xbcc345df	-0.023837028
13	0xbdbdb4e0	-0.09263015
14	0xbcbea641	-0.023272635
15	0xbdef008d	-0.11670027
16	0xbce11927	-0.027477814
17	0xbb9e821c	-0.0048372876
18	0xbd6f986b	-0.058494966
19	0x3eac5e57	0.33665726
20	0xbd0b6a70	-0.034037054
21	0xbd85ff5a	-0.06542845
22	0xbda267b7	-0.07929938
23	0xbd5ab4a6	-0.053394936
24	0xbe66af42	-0.22527793
25	0xbe23dcb3	-0.16002159
26	0xbd394d37	-0.045239653
27	0xbaf9b4b3	-0.0019051045
28	0x3b90c60b	0.00441814
29	0xbd92d626	-0.07169752
30	0xbb5543f8	-0.0032541733
31	0xbdf2b7d6	-0.1185147
32	0xbbad5b90	-0.005290456
33	0xbd193d77	-0.037412133
34	0x3f4d7bd4	0.8026707
35	0xbb00db08	-0.0019661803
36	0xbb2e4830	-0.002659332
37	0xbdab8f62	-0.083769575
38	0xbdb4e243	-0.088322185
39	0xbbcab06d	-0.0061855824
40	0xbdc9dd6d	-0.09856687
41	0xbd2537a3	-0.040336262
42	0xbbbffe87	-0.0058591994
43	0xbdad72eb	-0.084691845
44	0x3e929b30	0.28634024
45	0xbdefff90	-0.117186666
46	0x4000d989	2.0132773
47	0xbd6888e1	-0.056771163
48	0xbd31c3fe	-0.043399803
49	0xbc04a5a6	-0.008096134
50	0xbd9f496f	-0.07777678
51	0xbeb7cfd0	-0.35900736
52	0xbde77bff	-0.11302947
53	0xbbfa929e	-0.0076468727
54	0x3f85e3fb	1.0460199
55	0xbd8b47ed	-0.06800828
56	0xbd46a3ef	-0.048496183
57	0xbdcce740	-0.10005045
58	0xbbd3c22b	-0.0064623556
59	0xbd2495ad	-0.040181804
60	0x3fa3e52e	1.2804315
61	0x3e43f842	0.19137672
62	0xbd5f1566	-0.054463767
63	0xbc7e8e95	-0.015536924
64	0x3f185164	0.5949919
65	0xbe5e3a31	-0.21701886
66	0x3ea50607	0.3223116
67	0xbb8e4f36	-0.004342939
68	0x3f1951da	0.5989052
69	0xbbb0ae37	-0.005391862
70	0xbe4784d4	-0.19484264
71	0x3e95545c	0.29165924
72	0xbe2576de	-0.16158625
73	0xbe8f0667	-0.27934572
74	0xbcb47677	-0.022029145
75	0xbd29be8e	-0.041441493
76	0xbdf1e158	-0.11810559
77	0xbe2199e0	-0.15781355
78	0xbb8eab1b	-0.0043538935
79	0x3de03d2c	0.109491676
80	0xbd900955	-0.0703303
81	0x3ef611f7	0.4806058
82	0xbc09611b	-0.008384968
83	0xbe0877fb	-0.13327019
84	0xbbdba5d9	-0.00670312
85	0xbc073843	-0.00825316
86	0xbad939a4	-0.0016572964
87	0x3eab9d49	0.33518437
88	0xbd55586d	-0.052086283
89	0x3f13c172	0.5771705
90	0xbd7f401d	-0.062317003
91	0x3de25d7d	0.11052988
92	0xbda1c0b5	-0.07898084
93	0xbc3e5780	-0.011617541
94	0xbd8b554b	-0.06803378
95	0xbcc622f3	-0.024186587
96	0xbc10b75a	-0.008832777
97	0x3eb3c4c2	0.35111052
98	0x3f17b3e3	0.5925886
99	0xbc259308	-0.010105856

layers.10.weight f4 [100, 100]
0	0x37b4eab4	2.1566964e-05
1	0xb74b295b	-1.2109372e-05
2	0x37f08c75	2.8675635e-05
3	0xb7c51b11	-2.3496834e-05
4	0x37708cbf	1.4337885e-05
5	0xb6a52e4d	-4.9227733e-06
6	0x37f2add3	2.8929591e-05
7	0xb79f643d	-1.9000954e-05
8	0xb72bee72	-1.0247912e-05
9	0x379efd7e	1.895311e-05
10	0x38072bb1	3.22272e-05
11	0x33f3293b	1.1323069e-07
12	0xb72245ff	-9.67225e-06
13	0xb79df5de	-1.883035e-05
14	0xb7bb6a02	-2.23415e-05
15	0xb64d460a	-3.0588149e-06
16	0xb78d41ab	-1.6839089e-05
17	0xb7cd6119	-2.4483119e-05
18	0x372fb12d	1.0472065e-05
19	0xb66027e8	-3.340183e-06
20	0xb6128c0d	-2.1837216e-06
21	0x3691b3ca	4.342267e-06
22	0x37793370	1.4853533e-05
23	0x358f572a	1.0679698e-06
24	0xb7ba2d6c	-2.2194079e-05
25	0x36b77593	5.4675124e-06
26	0x371a4a86	9.196467e-06
27	0x37e03643	2.6728148e-05
28	0x37e9cde8	2.7871647e-05
29	0xb7b481f0	-2.1518179e-05
30	0x3764caff	1.3637123e-05
31	0xb5a24e59	-1.2092743e-06
32	0xb6b14b0a	-5.2837468e-06
33	0xb6cf2f4f	-6.174588e-06
34	0xb78544ae	-1.5886817e-05
35	0xb7c409f9	-2.3369665e-05
36	0x3773a9cb	1.4523462e-05
37	0x37045d8e	7.8895955e-06
38	0x37baf8ca	2.228878e-05
39	0x378b33c8	1.6594204e-05
40	0x377a2cd1	1.4911596e-05
41	0xb7d5e530	-2.5498302e-05
42	0x3773f6f5	1.4541428e-05
43	0x360cb51d	2.0967047e-06
44	0x373e59cc	1.134579e-05
45	0xb59dda1f	-1.1760893e-06
46	0xb82bf16e	-4.0994426e-05
47	0x36d8375b	6.443746e-06
48	0xb701563f	-7.70908e-06
49	0x3802a0c3	3.1144136e-05
50	0x37ddca63	2.6439497e-05
51	0xb74e7029	-1.2304671e-05
52	0x374d4b99	1.2236554e-05
53	0x36d0380d	6.205408e-06
54	0x369edcef	4.734487e-06
55	0xb7b5e742	-2.168457e-05
56	0xb76105cf	-1.34123975e-05
57	0xb7ec4064	-2.8163377e-05
58	0x368b1764	4.145246e-06
59	0x36f4c106	7.2942375e-06
60	0xb7ce1fea	-2.4571975e-05
61	0xb7c3d234	-2.3343695e-05
62	0x374aee64	1.2095643e-05
63	0x37904b72	1.720127e-05
64	0x3804d24d	3.166711e-05
65	0x379d359c	1.8740822e-05
66	0x360ec63b	2.1275034e-06
67	0x380a853d	3.302585e-05
68	0xb780b8d6	-1.534486e-05
69	0xb716c88e	-8.987392e-06
70	0x37efd1e6	2.8588762e-05
71	0x3608e49d	2.039865e-06
72	0x37957741	1.7817716e-05
73	0x36ad83e5	5.1711563e-06
74	0xb7bf5c3d	-2.2811926e-05
75	0x37723e6c	1.4438858e-05
76	0xb6387800	-2.7487986e-06
77	0x36ddab8c	6.606284e-06
78	0x372617b0	9.899886e-06
79	0xb8216aea	-3.8484963e-05
80	0x3768e48d	1.3881491e-05
81	0xb73a965a	-1.112147e-05
82	0x378ce58c	1.6796192e-05
83	0x36d1b1ca	6.2493827e-06
84	0xb838da9f	-4.4072625e-05
85	0xb7a30f07	-1.9438112e-05
86	0xb7618a1e	-1.3443203e-05
87	0xb5bf579f	-1.425611e-06
88	0xb6271703	-2.4898334e-06
89	0xb6ecd926	-7.0586275e-06
90	0xb5404e49	-7.1639494e-07
91	0xb7b661a2	-2.1741555e-05
92	0x36c40584	5.8418973e-06
93	0xb7cdbb63	-2.4525163e-05
94	0x35fd19cc	1.8857477e-06
95	0x3788d7bd	1.6312924e-05
96	0x366936a0	3.4751502e-06
97	0x37b0fe52	2.1099262e-05
98	0xb7c1db60	-2.3109547e-05
99	0xb790457f	-1.71985e-05
100	0xb96c44d7	-0.00022532359
101	0xb75f3ecf	-1.330646e-05
102	0x3a40a5ef	0.0007348945
103	0xb6cbbd9e	-6.071946e-06
104	0xb7866c8a	-1.6024587e-05
105	0xb9a95374	-0.0003229637
106	0xb9d678fe	-0.00040907407
107	0x361ddb3a	2.352243e-06
108	0x38b2bdf8	8.523086e-05
109	0x3a55791b	0.00081433513
110	0xb5751257	-9.12963e-07
111	0x3762d3cf	1.3519965e-05
112	0xb51f0f96	-5.9254796e-07
113	0x36e188f0	6.721464e-06
114	0xb74dec0a	-1.2273909e-05
115	0x38085f95	3.2513944e-05
116	0xb89ca443	-7.469256e-05
117	0xb79f6fa8	-1.9006271e-05
118	0x361ba943	2.3195323e-06
119	0x3a290bb1	0.00064485805
120	0xb811b1ce	-3.4736287e-05
121	0xb678ce96	-3.7075129e-06
122	0xb5c4d4de	-1.466509e-06
123	0x36c48dca	5.8577616e-06
124	0xb848a4fa	-4.7837362e-05
125	0xb700662d	-7.653184e-06
126	0xb792cd58	-1.7500177e-05
127	0xb9019541	-0.00012358
128	0x35e65775	1.7161789e-06
129	0x35cd0a1e	1.5276635e-06
130	0x39801612	0.00024430506
131	0x37411cb0	1.1510376e-05
132	0xb6ee1eff	-7.096561e-06
133	0x3838b71b	4.403955e-05
134	0x3a26fda1	0.0006370191
135	0xb917e79a	-0.0001448676
136	0xb5ef9348	-1.7849752e-06
137	0x375045b1	1.2413992e-05
138	0xb78e61bd	-1.6973232e-05
139	0x370ea9c7	8.503389e-06
140	0xb7e1ef30	-2.693347e-05
141	0xb761eb3a	-1.3465813e-05
142	0xb698e3db	-4.556479e-06
143	0xb91b4caa	-0.00014810511
144	0x39078965	0.00012925787
145	0x3670d224	3.5885105e-06
146	0x3f1c4a28	0.61050653
147	0x3525063c	6.147636e-07
148	0xb78a0251	-1.645196e-05
149	0x38114bce	3.4641293e-05
150	0x371ae479	9.232311e-06
151	0x398c43b4	0.00026753324
152	0x3727af8e	9.99485e-06
153	0xb6ff452a	-7.607644e-06
154	0x398e5e6a	0.00027154695
155	0x3798061f	1.8122662e-05
156	0xb78d62b8	-1.685448e-05
157	0x37227bf1	9.68481e-06
158	0xb797f288	-1.811354e-05
159	0xb899fc29	-7.342577e-05
160	0x3e8ebc9e	0.27878278
161	0x382bff6b	4.1007454e-05
162	0xb82e58b3	-4.156744e-05
163	0xb7d44d3e	-2.5308338e-05
164	0xb9ae1b4f	-0.00033208213
165	0xbe09c14e	-0.13452646
166	0x3a1a5c1d	0.000588836
167	0x36a73d7b	4.984145e-06
168	0xb9bebcfe	-0.00036380434
169	0x34880d36	2.5341586e-07
170	0x37a0ab50	1.915326e-05
171	0x3a601464	0.00085479603
172	0xb833e2f0	-4.2888278e-05
173	0xb74df25d	-1.2275382e-05
174	0xb68a1db9	-4.1161807e-06
175	0xb71c700b	-9.324412e-06
176	0x35621e78	8.42359e-07
177	0xb5dbbf4e	-1.6372448e-06
178	0x377c6e5f	1.5046068e-05
179	0x3a1a2b3c	0.0005881076
180	0xb80e263d	-3.389105e-05
181	0xb9d86972	-0.00041277293
182	0xb6ae9618	-5.2030773e-06
183	0x36a7cb12	5.0006283e-06
184	0x3815c5ab	3.570846e-05
185	0xb818b4a8	-3.6407873e-05
186	0xb77fc8d3	-1.5245942e-05
187	0xb8f65923	-0.00011746797
188	0xb5ce3e86	-1.5366393e-06
189	0xb8970fdb	-7.2031944e-05
190	0xb867a15a	-5.5224962e-05
191	0xb782d798	-1.5597601e-05
192	0x35bc4f9a	1.4030259e-06
193	0x34d272fa	3.9199205e-07
194	0xb720d9f4	-9.587489e-06
195	0x36487fc5	2.9876694e-06
196	0xbf3bdf35	-0.7338746
197	0xb850078a	-4.9598086e-05
198	0x39a0df57	0.0003068398
199	0xbf7ff36e	-0.9998082
200	0x37bef31a	2.2762968e-05
201	0xb58569fd	-9.940119e-07
202	0xb72ec6fb	-1.0417537e-05
203	0xb79dd406	-1.881459e-05
204	0xb5ebebbd	-1.7577473e-06
205	0xb737d1ad	-1.0956469e-05
206	0x3667f631	3.4564985e-06
207	0xb7fc8123	-3.0100875e-05
208	0xb6c94938	-5.9987906e-06
209	0xb7169411	-8.975171e-06
210	0xb68e7ae7	-4.2462375e-06
211	0x383eab3a	4.5458997e-05
212	0x36dc99de	6.5744234e-06
213	0xb644758a	-2.9274693e-06
214	0x37b64cfc	2.173194e-05
215	0x370bca2c	8.332117e-06
216	0xb69d7c20	-4.6934147e-06
217	0xb7c10526	-2.300979e-05
218	0xb80c3344	-3.3426346e-05
219	0x3766ebe1	1.3763988e-05
220	0x34e9dcb0	4.3560203e-07
221	0xb7b16d8c	-2.1151056e-05
222	0x380dfc5c	3.3852048e-05
223	0xb549e17d	-7.5206464e-07
224	0xb7ae18f5	-2.0754038e-05
225	0xb658f730	-3.233039e-06
226	0xb6dbfb3b	-6.5559557e-06
227	0x3751be12	1.2501625e-05
228	0xb63572d2	-2.7037936e-06
229	0x3798f559	1.8234061e-05
230	0xb78ae4a1	-1.6557346e-05
231	0xb7f08e89	-2.8676603e-05
232	0x36a8355f	5.0130034e-06
233	0x380cd315	3.3575187e-05
234	0x362e66de	2.5987897e-06
235	0xb7224cc5	-9.673827e-06
236	0x367674d4	3.672486e-06
237	0x34f89501	4.6302014e-07
238	0xb49db669	-2.937625e-07
239	0xb7632e48	-1.354103e-05
240	0xb7928a38	-1.746892e-05
241	0xb69e5caa	-4.7195545e-06
242	0x37b73878	2.1841595e-05
243	0x37eebf97	2.8461027e-05
244	0x3678e588	3.7088485e-06
245	0xb78577f6	-1.5910697e-05
246	0x379988eb	1.8302779e-05
247	0xb768a934	-1.3867673e-05
248	0x365fd83d	3.3355457e-06
249	0x364a7533	3.0168565e-06
250	0xb847c8df	-4.7632373e-05
251	0xb7a1211f	-1.9208119e-05
252	0x374becb6	1.2154856e-05
253	0xb776b918	-1.4705838e-05
254	0xb58452c7	-9.858858e-07
255	0x36b2e6ea	5.3316953e-06

layers.10.bias f4 [100]
0	0xbc0e50fe	-0.008686302
1	0x3f997042	1.1987383
2	0xbda34498	-0.079720676
3	0xbd9cc094	-0.07653919
4	0xbd9a809c	-0.075440615
5	0x3f12a7a2	0.5728704
6	0xbe07660a	-0.13222519
7	0xbe9dd680	-0.30827713
8	0xbe259b39	-0.16172494
9	0xbdfa521b	-0.122226916
10	0xbdeae42d	-0.11469302
11	0xbbef511d	-0.0073033706
12	0x3e8d12b2	0.27553326
13	0xbdd5b6e4	-0.10435274
14	0xbade3d07	-0.0016955443
15	0xbdabf89e	-0.08397029
16	0xbb069133	-0.0020533323
17	0xbd974c74	-0.07387629
18	0xbbf8e36d	-0.0075954706
19	0xbc4dea55	-0.012568076
20	0xbdbf6aef	-0.09346568
21	0x3f3feb20	0.7496815
22	0x3f9401b6	1.1563022
23	0xbe68f681	-0.22750284
24	0x3e8916ea	0.26775295
25	0x3df300c3	0.1186538
26	0xbc5e78b6	-0.013578584
27	0xbd628e6d	-0.05531161
28	0xbf48c017	-0.78418106
29	0xbc8f1b69	-0.017469125
30	0xbc1d3d1b	-0.009597088
31	0xbca90f92	-0.020637307
32	0xbe25a1bd	-0.1617498
33	0x3f5bf1c2	0.8591577
34	0xbd6f92eb	-0.05848972
35	0xbe09d8d2	-0.13461617
36	0xbc48a9e8	-0.01224754
37	0x3f8a3af1	1.0799237
38	0xbdd46887	-0.103714995
39	0xbdcb97e6	-0.09941082
40	0xbd7d7cdb	-0.06188665
41	0x3b8ac9f4	0.0042355005
42	0x3e8f14b8	0.27945495
43	0xbd66a067	-0.056305315
44	0xbeac2f88	-0.33630013
45	0xbdfbe140	-0.122988224
46	0x3f532797	0.82482284
47	0xbe7eb00b	-0.24871843
48	0xbdf05985	-0.117358245
49	0xbdb3d6e2	-0.0878122
50	0xbeade852	-0.3396631
51	0x3eba276c	0.36358202
52	0xbde3b347	-0.11118179
53	0xbc0e795b	-0.008695926
54	0x3f4414ed	0.7659443
55	0xbda0cdc4	-0.07851747
56	0xbd2cce44	-0.042188898
57	0xbdb675a1	-0.08909155
58	0x3c29757d	0.010342953
59	0xbdfbae75	-0.122891344
60	0xbdfbae83	-0.12289145
61	0xbc9ca5bd	-0.019121999
62	0x3e50e60a	0.20400253
63	0xbb50b8b8	-0.0031848382
64	0xbe5a5632	-0.21321943
65	0x3e8f1ebd	0.2795314
66	0x3eb14b7e	0.34627908
67	0x3f4ece11	0.8078318
68	0xbd0ec7ac	-0.03485839
69	0x3f411071	0.7541571
70	0xbe3c3332	-0.18378904
71	0xbeeb399c	-0.4594239
72	0xbda464c7	-0.08027034
73	0xbc1aaf58	-0.009441219
74	0xbebd5061	-0.36975387
75	0xbe87374d	-0.2640938
76	0x3e153bbf	0.14573573
77	0xbe793461	-0.24336387
78	0xbd92f526	-0.071756646
79	0xbd56a78f	-0.05240589
80	0x3f330f02	0.69944775
81	0xbcc8a3bb	-0.024492135
82	0x3f115b56	0.5677999
83	0xbe056f58	-0.13030756
84	0xbe89bc4d	-0.26901475
85	0xbd16b746	-0.036795877
86	0xbd5a7169	-0.053330813
87	0xbbffd996	-0.0078079207
88	0xbdc54801	-0.09632874
89	0xbd590274	-0.052980855
90	0xbd9cd380	-0.07657528
91	0xbd50eea1	-0.051008824
92	0x3e988207	0.29786703
93	0x3eb3258f	0.34989592
94	0xbf07ff65	-0.53124076
95	0xbe96476b	-0.29351363
96	0x3b5bfe65	0.003356838
97	0x3ef98db0	0.4874091
98	0xbce1932f	-0.027536003
99	0xbf39042f	-0.7227201
